models/mnist/mnist.tflite (tflite, 409060 bytes, 4 tensors)

sequential/dense/BiasAdd/ReadVariableOp f4 [128]
000000 cc 2d 2f 3e 80 06 b6 3c ba 9a 1f 3e f6 9a d9 3b
       0.17107314 0.022219896 0.15586367 0.0066407872
000010 1b 81 82 3d ac 3c 27 be f2 b4 6e 3d 9e 8d 10 3e
       0.06372281 -0.16331738 0.05827803 0.14116523
000020 9a 53 04 bd 87 29 e7 bc a8 4c 6e 3d c6 02 04 3c
       -0.03230629 -0.028218044 0.058178574 0.008057302
000030 24 63 9d 3b 41 87 86 3d 23 74 29 bd 34 d7 cc bd
       0.0048030782 0.065687664 -0.041370522 -0.10001984
000040 9a d8 2e 3e b0 3d 04 bd 92 2a 0d 3d b7 50 09 bc
       0.17074814 -0.032285392 0.034464426 -0.00838106
000050 72 e4 f7 3d 3a bd aa bd e5 79 cd bc 00 5f d5 bd
       0.12104119 -0.08336873 -0.025082538 -0.104185104
000060 c1 c4 15 3e 22 83 c8 3d 49 3c 66 3d 51 39 95 3d
       0.14625837 0.097906366 0.056209836 0.07286323
000070 c0 21 d0 3d 3a 4d b4 3d d9 fb 75 3d 56 92 ac 3c
       0.10162687 0.08803792 0.060054634 0.021065872
000080 55 4a 9b 3c 34 e6 b7 bc 6c 5c 7f 3c f5 2a ae 3c
       0.018956343 -0.022448637 0.015586 0.021260718
000090 35 7a 9d bd 2e e5 fc bc 02 a3 33 bb ba 8c 20 3b
       -0.07689325 -0.030871 -0.0027410393 0.0024497942
0000a0 71 b9 c0 bc 00 8b e8 bc 0a 57 bf bc 3d 33 0d be
       -0.023525925 -0.028386593 -0.023356933 -0.13789077
0000b0 e5 4f db bc 11 b7 29 3e de b7 35 bd 35 e3 1f 3d
       -0.026771495 0.1657374 -0.044364803 0.03903504
0000c0 90 62 52 bd e5 a3 fe bc c2 1e 66 3d af 3e 57 bc
       -0.051363528 -0.03108401 0.056181677 -0.0131375035
0000d0 05 cb 53 bc c0 9a 46 bc b8 04 e7 3b e6 a6 8c bc
       -0.012926822 -0.012121856 0.007050123 -0.017169427
0000e0 1d 46 66 bc 11 1c ff 3b b2 05 81 3d af d3 03 3e
       -0.014054802 0.007785328 0.062999144 0.1287372
0000f0 f4 2d 95 3c 56 58 ca 3c cd 5a cb bb 48 75 9d 3d
       0.018210389 0.024700325 -0.0062058927 0.07688385
000100 a6 df 9c 3d 9f e8 5e 3d ce c2 93 bd c7 f7 ab 3d
       0.07659845 0.054421064 -0.072148904 0.08396869
000110 05 75 67 bd 4e 36 a1 3c f9 dc 83 3d 5f 60 d2 3c
       -0.056508083 0.019679215 0.064386316 0.025680719
000120 3d 9e 9e 3d 63 5b b7 3d 70 e0 c9 3d 88 06 8a 3d
       0.07745025 0.089529775 0.09857261 0.06739527
000130 d7 20 13 3e ef 6b 30 3d 30 9e fa bc 41 b6 8a 3e
       0.14367996 0.043071683 -0.030593008 0.27092174
000140 09 d1 ae bc d1 59 df 3d 1e 59 2e 3d 11 05 7d 3d
       -0.02133991 0.10905803 0.042565458 0.06177241
000150 47 63 4d 3e 8b 8f eb bb 7e 35 4d 3d 4a 7f 14 bd
       0.20057403 -0.0071887425 0.050099842 -0.036254205
000160 32 9c 79 3d 1d 06 80 bd 5c d4 89 3d 55 77 58 bd
       0.060939975 -0.06251166 0.067299575 -0.05284818
000170 07 63 01 be 62 ff 38 3d 53 ab 03 3d 54 0e 55 3d
       -0.12635432 0.045165427 0.03214581 0.052015617
000180 41 5c ba 3c 70 a5 2f bd ae d4 97 3d c9 f1 dd 3d
       0.022749068 -0.042882383 0.07413612 0.108371325
000190 19 58 cd bd 25 49 b6 3d 12 a8 05 3e 64 b1 80 3d
       -0.10026569 0.0890067 0.13052395 0.062838346
0001a0 bb 38 78 bd 00 3e 08 3d 8e 29 b6 bd e0 58 11 3d
       -0.060600977 0.033262253 -0.08894645 0.03548515
0001b0 6c dc 85 3b 04 db bd 3c 68 74 8c 3c 69 6d 02 3e
       0.004085114 0.023175724 0.01714535 0.12737049
0001c0 c9 4e 03 be 81 41 b3 bc 67 c8 c0 3d e3 35 1a bd
       -0.12823023 -0.02188182 0.09413224 -0.037649047
0001d0 51 78 a1 bd ba e3 aa 3c 3e 19 46 3d e2 f3 8f 3c
       -0.07884277 0.020860542 0.048363917 0.017572347
0001e0 8d 42 94 bc 45 72 20 3d 56 7d 02 3e 5d 8b c2 3d
       -0.01809814 0.039171476 0.12743124 0.09499238
0001f0 ce c9 e5 3c 2b 6f 89 3d bb aa 37 3d a2 9b 11 3d
       0.02805033 0.06710657 0.044840556 0.035548814

sequential/dense_1/BiasAdd/ReadVariableOp f4 [10]
000000 49 ed e5 bd 59 a5 d9 3b 41 aa 23 3d 36 e9 c9 bd
       -0.11226899 0.0066420254 0.03995729 -0.098589346
000010 71 69 97 3d bd b1 44 3d bb e5 31 bd ad a8 ed bb
       0.07393158 0.048021067 -0.04343198 -0.0072527737
000020 8d f6 ea 3d cf 2d 99 bd
       0.11472807 -0.074794404

sequential/dense/MatMul f4 [128, 784]
000000 e8 43 5c 3c ee 93 3b 3d ab e4 92 bd c5 3a 9a 3d
       0.0134439245 0.045795374 -0.07172521 0.07530741
000010 84 0b ba bc 29 a8 a4 bd a1 13 93 3d ee 4c 47 3d
       -0.02271057 -0.080398865 0.07181478 0.04865735
000020 ee a3 3b 3d 9a b7 67 3d 3a 89 d1 bc c0 53 e5 3b
       0.045810632 0.05657158 -0.02557813 0.006998509
000030 ed 61 c9 3c 80 32 20 3d e8 6d 88 3d 5a 72 3e bc
       0.024582827 0.03911066 0.06661588 -0.011623943
000040 20 15 8d bb 90 3e f7 bb 3f c9 4a bd f7 02 93 3d
       -0.004305497 -0.0075453 -0.04950833 0.071783
000050 12 62 65 3d c2 2a 5b 3d c8 7e 2c bc c0 24 2e 3b
       0.05600173 0.053507574 -0.010528274 0.0026572198
000060 da 93 5a 3d a4 42 1b bd ea 21 94 bd 71 4d a3 3d
       0.05336366 -0.03790535 -0.07233031 0.07973755
000070 04 a1 23 bd ca 96 9e bd 38 b1 05 3c 26 2f 45 3d
       -0.03994848 -0.077436045 0.008159928 0.048140667
000080 d4 01 29 3d 81 7c 9a 3d a6 7d b1 bc 57 4b 09 3d
       0.04126151 0.075432785 -0.02166636 0.033519115
000090 65 99 95 bc e8 b4 66 bd 6a d2 58 3d cd 00 a7 3d
       -0.01826162 -0.05632487 0.05293504 0.081544496
0000a0 2a 6f 09 3d 27 d5 89 3c d7 f0 73 3d 2e 76 34 bd
       0.03355328 0.016825272 0.059555855 -0.044058017
0000b0 31 d6 14 be ac 8e 48 be ad f8 29 3d 7f 5b 93 bc
       -0.14534833 -0.19585675 0.04149692 -0.017987965
0000c0 fe c2 12 3d 79 e5 46 bd 69 f1 5a 3d 26 fe 87 bd
       0.03583049 -0.048558686 0.053452883 -0.06640272
0000d0 c2 29 60 3d 00 74 20 3a 57 67 97 3d bd 55 87 3d
       0.054727323 0.0006120801 0.073927574 0.0660815
0000e0 9e a5 94 bd 30 5d ce bc 62 d0 8b bd 22 94 90 bd
       -0.072581515 -0.02519092 -0.06826855 -0.07059504
0000f0 fc ff 93 3c c3 82 51 3d 6e 48 d0 3c 2e ad c9 bd
       0.018066399 0.051150095 0.025425162 -0.098474845
000100 29 c0 04 be a1 45 2c bd 48 4f 10 3d 7d 14 4d bd
       -0.12963928 -0.04205859 0.03523186 -0.050068367
000110 e2 81 12 3c b3 c7 2f be 58 17 f0 bd fa 6a f9 bc
       0.008942099 -0.17166023 -0.117232025 -0.030446518
000120 29 a0 26 be 01 f6 43 be 55 91 5f be 8a c0 56 be
       -0.16272034 -0.19136812 -0.21832784 -0.20971885
000130 b5 2f 25 be 1b 06 34 be 8e ba 80 bc d3 e3 73 bc
       -0.1613148 -0.17580454 -0.015713956 -0.0148858605
000140 d4 cb f1 bd c6 09 0c 3d 8c 15 cd 3c 3f ea 86 3d
       -0.11806455 0.03418901 0.025034688 0.06587648
000150 c9 5e 5f bd d2 1a c4 bc e0 23 a5 bb 1b b3 8a bd
       -0.054533754 -0.02393857 -0.005039677 -0.06772443
000160 29 8e 15 bc 7f e7 8d bd 31 e0 ac bd ce 54 8a bd
       -0.009128132 -0.0692892 -0.084411986 -0.067544565
000170 d6 74 1e be 4e ab 8b bd aa 64 41 bd 99 2b ef bd
       -0.15474257 -0.06819783 -0.04721514 -0.116782375
000180 29 9f 75 bd 97 87 ed bd 09 18 90 be 7d 80 96 be
       -0.05996624 -0.11598127 -0.28143337 -0.29394904
000190 63 f9 3e be 37 4b 39 be 2e e6 9c 3c 89 02 22 bc
       -0.18649821 -0.18095098 0.019152727 -0.0098883
0001a0 7d e9 25 be 39 41 7a be 0d 54 77 be 9a 49 2a be
       -0.1620235 -0.24438943 -0.24153157 -0.1662964
0001b0 57 2e 33 be db 54 07 be ea f8 01 bd 00 4e 86 bb
       -0.17498146 -0.13215964 -0.031731524 -0.004098654
0001c0 20 83 d8 3c 96 ac 74 3d ee 58 03 bd d9 6f 87 bd
       0.026429713 0.059734903 -0.03206723 -0.0661313
0001d0 18 39 eb 3d e8 f4 e8 3b 5e 4f e2 bb 3d 0d d6 bd
       0.11485499 0.007109273 -0.006906434 -0.10451744
0001e0 23 5b d8 bd b0 c0 9d be 84 92 bf be 06 71 f3 bd
       -0.10564258 -0.3081107 -0.3741647 -0.11886792
0001f0 b8 f6 32 be 19 97 6e be 22 e1 64 be 39 84 03 be
       -0.17476928 -0.23299827 -0.22351506 -0.12843408
000200 93 9a 53 bb 42 e8 db bd e7 d1 14 be 30 d2 a5 bd
       -0.0032288178 -0.10737659 -0.14533196 -0.08096731
000210 0a b9 1d 3d a7 ab da bd 44 ad aa bc ae f6 b5 3d
       0.038506545 -0.10677271 -0.020834573 0.08884941
000220 2b bc fc bd 83 01 64 be c5 6c 35 be aa 29 a2 bd
       -0.12340578 -0.22266202 -0.17717274 -0.07918103
000230 f3 6e 80 3d d5 6a 86 3d 6a 4c 8a bc 43 8c 4a 3e
       0.06271162 0.06563345 -0.01688214 0.19780068
000240 72 66 c1 3d 11 21 1e 3e ce b7 b9 3d e9 12 f6 bc
       0.09443368 0.15442301 0.09068261 -0.030038314
000250 ac 73 c9 3c 83 d2 14 3e 44 9c ac 3c b6 23 3b 3c
       0.02459129 0.14533429 0.021070607 0.011422088
000260 7d 5f bb bd d5 18 c4 bd 18 e8 94 3d e7 7c 12 3d
       -0.09149072 -0.09575049 0.07270831 0.035763647
000270 b0 5d 91 bd ed 30 14 be 68 4b 46 be 56 2d 13 be
       -0.070979476 -0.14471789 -0.19364703 -0.14372763
000280 06 6c 72 be 2a 5a f4 bc b9 9f 8a bd 4c 3d 18 bd
       -0.2367402 -0.02982815 -0.06768746 -0.037167832
000290 be 26 69 ba d8 be 34 be 5c 2a 1a be 32 19 d0 bd
       -0.00088940177 -0.17650926 -0.15055221 -0.101610556
0002a0 34 2e dd 3c 25 75 a1 3d b0 c9 86 3c f4 dc ea 3d
       0.02699957 0.07883672 0.016453594 0.11467925
0002b0 55 dd 7a 3d 40 44 52 3d 8f fb e5 bc db 1a 52 3d
       0.061246235 0.05133462 -0.028074054 0.051295143
0002c0 cf 93 d1 bd fb 3f 24 bd 8d b7 a4 bd b8 bc ae 3a
       -0.102332704 -0.04010008 -0.08042822 0.0013331389
0002d0 c4 1a f8 3c d1 e5 0b 3d f0 f0 91 3d 4c ba 4d 3d
       0.0302862 0.034154717 0.07126033 0.050226495
0002e0 d3 79 a6 bc 7c af b1 bc ce f2 10 3d 38 86 0a bd
       -0.020321762 -0.021690123 0.035387807 -0.033819407
0002f0 00 58 06 3d f4 11 f6 bc 59 ee 87 3d 57 79 b6 3c
       0.032798767 -0.030037858 0.06637258 0.022274656
000300 e9 3a 06 3e 95 5f a3 be dd 12 53 be 8f e0 f6 bd
       0.1310841 -0.3190886 -0.20612665 -0.1205455
000310 30 63 cf bb 62 24 5a 3d 07 b9 87 3d e0 b1 25 3c
       -0.0063289627 0.053257354 0.06627088 0.0101132095
000320 d9 f9 25 be 34 32 42 be 8e 52 7b be 27 71 28 be
       -0.1620859 -0.18964463 -0.24543211 -0.16449414
000330 f1 9f 67 be f1 9c b2 bd c9 91 e2 bc 47 60 dc bd
       -0.22619607 -0.087213404 -0.027657406 -0.10760551
000340 53 b5 dc bd 28 6c 4c 3d 8f bf 2a 3d 63 cf 54 3c
       -0.10776772 0.049907833 0.04168659 0.012988898
000350 7c 6b 40 3d 73 44 4a 3d 66 e4 20 bd fe cd d7 3c
       0.046977505 0.049381685 -0.039280318 0.026343342
000360 c7 5d 75 3d a3 6f d5 3d 5e 5b ca 3d d5 38 3f 3e
       0.059903886 0.10421684 0.09880708 0.18674023
000370 31 e9 9f bd 35 05 b2 be 50 ae 9c bd 89 55 4a be
       -0.078081496 -0.34769598 -0.07650435 -0.19759192
000380 ca 65 68 3d 6a e4 0b 3e 12 4a 21 3d c5 a3 86 bb
       0.0567377 0.13661352 0.03937728 -0.0041088783
000390 2c e3 92 bd be 39 a7 bd 69 69 00 be 6c b4 9c bd
       -0.07172236 -0.0816531 -0.12540211 -0.076516
0003a0 4f c4 ec bc a8 a0 e0 3d 45 7e 4d bb fb 76 63 bd
       -0.028902201 0.10968143 -0.003135578 -0.05553339
0003b0 f0 4a 24 be d5 bb ab bd 2c 4f 23 bc d5 94 aa 3d
       -0.16044211 -0.083854355 -0.0099676065 0.08329169
0003c0 35 25 a1 3c 22 1c d7 3d fa dc 84 3d ed cc 37 bc
       0.019671062 0.10503413 0.064874604 -0.011218292
0003d0 f6 27 5f bd 3a 4d dd bc fe 9d 1f bd f2 8d 38 bd
       -0.05448147 -0.027014364 -0.038969032 -0.045057245
0003e0 7e 7c dc bc 83 9c 68 be f6 35 be bc f6 e4 21 3d
       -0.026914831 -0.22715954 -0.02321909 0.039524995
0003f0 b8 86 10 bc 32 8d cf 3d e5 8b 2a 3e e0 41 94 3d
       -0.008821182 0.10134353 0.16654928 0.07239127

sequential/dense_1/MatMul f4 [10, 128]
000000 8b 44 1e bf eb a9 40 3e ea 8d 16 3e c1 c8 3c bf
       -0.6182334 0.18814819 0.14702573 -0.73743826
000010 bf 66 61 be b9 ae 5a 3e b0 bd 6d 3d 14 a3 9e 3e
       -0.22011851 0.21355714 0.05804223 0.30983794
000020 90 91 00 bf 1c 45 52 3e 9a 7d 94 bd 16 70 2d be
       -0.5022211 0.20534176 -0.07250519 -0.16937289
000030 66 c3 a1 3e f3 9b 38 3e ec 73 3d 3d fd a0 03 bf
       0.3159439 0.1802824 0.04625313 -0.51417524
000040 f6 8c 91 be 92 61 31 3e 6e 1c 76 be ca bf 29 bf
       -0.28427857 0.17322376 -0.24034283 -0.6630827
000050 6b 93 84 3e 3e 61 eb bd 78 b9 a8 be 94 2a a3 3d
       0.2589372 -0.11493157 -0.32954 0.079671055
000060 6b 06 60 3e 45 34 63 be d3 85 85 be 90 d6 35 3c
       0.21877448 -0.22187908 -0.26078662 0.011098519
000070 41 28 61 3d 11 c5 c6 3d ad fa 3c be 88 a7 36 3e
       0.05497003 0.09705556 -0.18455 0.17837346
000080 78 2d 54 be d4 8b 42 be 08 8d e2 3d 9e 10 f1 be
       -0.2072047 -0.18998653 0.11062056 -0.4708299
000090 4c af 12 3d 81 0a 03 3e 47 2f e8 3c 78 6b 9d bd
       0.035811707 0.12796976 0.028342856 -0.07686514
0000a0 a5 22 d3 be b4 a0 68 3e a5 30 91 bd 87 c7 d2 3e
       -0.4123737 0.22717553 -0.07089356 0.41167852
0000b0 be eb e6 be 0f 46 22 be b9 0b 89 bd ac 95 89 be
       -0.45101732 -0.15847038 -0.06691689 -0.26872003
0000c0 77 c0 cc bc f5 90 ec bd c5 8b fb bd f7 36 8b 3e
       -0.024994118 -0.11551086 -0.12282518 0.27190372
0000d0 6e 64 13 3e e4 7e ba be 0e b0 b0 be d5 fc 9d bd
       0.1439378 -0.36424935 -0.3450932 -0.077142395
0000e0 dc d4 57 3c b2 b6 9b be 4b 91 67 3e b2 6f 24 3e
       0.013173308 -0.30412823 0.22614019 0.16058233
0000f0 cb b0 8f bd f2 86 e9 be d4 11 2b 3d 74 5e ae bd
       -0.070161425 -0.45610768 0.04176505 -0.08514109
000100 2c 82 a6 be ea 6f 07 bd 2e 0e 00 3e 7a db 8b 3e
       -0.32521188 -0.033065714 0.12505409 0.27315885
000110 ce bc ec bd ce ea 1e 3d 31 50 5f 3e e7 90 51 bf
       -0.11559449 0.038798146 0.21807934 -0.8186173
000120 96 b4 11 3e 4e 48 09 bd b2 cf 38 be d9 94 fc 3d
       0.14229044 -0.03351622 -0.1804798 0.12333078
000130 0f f9 75 bf 19 2d d2 be 5c b0 d3 bc c4 9c d3 be
       -0.9608316 -0.41050032 -0.02584093 -0.4133054
000140 55 e8 d2 be 9c 53 41 3e 4b cf 9f bc dd f5 a3 bd
       -0.4119288 0.1887955 -0.019508025 -0.08005879
000150 2d 09 75 be 72 35 0f be 68 92 fd 3d 5a 1e a3 3d
       -0.23929282 -0.13985232 0.123814404 0.079647735
000160 77 c7 66 bd 32 1b 10 3e 28 2d 19 be d6 17 6c 3d
       -0.05634257 0.14072874 -0.14958632 0.05763992
000170 0b 8f 71 3e 6b ae 82 bd 9d 80 14 bb 82 ae 1d bf
       0.23589723 -0.06380924 -0.0022659667 -0.615944
000180 b1 14 16 3e a8 c2 ad bc f6 77 b6 bd bf a1 a3 3d
       0.1465633 -0.021210983 -0.089095995 0.07989835
000190 6b e6 2b bd 56 1b c9 bb fa 7d 30 3d a5 80 08 bf
       -0.04196779 -0.006137292 0.04308889 -0.53321296
0001a0 9d be c2 3d 42 1b 6e be 59 53 8e 3e fd ea 25 3e
       0.09509013 -0.23252586 0.27797964 0.16202922
0001b0 66 2b e7 bd 07 37 9b 3e 88 72 7d bd 63 1e c1 3d
       -0.112875745 0.3031542 -0.061876804 0.09429624
0001c0 93 e6 3a 3e 99 3a 6b 3d 76 39 b5 be a6 2b 2a 3e
       0.1825202 0.05742893 -0.35395402 0.16618213
0001d0 23 47 8f 3b e6 e5 d0 bc c9 09 a7 bd c9 6e 06 3c
       0.004372494 -0.02550025 -0.08156163 0.008205124
0001e0 a7 75 6b 3e 20 a7 ba be 21 13 ce 3d 43 9c 78 3e
       0.229941 -0.3645563 0.10062242 0.24278359
0001f0 51 05 0f bf 96 43 1f 3e 3b 21 64 3e c6 a7 26 3e
       -0.5586749 0.15553126 0.22278301 0.16274938
000200 73 59 fe 3e fe 21 24 be 27 13 8e 3e 20 d9 bf 3e
       0.4967762 -0.16028592 0.27748987 0.3747034
000210 46 6a 88 bd 8a f1 a7 bd e3 61 da 3e a0 55 c8 3e
       -0.06660895 -0.08200367 0.42652807 0.39127827
000220 5d 9a b9 bd ee 68 62 3e 37 43 e2 be af 09 13 3e
       -0.090626456 0.2211034 -0.44191906 0.14359163
000230 96 10 9b be 51 38 72 3e 6a 5c d4 3e b7 92 9c bc
       -0.30286092 0.23654296 0.41476756 -0.019112928
000240 57 28 24 3f 2d 4d 29 3e 7b 4a a8 be 64 e6 f7 3d
       0.64124054 0.16533346 -0.32869324 0.121044904
000250 fc 0b 35 3e bf af 4b bd 5b 2b 37 3e 4b 7a c1 be
       0.17680353 -0.04972815 0.17887633 -0.37788615
000260 6f e6 09 be 0d c4 19 3e 90 da 8d 3e 9c 9d 95 bd
       -0.1346681 0.15016194 0.27705812 -0.07305452
000270 25 48 1c bf 9e 7b 8a 3e 51 3e ae 3e b4 73 80 3c
       -0.61047584 0.27047437 0.3403192 0.015680172
000280 5f 44 92 be 74 00 6b bc d9 68 90 be 02 2a 21 3e
       -0.28567788 -0.01434337 -0.28204992 0.15738681
000290 e8 13 65 be e1 94 db bd 9c 5f a8 3d ce 50 19 bc
       -0.22370875 -0.10721756 0.08221361 -0.009357644
0002a0 d9 a3 68 be a7 05 b1 be b7 08 a3 bd 87 8c 9b be
       -0.22718753 -0.34574625 -0.079606466 -0.3038065
0002b0 86 f7 28 bd c2 06 ba be f7 13 35 bd 3a c6 97 3d
       -0.04125168 -0.3633328 -0.044208493 0.074108556
0002c0 19 3a aa 3e 89 d9 99 3e 50 f5 94 bd a6 35 87 3e
       0.3324745 0.3004878 -0.07273352 0.26408118
0002d0 74 8d 97 be 6d 30 ec bd a3 d0 21 3e ae ca a5 3e
       -0.29600108 -0.11532674 0.15802245 0.32381195
0002e0 85 fd 22 3d 5f 33 d2 be 7d 53 ab be ab 08 0d bf
       0.039792556 -0.41054818 -0.33462134 -0.5509135
0002f0 00 24 51 be b4 48 d7 3d 24 47 ab 3d 56 94 01 be
       -0.20423889 0.10511914 0.08363178 -0.12654242
000300 c9 5d 41 be 2f 1e 22 bf c4 67 bb 3d 50 cf 36 be
       -0.18883432 -0.63327307 0.09150651 -0.17852521
000310 94 8c e8 be 5f 83 a2 bc ba 0d 51 be 74 76 96 3d
       -0.45419753 -0.019838033 -0.20415393 0.07346812
000320 3e 2e 9b bd fb 3f f4 bc 61 14 5a 3d 35 bb d1 be
       -0.07577179 -0.029815665 0.05324209 -0.4096314
000330 8d 73 92 3e 0b 23 d8 3e 14 f2 1c bd 72 87 4d 3c
       0.28603783 0.42214236 -0.0383168 0.0125445
000340 be 62 d9 bd 57 e4 a0 3e 63 74 7f be 97 df 8d bd
       -0.10614537 0.3142421 -0.24946742 -0.06927412
000350 0c 99 06 3e a6 d0 12 be 7f a3 2c be 37 7d 95 be
       0.1314432 -0.14337406 -0.16859244 -0.29197094
000360 c9 6a c2 3d c6 cc 2e 3e 47 9f 5b 3d 37 77 8c be
       0.09493024 0.17070302 0.053618696 -0.27434704
000370 94 8c 24 be bd cf 04 3d 74 db 1f bd 81 f5 76 be
       -0.16069251 0.032424677 -0.039027646 -0.2411709
000380 33 0e 69 be f6 d5 42 3e 87 35 69 be dd 81 53 3e
       -0.22759323 0.19026932 -0.22774325 0.20655008
000390 0b ff c3 3e 9b d2 0a 3e b5 81 78 3e 22 e3 66 3e
       0.3828052 0.13556902 0.2426823 0.22547582
0003a0 7d 99 1b bf d5 7b 9f be 00 00 46 bf f0 35 a8 3e
       -0.6078108 -0.31149164 -0.7734375 0.3285365
0003b0 db 17 b6 3d 8a 92 47 3e 98 f2 98 bd fe e8 b1 be
       0.08891269 0.19489494 -0.07468146 -0.3474807
0003c0 c7 5d 19 be 41 eb 7f be da 25 23 3e 5e 9d b0 be
       -0.1497718 -0.24992086 0.15932408 -0.34495062
0003d0 0d 1a 8e be 64 18 47 be 4e 8e c0 3d 58 98 ea be
       -0.2775425 -0.19442898 0.094021425 -0.45819354
0003e0 71 3b 92 bc 61 6a 2e b9 0a 5c 76 3e 68 4c f1 be
       -0.01785061 -0.00016633562 0.24058548 -0.47128606
0003f0 8e 3b 3c 3e 7b 46 af bd fc 4d b9 bd 77 eb 24 be
       0.18382093 -0.08558365 -0.090480775 -0.16105448
