models/anode/arson.of_cnnlstm.tflite (tflite, 117504 bytes, 14 tensors)

sequential/dense/MatMul f4 [2, 32]
000000 a3 be 07 3e 58 99 88 3e 3c fe 98 be 07 95 dd 3c
       0.13256316 0.26679492 -0.29881465 0.0270486
000010 2d 10 b1 3e 28 68 3a be 87 93 5a be a7 c5 98 3e
       0.34582654 -0.18203795 -0.2134534 0.29838297
000020 1a ac 26 3e cf 77 77 3e a6 72 8a 3e 68 8f ab 3d
       0.16276589 0.24166797 0.27040595 0.08376962
000030 8a 5d b9 be a3 53 c8 3d ce f6 3d 3e 08 a6 9a bb
       -0.36204177 0.097815774 0.1855118 -0.0047194995
000040 36 e5 ab be 11 d8 2f 3d b2 dc b5 3e ad 5f 29 be
       -0.33573312 0.042930666 0.3551994 -0.16540404
000050 e5 9d a7 3e 6d 7f b6 3e e9 e1 46 3e 95 1a 9a 3e
       0.3273765 0.35644093 0.19422115 0.30098405
000060 0b 22 c2 3e d1 38 21 3d b3 13 7b be 7e c6 ab 3e
       0.37916598 0.039360825 -0.24519233 0.33549875
000070 b7 53 bd bd 39 76 d3 be 36 b3 60 be 92 00 df 3e
       -0.09244483 -0.41301134 -0.21943364 0.43555123
000080 4c 9d 7b 3e 2e b3 15 be ab de b2 3e d7 d4 dc 3d
       0.24571723 -0.14619133 0.34935507 0.107827835
000090 a9 18 56 3e e9 6f 3b 3e 9d 17 87 3e 55 cf b7 3e
       0.20907845 0.18304409 0.26385203 0.3590037
0000a0 76 be 35 3e f8 9a e0 3d aa 84 82 3e c4 83 50 bc
       0.17748436 0.10967058 0.2549184 -0.012726728
0000b0 00 7c 51 3e 83 08 96 be 66 48 d1 be 7c 19 43 3b
       0.20457458 -0.2930337 -0.40875548 0.0029769829
0000c0 cf 63 be be 35 d3 b8 3e 7a e4 af 3e b0 8b 04 be
       -0.37185523 0.36098638 0.34354 -0.12943912
0000d0 5c 7e 62 3e b0 07 93 3c aa 5f d1 3e 57 cb 66 3e
       0.22118515 0.017948002 0.40893298 0.22538505
0000e0 65 cc c5 be 8c 20 2a 3e d1 7d 06 be cb 50 4d be
       -0.38632503 0.16613978 -0.13133933 -0.20050351
0000f0 89 7b 3c be 4e c0 a4 3e ce 4f 67 be 67 34 53 be
       -0.184065 0.32177967 -0.22589037 -0.20625459

sequential/dense/BiasAdd/ReadVariableOp f4 [2]
000000 6d 27 21 bc 6e 27 21 3c
       -0.00983606 0.009836061

sequential/lstm/Read_2/ReadVariableOp f4 [128]
000000 7b c8 93 bc 4a 8f 4b 3c 51 7d 3d 3c 09 a0 25 bb
       -0.018039932 0.0124242995 0.011565522 -0.002527239
000010 3d f3 61 bc a7 f9 58 3c 44 1c b0 3c d2 7f 29 bb
       -0.013790903 0.0132431155 0.021497853 -0.002586354
000020 bb 92 ee bb 3d 29 d8 39 2b 36 19 bc 3d 6a c4 3b
       -0.007280675 0.00041229455 -0.009351294 0.00599411
000030 b7 0a 48 3c 77 55 6b bb 9e bb ff 3a 06 7a 1a 3d
       0.012209586 -0.0035909095 0.001951087 0.037714027
000040 14 de 52 3c 26 27 c0 3c b7 5f 02 3c 01 ce 45 3c
       0.01287033 0.023456167 0.0079573905 0.012073041
000050 ac 1c 68 3c 9b 2f 25 3b 65 9f 03 bc ed ab c1 bc
       0.014166992 0.0025205377 -0.008033608 -0.02364155
000060 e3 8e e3 3b 8b e8 02 3d 4a d6 23 3c a5 ce ab 3a
       0.0069445237 0.03196005 0.009999821 0.001310785
000070 3e b7 d4 3c e7 e9 99 3c ff 17 d6 39 b4 8b 8b 3c
       0.025966283 0.018788291 0.0004083514 0.01703439
000080 f4 e5 7e 3f bd 88 81 3f 13 b6 7f 3f c0 5f 80 3f
       0.9956963 1.0119854 0.998872 1.002922
000090 89 00 7c 3f 3a 5c 80 3f 15 fb 80 3f 18 07 80 3f
       0.98438317 1.0028145 1.0076624 1.0002165
0000a0 5b d6 7e 3f fb fc 7d 3f 1c bd 7f 3f 47 c4 80 3f
       0.9954583 0.9921414 0.99897933 1.0059899
0000b0 ab 49 7f 3f 0e 3d 7f 3f 13 80 7f 3f 7d 67 84 3f
       0.99721783 0.9970254 0.998048 1.0344082
0000c0 67 6a 80 3f b4 1e 80 3f e7 60 81 3f 82 1f 81 3f
       1.0032471 1.000937 1.0107697 1.008774
0000d0 93 91 80 3f 6f c9 7e 3f 42 d2 7e 3f ef 3a 79 3f
       1.0044426 0.99526113 0.9953958 0.9735555
0000e0 ea ac 7f 3f 94 7c 82 3f 79 b5 81 3f ac 59 7d 3f
       0.9987322 1.0194268 1.0133506 0.98964953
0000f0 b3 81 81 3f f5 73 80 3f 49 85 80 3f 6e db 80 3f
       1.0117706 1.0035387 1.0040675 1.0066965
000100 df 8f b7 3c 84 2d 32 bc a4 16 91 3c 6d b6 4f 3c
       0.02240747 -0.01087511 0.017710991 0.012677771
000110 2d 0e d9 bb 13 b0 68 3c a4 38 fe 3b 2b 2d ed ba
       -0.0066240043 0.014202136 0.007758217 -0.0018095126
000120 39 08 2a 3c b4 9b cd 39 bf c0 14 bd 2b 7a 61 bc
       0.010377937 0.00039216655 -0.03631663 -0.013762037
000130 b9 81 8d 3c d5 47 10 bc 2e 30 52 bc 59 5f 5c bd
       0.01727377 -0.008806189 -0.01282887 -0.053801868
000140 54 fd 37 bc 62 50 bb bb 3e ab cb 3c e8 bc 94 bc
       -0.011229832 -0.0057163695 0.024861928 -0.018156484
000150 2a c5 59 bc e2 fb 2a bc 16 51 06 3c 34 35 7a 3c
       -0.0132916365 -0.01043603 0.008198043 0.015271474
000160 56 9a 3f bc d9 04 50 bc 76 ea a1 3c 6e 87 46 bc
       -0.011694511 -0.012696468 0.01976512 -0.01211725
000170 d4 26 10 3c cb 15 3d 3c d6 6a 09 bd 97 50 68 bc
       0.00879832 0.01154084 -0.033549152 -0.01417937
000180 0b 54 a0 bc 7f d0 7e 3c f1 80 3f 3c ce 78 dd 3b
       -0.019571325 0.015552639 0.011688457 0.006758786
000190 6c b1 6d bc 52 49 9e 3c 98 7f c0 3c 42 89 a3 bc
       -0.014507633 0.019322071 0.023498341 -0.01996291
0001a0 71 11 d8 bb d2 f5 01 3c 13 a4 83 bb 68 e5 fa 3b
       -0.006593876 0.007932143 -0.004017362 0.007656742
0001b0 23 32 45 3c 4b a5 1f ba 10 fd b4 3b b0 d3 19 3c
       0.012035879 -0.0006089999 0.0055233315 0.009388849
0001c0 03 b6 89 3c 9f 2d 5b 3c 45 e2 db 3a 7a ac 58 3c
       0.016810423 0.013377576 0.0016775808 0.013224715
0001d0 7b 1f 66 3c 49 98 01 3b 8a 53 c8 bb c0 16 4b bc
       0.0140455915 0.0019774607 -0.0061134743 -0.012395561
0001e0 95 8d 52 3c 22 12 8b 3c f3 1b 2b 3c 68 12 a0 3b
       0.012851139 0.01697642 0.010443675 0.0048850067
0001f0 c3 2a f5 3c 86 ee d5 3c 37 a0 2a bb ba 6b 96 3c
       0.029927617 0.026114713 -0.0026035437 0.018361915

sequential/time_distributed/conv2d/BiasAdd/ReadVariableOp f4 [16]
000000 38 7b 95 3b 12 e3 d7 bc af 14 a1 3b af 1f 5b 3b
       0.004561808 -0.026353393 0.0049157958 0.0033435633
000010 69 37 d3 3c 96 24 cc bb 9c de d6 bb 29 03 78 3b
       0.025783258 -0.0062299473 -0.006557299 0.003784368
000020 66 94 43 bc ed 88 a7 3c ce eb 87 bc ea 12 25 bd
       -0.011937236 0.020451033 -0.016591933 -0.04030124
000030 fc 14 90 bc fa 88 a0 bb 7b ec 53 bc e4 f4 12 bc
       -0.017588131 -0.0048991414 -0.012934799 -0.008969519

sequential/time_distributed_3/conv2d_1/BiasAdd/ReadVariableOp f4 [32]
000000 59 b6 71 bc 59 7a 1e bc 5d 2f 8d bc dc 3a 93 bc
       -0.014752948 -0.009672725 -0.017234499 -0.017972402
000010 01 2f df bc 1b 60 9d 3c 8d d8 87 bc 47 15 0c 3c
       -0.027244093 0.019210866 -0.016582752 0.008549995
000020 32 3f 82 bc 03 1d 7d bc 0f 11 8e bc 47 63 24 3d
       -0.015899274 -0.015448811 -0.017342119 0.04013374
000030 54 78 a2 bc d0 9d 19 bc 10 d9 ba bc d9 76 56 bc
       -0.019832768 -0.009376004 -0.022808582 -0.013089859
000040 28 c1 7a bc 02 6f 80 bc c0 21 c2 3a b2 4e 9f bb
       -0.015304841 -0.015677933 0.0014811084 -0.004861676
000050 80 14 1c bc 01 cb 6e bc b4 cd 1d bc 86 cb fd bb
       -0.009526372 -0.014574767 -0.009631563 -0.007745209
000060 ea 93 b4 3b f2 81 b5 bc 49 38 76 bc 79 42 75 bc
       0.005510797 -0.02215669 -0.015028068 -0.014969462
000070 76 97 69 bc a3 3c bc bc 68 85 6c bc ef 44 5f bc
       -0.0142573025 -0.022978133 -0.014436103 -0.013627275

sequential/time_distributed_6/conv2d_2/BiasAdd/ReadVariableOp f4 [64]
000000 fc 04 e5 3b 03 3f 70 bc ec b3 ba bb 40 62 6e bc
       0.0069891196 -0.014663461 -0.005697718 -0.014549792
000010 c0 59 5c bc b5 f0 18 3b 39 eb 94 bb 89 0e 3b 3c
       -0.013449132 0.0023336832 -0.0045446423 0.01141704
000020 16 c0 21 3c dc 4c 43 bc 1b 5f 80 bb bc ac 3f 3b
       0.009872457 -0.01192018 -0.0039175875 0.0029247245
000030 e5 a6 48 bc 38 1c 72 bc 39 5e 66 bb 6c 4f fd bb
       -0.012246822 -0.014777236 -0.0035151376 -0.007730415
000040 ce e2 65 bc dc 94 e2 bb 52 3f 22 bc 86 eb 10 3c
       -0.014031125 -0.006914718 -0.009902792 0.008845216
000050 9e e0 89 bc 11 cb bd 3b b3 c6 de 3c 12 89 e5 3b
       -0.016830739 0.0057920297 0.027194357 0.0070048654
000060 59 f8 09 bc ef 8d a3 3c d4 f5 67 bc ef 0c 69 bc
       -0.008421027 0.01996514 -0.014157731 -0.014224275
000070 70 ef 9e 3c 52 6c 15 bc 24 0a 1b 3c 84 14 23 bc
       0.019401282 -0.009120064 0.009462867 -0.009953622
000080 4e c5 05 bc a9 94 83 bc 70 ce 55 bc a7 fc 37 bc
       -0.008164717 -0.016062098 -0.013049707 -0.011229671
000090 92 29 d6 bb c3 79 28 bc e1 60 85 bc 85 84 78 bc
       -0.0065357173 -0.0102829365 -0.016281547 -0.015168314
0000a0 c2 45 98 bc fc 0f 76 bc 06 8d ed bb 18 a4 b1 bb
       -0.01858795 -0.015018459 -0.0072494773 -0.005421173
0000b0 82 ce a3 bc 4c 39 11 3d 6c d7 b8 bc df 24 5d bc
       -0.019995932 0.035455033 -0.022563659 -0.01349756
0000c0 54 5e 53 bc e4 c4 5c bc 67 42 0e bc 12 f4 7d bc
       -0.012900908 -0.013474677 -0.008682824 -0.015500085
0000d0 fa 03 3f bc 78 55 54 bc f1 2d ac 3c 97 88 c7 3c
       -0.011658663 -0.01295983 0.021018 0.024357123
0000e0 b2 9f de bb 16 c5 f4 3c d3 d5 f4 39 93 7f 79 bc
       -0.0067939395 0.029879134 0.00046698618 -0.01522817
0000f0 b6 c9 b4 3c 10 9d a9 bb d9 5d 8f bc 9e 0a c2 bc
       0.02206884 -0.005176194 -0.017500805 -0.023686703

sequential/time_distributed_9/conv2d_3/BiasAdd/ReadVariableOp f4 [64]
000000 f0 45 4f 3c 84 86 1b bc f2 df 3f bc fe 7c ee bb
       0.012650952 -0.00949252 -0.011711108 -0.007278084
000010 fc db c5 bb bf 93 23 bc c4 53 3d bc 7c b6 1e bc
       -0.006038187 -0.009983956 -0.011555616 -0.009687062
000020 4a 31 68 bb 0c 07 0c bc 2b 56 a8 bb 1d f7 64 bc
       -0.003542977 -0.008546602 -0.005137225 -0.013974932
000030 6e 0b 8b bc 8e 62 2c bc 08 31 53 bc cc 4e dd bb
       -0.016973224 -0.010521544 -0.012890108 -0.006753778
000040 84 01 f4 bb b0 05 7c 3a 81 20 39 3b d9 a4 cd bb
       -0.0074464697 0.00096138846 0.0028248134 -0.006275755
000050 a8 ed 55 bc 82 b9 dd bb db 94 62 ba b8 44 2e bc
       -0.01305715 -0.006766499 -0.0008643397 -0.010636501
000060 ea 6f 86 3b b7 4e 55 bc ad 03 b8 bb 4f ee 7d bc
       0.0041026967 -0.013019255 -0.0056156726 -0.015498712
000070 12 44 21 bc ff 07 ab bb 60 71 08 bc a1 39 d4 3c
       -0.009842889 -0.005219459 -0.008327812 0.025906386
000080 78 d7 c6 bc 18 92 95 bb 68 20 37 bc 93 ce d8 bb
       -0.024272665 -0.004564535 -0.01117716 -0.0066164224
000090 a4 3f 2e ba ef 7b b6 bb 2b f6 61 bc 09 b1 9a bb
       -0.00066470564 -0.0055689733 -0.013791601 -0.0047208113
0000a0 1b c7 bf bb c8 b1 93 bc 45 7b 1c bb 51 14 b1 3c
       -0.0058525926 -0.018029109 -0.0023877185 0.021616133
0000b0 60 0a 3e bc e7 fa 19 bc 27 55 26 bc 57 79 85 bc
       -0.011599153 -0.009398199 -0.010152138 -0.01629321
0000c0 7f 4d e9 bb 11 8f 06 bc 4e 73 96 bc a5 72 e2 bb
       -0.007119834 -0.008212821 -0.018365528 -0.0069106393
0000d0 c2 ad 54 3b b3 07 55 3c e7 03 12 bc 6f 74 fe bb
       0.00324522 0.013002324 -0.008912063 -0.007765345
0000e0 f7 f2 cc bb 31 3c 90 bb 02 23 14 bc 14 a7 32 bc
       -0.0062545496 -0.0044017066 -0.00904155 -0.010904092
0000f0 d9 38 1c ba 27 3c ac bb cd 6d 81 3b 8a c6 2e bc
       -0.00059593987 -0.005256194 0.003949857 -0.010667453

sequential/time_distributed/conv2d/Conv2D f4 [16, 3, 3, 1]
000000 4c 96 ce 3d 22 c8 21 be 02 47 8d bc 0a ab 07 3d
       0.100872606 -0.15799001 -0.017245773 0.0331221
000010 78 d4 21 3e 8a 9b 0e 3e f2 af 38 be 17 e7 f8 3b
       0.15803707 0.13926521 -0.18035868 0.0075959074
000020 ed e8 ed bd e1 40 f2 3d 5a f4 32 3e 5f a9 05 be
       -0.11616693 0.11828781 0.17476025 -0.13052891
000030 59 ae 3e be ab 71 32 3e 55 c0 65 3d 1d 39 c5 3d
       -0.18621196 0.17426173 0.056091625 0.09630034
000040 53 54 27 3e 7d 1a 71 be c3 75 41 be 34 bc 68 3d
       0.16340761 -0.2354526 -0.18892579 0.05682011
000050 ea af 19 be a3 61 16 3d e0 a5 06 3d cc 6d 03 3d
       -0.15008512 0.036714207 0.032873034 0.032087132
000060 32 37 1f 3e aa c0 04 3e 15 f0 1b be bb b6 0c 3e
       0.15548399 0.1296412 -0.15228303 0.13741581
000070 3e ea 12 be 9a 75 ab 3d c9 94 76 bc b8 17 35 3e
       -0.14347169 0.0837204 -0.015050122 0.17684829
000080 1c 76 e9 bd 82 aa a7 bc 3b aa 00 be b5 17 52 bc
       -0.11399481 -0.020467047 -0.12564938 -0.012823035
000090 47 57 84 bd 61 4a 05 be 6a 1e 2e be d4 24 03 be
       -0.06461959 -0.13016655 -0.1700379 -0.12807018
0000a0 64 80 fc bd 04 65 e1 3d 1f 8b 92 bd 09 aa dd 3d
       -0.12329176 0.11005595 -0.071554415 0.10823447
0000b0 73 7a 60 bd df 46 73 3d ff d6 2f 3d dc e9 40 be
       -0.054804277 0.05939376 0.042929646 -0.1883921
0000c0 2d 83 35 be ce a3 2f 3e 94 5c 0e be de ed bd 3c
       -0.17725821 0.1715233 -0.13902503 0.023184713
0000d0 71 1c 1d 3d 36 68 4b be 0f a4 37 3e 6b 83 25 bc
       0.038357202 -0.19863972 0.17933677 -0.010102133
0000e0 b5 f8 fe bd 1c a5 fd bd f5 a2 e9 bc b4 e7 0a 3d
       -0.12449781 -0.12385008 -0.028520087 0.033912376
0000f0 02 2d 1b be 12 9e dd 3c 38 3e 21 be 63 23 51 3d
       -0.15153888 0.027052913 -0.15746391 0.051059138
000100 c1 7e 42 be d6 23 e4 3d 63 82 36 be b7 41 c0 bd
       -0.18993665 0.11139648 -0.17823176 -0.09387534
000110 d8 4d 54 3e e1 cf 0d 3e b7 3d 0d be 93 1e 60 3d
       0.2073282 0.13848831 -0.13793074 0.054716658
000120 b7 5b fc bd ff ac b5 3d 50 37 a0 bd 80 3e 0d 3e
       -0.12322181 0.08870887 -0.0782305 0.13793373
000130 22 ba eb bd b7 2d 03 be 17 b6 08 3e 9e ee 4c be
       -0.115101114 -0.12810408 0.13350712 -0.200129
000140 9f d5 48 be e7 be 8c 3d 29 a8 7c be 01 eb 1c 3d
       -0.1961274 0.06872349 -0.24673523 0.038310055
000150 ba 6f 26 be 53 50 9d bd 62 f8 e3 3c 6c 9f d2 3d
       -0.16253558 -0.07681336 0.0278284 0.102843136
000160 df 46 d7 bd 51 76 03 be 3f e0 34 3e 81 4c ce bb
       -0.105115645 -0.12838103 0.17663668 -0.006295741
000170 14 95 f9 bd 49 3a b1 3c b1 0c e7 bc a0 50 d6 bc
       -0.121866375 0.021634238 -0.028204294 -0.026161492
000180 e6 c4 d0 bb c6 7c 19 be fa 46 1f 3e 07 6a 33 3b
       -0.0063711284 -0.14989004 0.15554419 0.002737643
000190 8e af 31 3e e3 d0 cd bd 55 33 94 3b f9 fe ff 3d
       0.17352125 -0.100496076 0.004522721 0.12499804
0001a0 9f f8 ac bd 72 42 f4 bc 33 71 60 3d b3 09 62 3c
       -0.08445858 -0.02981684 0.054795455 0.013796258
0001b0 94 09 74 bc ff 76 34 3e 53 de 2b 3e 84 59 35 3e
       -0.014894862 0.17623518 0.16784029 0.17709929
0001c0 b6 e3 0d be d2 f5 99 3d 3c 3c 85 bd 1b 20 21 be
       -0.13856396 0.0751759 -0.065056294 -0.15734904
0001d0 6e 31 12 be de 52 38 3d e2 31 52 be f0 cc 22 be
       -0.14276668 0.045000903 -0.20526841 -0.1589849
0001e0 b1 1c 19 3e 5e 02 f9 3d dc a7 17 3d 23 52 0e bd
       0.14952351 0.12158655 0.037025318 -0.0347463
0001f0 bf d5 85 bc f5 3c 30 3d 10 8d dd 3c 75 12 8e bd
       -0.016337274 0.043026883 0.027044803 -0.06937114
000200 5f 80 38 3e 6d ab 63 be 99 b2 b6 bd cd a4 22 3e
       0.1801772 -0.22233362 -0.089207835 0.15883179
000210 ec 92 89 bd bd f2 08 3e 26 be a2 3d ac 8c 77 bd
       -0.06717476 0.13373847 0.07946424 -0.06043689
000220 d5 9d 4b 3e 32 cb d8 bc 22 0d 9a bc 44 3c ac 3c
       0.19884427 -0.026464079 -0.01880509 0.02102483
000230 a0 13 52 be 56 fb f5 bd 29 4b 36 be c0 7e 88 3c
       -0.20515299 -0.12010829 -0.17802109 0.016662002

sequential/time_distributed_3/conv2d_1/Conv2D i1 [32, 3, 3, 16]
000000 40 cb 19 56 a9 f0 d4 00 34 22 37 2d f6 d7 da 81
       64 -53 25 86 -87 -16 -44 0 52 34 55 45 -10 -41 -38 -127
000010 13 1d 52 4f 21 23 df 51 2d 9d 08 10 f0 0f 0e 0d
       19 29 82 79 33 35 -33 81 45 -99 8 16 -16 15 14 13
000020 48 09 44 d0 e5 3a 12 4b ad 25 d2 e4 05 29 f8 cd
       72 9 68 -48 -27 58 18 75 -83 37 -46 -28 5 41 -8 -51
000030 ea c5 5d e2 1d c2 23 4f b2 c5 28 37 e7 ea 05 b7
       -22 -59 93 -30 29 -62 35 79 -78 -59 40 55 -25 -22 5 -73
000040 ea af 1e 1f 33 8e 25 ed ad d7 3e ac 3b 57 f7 4b
       -22 -81 30 31 51 -114 37 -19 -83 -41 62 -84 59 87 -9 75
000050 16 f5 e3 57 29 e9 c1 ea db 2d 2b b1 14 04 38 f4
       22 -11 -29 87 41 -23 -63 -22 -37 45 43 -79 20 4 56 -12
000060 cf 31 1b 1a 0e 8b c1 0e cf bb d5 1f 2f 01 d9 e5
       -49 49 27 26 14 -117 -63 14 -49 -69 -43 31 47 1 -39 -27
000070 10 d6 d7 cd d1 91 bb 57 c4 d4 1e ac 02 36 41 dc
       16 -42 -41 -51 -47 -111 -69 87 -60 -44 30 -84 2 54 65 -36
000080 60 21 50 f4 2a 3c 99 51 f3 04 ff e4 4a cf c7 f3
       96 33 80 -12 42 60 -103 81 -13 4 -1 -28 74 -49 -57 -13
000090 39 b4 e7 09 1f a0 81 dd 30 ea b3 2f b9 af 46 0c
       57 -76 -25 9 31 -96 -127 -35 48 -22 -77 47 -71 -81 70 12
0000a0 50 c9 69 f8 e0 54 17 d0 31 05 30 31 49 5b 15 b6
       80 -55 105 -8 -32 84 23 -48 49 5 48 49 73 91 21 -74
0000b0 75 fa 2e f6 f9 b1 5c c4 44 08 4e e1 d9 da 1b c4
       117 -6 46 -10 -7 -79 92 -60 68 8 78 -31 -39 -38 27 -60
0000c0 60 d6 eb 72 51 a2 5b b3 41 a9 b2 96 2c 10 fd b6
       96 -42 -21 114 81 -94 91 -77 65 -87 -78 -106 44 16 -3 -74
0000d0 c6 97 13 dc 54 0d df be db 2e 1f 14 f4 e7 2b eb
       -58 -105 19 -36 84 13 -33 -66 -37 46 31 20 -12 -25 43 -21
0000e0 1d dd 69 f4 0f 00 63 36 0a e2 2b 4f 02 41 34 e4
       29 -35 105 -12 15 0 99 54 10 -30 43 79 2 65 52 -28
0000f0 45 36 ce ac 53 22 56 54 4b e9 ba a5 50 c3 4c de
       69 54 -50 -84 83 34 86 84 75 -23 -70 -91 80 -61 76 -34

sequential/time_distributed_6/conv2d_2/Conv2D i1 [64, 3, 3, 32]
000000 01 ac d0 a9 4e ba 02 3f c3 9b 93 f0 9b f7 ca ec
       1 -84 -48 -87 78 -70 2 63 -61 -101 -109 -16 -101 -9 -54 -20
000010 3c e2 20 da 47 a8 bd 3d f4 e7 23 39 e7 c5 b6 c4
       60 -30 32 -38 71 -88 -67 61 -12 -25 35 57 -25 -59 -74 -60
000020 47 b0 21 25 ad 28 54 0a 37 e1 4b 6b 1c e2 29 af
       71 -80 33 37 -83 40 84 10 55 -31 75 107 28 -30 41 -81
000030 b6 5b 3d 35 18 1d bb ec 6b 24 b2 f2 05 ee 96 ee
       -74 91 61 53 24 29 -69 -20 107 36 -78 -14 5 -18 -106 -18
000040 c0 39 a9 0e 22 d2 68 c5 cc a6 36 65 52 2d b7 5a
       -64 57 -87 14 34 -46 104 -59 -52 -90 54 101 82 45 -73 90
000050 3f 5f 25 6f f1 24 37 f2 7f 61 0e b2 d8 39 17 2b
       63 95 37 111 -15 36 55 -14 127 97 14 -78 -40 57 23 43
000060 2d e8 90 d9 10 4a 16 20 92 19 0a 43 b2 0f 55 34
       45 -24 -112 -39 16 74 22 32 -110 25 10 67 -78 15 85 52
000070 1a 8f 46 55 0d 03 d1 0e b3 51 df d6 dd 23 18 c8
       26 -113 70 85 13 3 -47 14 -77 81 -33 -42 -35 35 24 -56
000080 91 1d a7 2a f9 cd b4 c0 c7 fc 18 40 a0 ad 37 c8
       -111 29 -89 42 -7 -51 -76 -64 -57 -4 24 64 -96 -83 55 -56
000090 00 ee 17 53 37 07 05 c5 04 13 f6 97 c7 30 c9 c2
       0 -18 23 83 55 7 5 -59 4 19 -10 -105 -57 48 -55 -62
0000a0 3a ac fd 33 38 66 ae e9 53 1d ed 32 c8 40 40 3d
       58 -84 -3 51 56 102 -82 -23 83 29 -19 50 -56 64 64 61
0000b0 78 98 d2 3b 46 6f 1b 23 fc b3 e6 52 0f b5 a2 a4
       120 -104 -46 59 70 111 27 35 -4 -77 -26 82 15 -75 -94 -92
0000c0 3f dd 4d 1d ba d1 13 e9 a7 08 15 ae fe 1e fd ad
       63 -35 77 29 -70 -47 19 -23 -89 8 21 -82 -2 30 -3 -83
0000d0 1a b4 b5 b9 e6 27 9d d6 f2 c5 10 95 aa 91 1d b8
       26 -76 -75 -71 -26 39 -99 -42 -14 -59 16 -107 -86 -111 29 -72
0000e0 10 b0 f6 f7 d1 df c2 e3 ce b4 03 69 b4 1c 23 de
       16 -80 -10 -9 -47 -33 -62 -29 -50 -76 3 105 -76 28 35 -34
0000f0 18 dd c3 29 50 cf e8 a0 f5 b5 31 bc ba aa 38 44
       24 -35 -61 41 80 -49 -24 -96 -11 -75 49 -68 -70 -86 56 68

sequential/time_distributed_9/conv2d_3/Conv2D i1 [64, 3, 3, 64]
000000 1a 0a a7 25 e0 1b fa 45 08 3f c1 14 a7 db e0 e4
       26 10 -89 37 -32 27 -6 69 8 63 -63 20 -89 -37 -32 -28
000010 b8 d7 3f 25 4b 0f 1f 3e 97 4f 05 13 44 ea 0a 2c
       -72 -41 63 37 75 15 31 62 -105 79 5 19 68 -22 10 44
000020 01 b5 b4 2f 38 31 d2 33 1d c0 d2 e3 fb 12 16 cc
       1 -75 -76 47 56 49 -46 51 29 -64 -46 -29 -5 18 22 -52
000030 49 36 bf ab c2 bd 42 c9 00 08 03 c5 d5 0f d5 16
       73 54 -65 -85 -62 -67 66 -55 0 8 3 -59 -43 15 -43 22
000040 d0 0d f2 bd 1a 2e b2 0d 0f de f4 f8 c1 21 0a cb
       -48 13 -14 -67 26 46 -78 13 15 -34 -12 -8 -63 33 10 -53
000050 04 0c a3 bc c7 22 df 45 c9 d8 1c 3d de f9 eb 09
       4 12 -93 -68 -57 34 -33 69 -55 -40 28 61 -34 -7 -21 9
000060 29 f7 9b c4 21 2c 1d ca c1 d9 1b 39 c5 ea e8 ca
       41 -9 -101 -60 33 44 29 -54 -63 -39 27 57 -59 -22 -24 -54
000070 e1 b5 20 07 ef f5 d4 df e3 20 04 b6 ea 22 ea a8
       -31 -75 32 7 -17 -11 -44 -33 -29 32 4 -74 -22 34 -22 -88
000080 da 46 c5 29 33 f5 ce f7 8e cf a3 1a 39 fd b2 c4
       -38 70 -59 41 51 -11 -50 -9 -114 -49 -93 26 57 -3 -78 -60
000090 29 0c 0f ff e1 14 93 44 c8 1c df 9b e1 ce 9e 37
       41 12 15 -1 -31 20 -109 68 -56 28 -33 -101 -31 -50 -98 55
0000a0 44 36 a9 d6 1c 1f b4 31 be aa 8c b1 e3 f5 12 0d
       68 54 -87 -42 28 31 -76 49 -66 -86 -116 -79 -29 -11 18 13
0000b0 50 ba 4c 09 ac af d8 9a a9 8f e9 ce b4 1b 09 b7
       80 -70 76 9 -84 -81 -40 -102 -87 -113 -23 -50 -76 27 9 -73
0000c0 cd 5f 1a 2e c8 21 54 d8 26 25 28 45 10 18 23 bd
       -51 95 26 46 -56 33 84 -40 38 37 40 69 16 24 35 -67
0000d0 3e 1f d5 e6 41 1d ba ea e8 4e 40 3e e6 b5 e5 e9
       62 31 -43 -26 65 29 -70 -22 -24 78 64 62 -26 -75 -27 -23
0000e0 3e 54 ce e6 27 4c 68 c6 0b e6 bf 19 04 4d 07 08
       62 84 -50 -26 39 76 104 -58 11 -26 -65 25 4 77 7 8
0000f0 0b fa 08 b0 ba e9 f0 18 e1 14 f0 59 e1 d1 cd d1
       11 -6 8 -80 -70 -23 -16 24 -31 20 -16 89 -31 -47 -51 -47

sequential/lstm/Read_2/ReadVariableOp1 f4 [128]
000000 7b c8 93 bc 4a 8f 4b 3c 51 7d 3d 3c 09 a0 25 bb
       -0.018039932 0.0124242995 0.011565522 -0.002527239
000010 3d f3 61 bc a7 f9 58 3c 44 1c b0 3c d2 7f 29 bb
       -0.013790903 0.0132431155 0.021497853 -0.002586354
000020 bb 92 ee bb 3d 29 d8 39 2b 36 19 bc 3d 6a c4 3b
       -0.007280675 0.00041229455 -0.009351294 0.00599411
000030 b7 0a 48 3c 77 55 6b bb 9e bb ff 3a 06 7a 1a 3d
       0.012209586 -0.0035909095 0.001951087 0.037714027
000040 14 de 52 3c 26 27 c0 3c b7 5f 02 3c 01 ce 45 3c
       0.01287033 0.023456167 0.0079573905 0.012073041
000050 ac 1c 68 3c 9b 2f 25 3b 65 9f 03 bc ed ab c1 bc
       0.014166992 0.0025205377 -0.008033608 -0.02364155
000060 e3 8e e3 3b 8b e8 02 3d 4a d6 23 3c a5 ce ab 3a
       0.0069445237 0.03196005 0.009999821 0.001310785
000070 3e b7 d4 3c e7 e9 99 3c ff 17 d6 39 b4 8b 8b 3c
       0.025966283 0.018788291 0.0004083514 0.01703439
000080 f4 e5 7e 3f bd 88 81 3f 13 b6 7f 3f c0 5f 80 3f
       0.9956963 1.0119854 0.998872 1.002922
000090 89 00 7c 3f 3a 5c 80 3f 15 fb 80 3f 18 07 80 3f
       0.98438317 1.0028145 1.0076624 1.0002165
0000a0 5b d6 7e 3f fb fc 7d 3f 1c bd 7f 3f 47 c4 80 3f
       0.9954583 0.9921414 0.99897933 1.0059899
0000b0 ab 49 7f 3f 0e 3d 7f 3f 13 80 7f 3f 7d 67 84 3f
       0.99721783 0.9970254 0.998048 1.0344082
0000c0 67 6a 80 3f b4 1e 80 3f e7 60 81 3f 82 1f 81 3f
       1.0032471 1.000937 1.0107697 1.008774
0000d0 93 91 80 3f 6f c9 7e 3f 42 d2 7e 3f ef 3a 79 3f
       1.0044426 0.99526113 0.9953958 0.9735555
0000e0 ea ac 7f 3f 94 7c 82 3f 79 b5 81 3f ac 59 7d 3f
       0.9987322 1.0194268 1.0133506 0.98964953
0000f0 b3 81 81 3f f5 73 80 3f 49 85 80 3f 6e db 80 3f
       1.0117706 1.0035387 1.0040675 1.0066965
000100 df 8f b7 3c 84 2d 32 bc a4 16 91 3c 6d b6 4f 3c
       0.02240747 -0.01087511 0.017710991 0.012677771
000110 2d 0e d9 bb 13 b0 68 3c a4 38 fe 3b 2b 2d ed ba
       -0.0066240043 0.014202136 0.007758217 -0.0018095126
000120 39 08 2a 3c b4 9b cd 39 bf c0 14 bd 2b 7a 61 bc
       0.010377937 0.00039216655 -0.03631663 -0.013762037
000130 b9 81 8d 3c d5 47 10 bc 2e 30 52 bc 59 5f 5c bd
       0.01727377 -0.008806189 -0.01282887 -0.053801868
000140 54 fd 37 bc 62 50 bb bb 3e ab cb 3c e8 bc 94 bc
       -0.011229832 -0.0057163695 0.024861928 -0.018156484
000150 2a c5 59 bc e2 fb 2a bc 16 51 06 3c 34 35 7a 3c
       -0.0132916365 -0.01043603 0.008198043 0.015271474
000160 56 9a 3f bc d9 04 50 bc 76 ea a1 3c 6e 87 46 bc
       -0.011694511 -0.012696468 0.01976512 -0.01211725
000170 d4 26 10 3c cb 15 3d 3c d6 6a 09 bd 97 50 68 bc
       0.00879832 0.01154084 -0.033549152 -0.01417937
000180 0b 54 a0 bc 7f d0 7e 3c f1 80 3f 3c ce 78 dd 3b
       -0.019571325 0.015552639 0.011688457 0.006758786
000190 6c b1 6d bc 52 49 9e 3c 98 7f c0 3c 42 89 a3 bc
       -0.014507633 0.019322071 0.023498341 -0.01996291
0001a0 71 11 d8 bb d2 f5 01 3c 13 a4 83 bb 68 e5 fa 3b
       -0.006593876 0.007932143 -0.004017362 0.007656742
0001b0 23 32 45 3c 4b a5 1f ba 10 fd b4 3b b0 d3 19 3c
       0.012035879 -0.0006089999 0.0055233315 0.009388849
0001c0 03 b6 89 3c 9f 2d 5b 3c 45 e2 db 3a 7a ac 58 3c
       0.016810423 0.013377576 0.0016775808 0.013224715
0001d0 7b 1f 66 3c 49 98 01 3b 8a 53 c8 bb c0 16 4b bc
       0.0140455915 0.0019774607 -0.0061134743 -0.012395561
0001e0 95 8d 52 3c 22 12 8b 3c f3 1b 2b 3c 68 12 a0 3b
       0.012851139 0.01697642 0.010443675 0.0048850067
0001f0 c3 2a f5 3c 86 ee d5 3c 37 a0 2a bb ba 6b 96 3c
       0.029927617 0.026114713 -0.0026035437 0.018361915

while/MatMul_11 i1 [128, 32] scale=0.0025552616 zero_point=0
000000 fe e0 1e ee 1a b8 0e bb 22 89 f5 ad f5 0e f7 12
       -0.005110523 -0.08176837 0.07665785 -0.04599471 0.066436805 -0.18397884 0.03577366 -0.17631306 0.086878896 -0.30407614 -0.028107878 -0.2120867 -0.028107878 0.03577366 -0.022997355 0.04599471
000010 ca de 2f fd d8 03 1a 02 01 fe eb fb 29 2f e8 39
       -0.13798413 -0.086878896 0.120097294 -0.007665785 -0.10221046 0.007665785 0.066436805 0.005110523 0.0025552616 -0.005110523 -0.053660493 -0.012776308 0.10476573 0.120097294 -0.06132628 0.14564991
000020 02 fe 27 ed 1e e5 48 28 cd f6 db da 21 2d 26 e3
       0.005110523 -0.005110523 0.0996552 -0.04854997 0.07665785 -0.06899206 0.18397884 0.10221046 -0.13031834 -0.025552616 -0.09454468 -0.09709994 0.08432363 0.11498677 0.09709994 -0.07410259
000030 00 03 e7 f3 f0 18 ff 0e e8 f0 e6 05 d8 59 38 01
       0.0 0.007665785 -0.06388154 -0.033218402 -0.040884186 0.06132628 -0.0025552616 0.03577366 -0.06132628 -0.040884186 -0.066436805 0.012776308 -0.10221046 0.22741829 0.14309464 0.0025552616
000040 f9 10 05 27 4e f3 e4 f4 42 b4 03 90 d2 f2 20 09
       -0.01788683 0.040884186 0.012776308 0.0996552 0.1993104 -0.033218402 -0.07154732 -0.03066314 0.16864726 -0.19419987 0.007665785 -0.2861893 -0.117542036 -0.03577366 0.08176837 0.022997355
000050 dc 1a 05 38 e7 fd 2e 04 17 ce 10 15 1b f8 2d d9
       -0.09198942 0.066436805 0.012776308 0.14309464 -0.06388154 -0.007665785 0.117542036 0.010221046 0.058771018 -0.12776308 0.040884186 0.053660493 0.06899206 -0.020442093 0.11498677 -0.0996552
000060 0a 02 38 ff 08 fe 03 e7 21 dd f8 04 28 30 be 1b
       0.025552616 0.005110523 0.14309464 -0.0025552616 0.020442093 -0.005110523 0.007665785 -0.06388154 0.08432363 -0.089434154 -0.020442093 0.010221046 0.10221046 0.12265256 -0.16864726 0.06899206
000070 e4 f0 2d db ed 26 fc ee bf 04 fc db a0 49 ec b1
       -0.07154732 -0.040884186 0.11498677 -0.09454468 -0.04854997 0.09709994 -0.010221046 -0.04599471 -0.16609201 0.010221046 -0.010221046 -0.09454468 -0.24530512 0.18653409 -0.05110523 -0.20186567
000080 ed fd 19 12 02 ee 49 fe 0c 13 ee df f1 1d eb d1
       -0.04854997 -0.007665785 0.06388154 0.04599471 0.005110523 -0.04599471 0.18653409 -0.005110523 0.03066314 0.04854997 -0.04599471 -0.08432363 -0.038328923 0.07410259 -0.053660493 -0.120097294
000090 fc 27 13 1f e6 cf c1 df f8 36 e8 f2 bd e7 47 02
       -0.010221046 0.0996552 0.04854997 0.07921311 -0.066436805 -0.12520781 -0.16098148 -0.08432363 -0.020442093 0.13798413 -0.06132628 -0.03577366 -0.17120253 -0.06388154 0.18142357 0.005110523
0000a0 20 0a da f7 d8 e1 1d 00 14 01 e1 d8 26 d7 eb fd
       0.08176837 0.025552616 -0.09709994 -0.022997355 -0.10221046 -0.07921311 0.07410259 0.0 0.05110523 0.0025552616 -0.07921311 -0.10221046 0.09709994 -0.10476573 -0.053660493 -0.007665785
0000b0 15 e3 46 21 23 09 17 2f e1 e8 08 c7 f0 f7 f6 1b
       0.053660493 -0.07410259 0.17886831 0.08432363 0.089434154 0.022997355 0.058771018 0.120097294 -0.07921311 -0.06132628 0.020442093 -0.14564991 -0.040884186 -0.022997355 -0.025552616 0.06899206
0000c0 5e ef f0 28 0d e0 0d 1d 25 22 ea b5 dd f3 0f ff
       0.24019459 -0.043439448 -0.040884186 0.10221046 0.033218402 -0.08176837 0.033218402 0.07410259 0.09454468 0.086878896 -0.056215756 -0.19164462 -0.089434154 -0.033218402 0.038328923 -0.0025552616
0000d0 f1 e1 1d e4 d4 f5 06 0b f5 e7 f5 f3 e0 47 01 fe
       -0.038328923 -0.07921311 0.07410259 -0.07154732 -0.11243151 -0.028107878 0.01533157 0.028107878 -0.028107878 -0.06388154 -0.028107878 -0.033218402 -0.08176837 0.18142357 0.0025552616 -0.005110523
0000e0 0d c6 19 1c 1f fc fc 42 db b8 cb 03 17 1f 0d 12
       0.033218402 -0.14820518 0.06388154 0.07154732 0.07921311 -0.010221046 -0.010221046 0.16864726 -0.09454468 -0.18397884 -0.13542886 0.007665785 0.058771018 0.07921311 0.033218402 0.04599471
0000f0 04 22 fa de e0 02 c0 ec 21 00 39 18 f4 35 17 d8
       0.010221046 0.086878896 -0.01533157 -0.086878896 -0.08176837 0.005110523 -0.16353674 -0.05110523 0.08432363 0.0 0.14564991 0.06132628 -0.03066314 0.13542886 0.058771018 -0.10221046

while/MatMul i1 [128, 256] scale=0.0016545166 zero_point=0
000000 14 23 16 f8 b0 dc cb 24 c0 b6 e8 03 00 04 dd 11
       0.03309033 0.05790808 0.036399364 -0.013236132 -0.13236132 -0.059562597 -0.08768938 0.059562597 -0.10588906 -0.12243423 -0.0397084 0.00496355 0.0 0.006618066 -0.05790808 0.028126782
000010 b2 e1 2f 39 fd 42 ff ff 05 20 f8 c3 14 de 02 da
       -0.1290523 -0.051290013 0.077762276 0.094307445 -0.00496355 0.10919809 -0.0016545166 -0.0016545166 0.008272583 0.05294453 -0.013236132 -0.10092551 0.03309033 -0.056253564 0.003309033 -0.06287163
000020 32 1b ad 35 e4 c5 c0 44 df 2f f1 e8 b8 41 d8 19
       0.08272583 0.044671945 -0.13732487 0.08768938 -0.046326462 -0.09761648 -0.10588906 0.11250713 -0.054599047 0.077762276 -0.024817748 -0.0397084 -0.119125195 0.10754357 -0.06618066 0.041362915
000030 02 d7 42 b5 fd d6 f6 b4 ea 13 e5 f9 1d 23 eb 0c
       0.003309033 -0.06783518 0.10919809 -0.12408874 -0.00496355 -0.069489695 -0.016545165 -0.12574326 -0.036399364 0.031435814 -0.044671945 -0.011581616 0.04798098 0.05790808 -0.034744848 0.0198542
000040 3e 25 f2 08 37 23 30 f2 cc e7 33 29 b1 03 15 10
       0.102580026 0.061217114 -0.023163231 0.013236132 0.09099841 0.05790808 0.0794168 -0.023163231 -0.086034864 -0.041362915 0.08438034 0.06783518 -0.1307068 0.00496355 0.034744848 0.026472265
000050 2e cd c2 ce ab f3 f3 d5 44 38 1f 2a 15 cc 19 08
       0.07610776 -0.08438034 -0.102580026 -0.08272583 -0.14063391 -0.021508716 -0.021508716 -0.07114421 0.11250713 0.092652924 0.051290013 0.069489695 0.034744848 -0.086034864 0.041362915 0.013236132
000060 c2 d9 f6 ad 2a e6 eb ce d5 e8 da 08 ca 39 0e 0b
       -0.102580026 -0.06452615 -0.016545165 -0.13732487 0.069489695 -0.043017432 -0.034744848 -0.08272583 -0.07114421 -0.0397084 -0.06287163 0.013236132 -0.08934389 0.094307445 0.023163231 0.018199682
000070 dc 10 c2 e2 34 fc ee bd 43 05 45 fc 1e 27 42 14
       -0.059562597 0.026472265 -0.102580026 -0.049635496 0.086034864 -0.006618066 -0.029781299 -0.11085261 0.11085261 0.008272583 0.11416164 -0.006618066 0.049635496 0.06452615 0.10919809 0.03309033
000080 fb f2 18 b1 e1 11 37 2b d4 da f4 d3 d5 c3 47 03
       -0.008272583 -0.023163231 0.0397084 -0.1307068 -0.051290013 0.028126782 0.09099841 0.07114421 -0.07279873 -0.06287163 -0.0198542 -0.07445324 -0.07114421 -0.10092551 0.117470674 0.00496355
000090 43 19 ea 30 03 e3 40 17 ef 1c 03 e7 e0 c0 e5 26
       0.11085261 0.041362915 -0.036399364 0.0794168 0.00496355 -0.04798098 0.10588906 0.03805388 -0.028126782 0.046326462 0.00496355 -0.041362915 -0.05294453 -0.10588906 -0.044671945 0.06287163
0000a0 c2 3f ba 24 35 12 c2 0f cb e6 c8 f0 f4 c2 f1 bf
       -0.102580026 0.10423455 -0.11581616 0.059562597 0.08768938 0.029781299 -0.102580026 0.024817748 -0.08768938 -0.043017432 -0.092652924 -0.026472265 -0.0198542 -0.102580026 -0.024817748 -0.10754357
0000b0 45 c3 bd c1 0d ce b8 ba 5a f6 c1 2a 47 49 bf d2
       0.11416164 -0.10092551 -0.11085261 -0.10423455 0.021508716 -0.08272583 -0.119125195 -0.11581616 0.14890648 -0.016545165 -0.10423455 0.069489695 0.117470674 0.12077971 -0.10754357 -0.07610776
0000c0 02 b9 06 b2 e5 39 17 1b f7 ea 0f 27 c8 0e 2e 11
       0.003309033 -0.117470674 0.0099271 -0.1290523 -0.044671945 0.094307445 0.03805388 0.044671945 -0.014890649 -0.036399364 0.024817748 0.06452615 -0.092652924 0.023163231 0.07610776 0.028126782
0000d0 0b dc f6 e2 ca c5 4e 40 2c 1d 12 0c 25 14 19 12
       0.018199682 -0.059562597 -0.016545165 -0.049635496 -0.08934389 -0.09761648 0.1290523 0.10588906 0.07279873 0.04798098 0.029781299 0.0198542 0.061217114 0.03309033 0.041362915 0.029781299
0000e0 3e 15 fe da 17 dc ae 45 d0 d3 b9 38 ec 09 fa 20
       0.102580026 0.034744848 -0.003309033 -0.06287163 0.03805388 -0.059562597 -0.13567036 0.11416164 -0.0794168 -0.07445324 -0.117470674 0.092652924 -0.03309033 0.014890649 -0.0099271 0.05294453
0000f0 d9 35 3d bc f5 b2 eb 14 22 0b f5 44 e9 3f e9 0b
       -0.06452615 0.08768938 0.10092551 -0.11250713 -0.018199682 -0.1290523 -0.034744848 0.03309033 0.056253564 0.018199682 -0.018199682 0.11250713 -0.03805388 0.10423455 -0.03805388 0.018199682
