models/anode/arson.of_cnn.tflite (tflite, 251208 bytes, 18 tensors)

sequential/conv2d/BiasAdd/ReadVariableOp f4 [16]
000000 55 91 73 3d c1 4e db 3b 65 f9 52 3d 1c 53 25 3e
       0.05946477 0.006692738 0.051507372 0.16144985
000010 e2 65 7e 3d e4 d9 2d 3c 72 16 de bb d6 4e 60 bb
       0.06210888 0.010611031 -0.006777578 -0.0034226677
000020 c6 4d a1 ba f8 6b bf 3b 3b e6 dc 3c c8 2b 73 3c
       -0.0012306503 0.0058417283 0.026965251 0.014841981
000030 61 73 8b 3d 0e 38 22 bd dc 12 b1 3d 86 35 0e 3c
       0.06809116 -0.03960424 0.08646175 0.008679753

sequential/conv2d_1/BiasAdd/ReadVariableOp f4 [32]
000000 aa fb 59 bc f2 ba 00 be 2d ee b1 bd d3 22 cc bd
       -0.01330463 -0.12571314 -0.086880066 -0.0996758
000010 bb 15 ae bc 91 fa d8 bd dc 90 3b be 75 35 f6 3b
       -0.021250596 -0.10594667 -0.18316978 0.007513697
000020 a8 eb 81 3b 82 19 54 be 76 df 27 be 26 57 4f bd
       0.00396486 -0.20712855 -0.16393837 -0.05062022
000030 9e 4e 5c be 00 77 5b bb 73 3e 74 bd 50 2b 83 bd
       -0.21514365 -0.0033487678 -0.05962987 -0.064047456
000040 02 38 58 bd 0a c2 ce bc 9a 3d 02 be b2 01 33 be
       -0.05278779 -0.02523901 -0.12718812 -0.17481115
000050 4b 8c bb bd a1 ba c0 bc 26 02 08 be ae e3 d1 bd
       -0.09157618 -0.023526492 -0.1328207 -0.102485046
000060 7e 1c 3b 3d 9b fc cd bd 36 f5 1c be 93 59 ba bd
       0.04568147 -0.10057946 -0.15327916 -0.09099116
000070 83 8e 02 be e9 7f a7 bd 8d ac bd bc f9 12 c3 bc
       -0.12749676 -0.08178694 -0.023153568 -0.023812758

sequential/conv2d_2/BiasAdd/ReadVariableOp f4 [64]
000000 ac 5e 36 be 5e 51 2e be 3b bc 25 be b8 3e 40 be
       -0.17809552 -0.17023227 -0.16185085 -0.18773925
000010 dc fa 2b be 70 bc 52 bd 13 59 2a 3d ee 5a b2 bd
       -0.16794914 -0.05144924 0.041588854 -0.0870875
000020 73 42 12 bc 68 86 95 bd dd 57 6a be 77 21 7b bd
       -0.008926976 -0.073010266 -0.2288508 -0.06131121
000030 50 2c ad bd 47 fb 23 be 21 7c 06 be 6b ae 0a be
       -0.084557176 -0.16013823 -0.13133289 -0.13543098
000040 ff f1 43 be ca 12 2b bd d5 6e c2 bd 8b 92 8b bd
       -0.19135283 -0.041765966 -0.09493796 -0.0681506
000050 35 d8 64 bd 66 88 5d be ef 10 81 bd ac 0b 3f bb
       -0.055870254 -0.21634063 -0.06302058 -0.0029151244
000060 61 2a 2d be d3 fb 95 bd 48 b3 3f be 00 3a 81 be
       -0.16910698 -0.07323422 -0.18720734 -0.25239563
000070 d0 3c 3f be 2e 78 c1 bd b8 27 8d be e3 ef fa 3b
       -0.18675542 -0.094467506 -0.27569366 0.0076579913
000080 55 c7 fc bd bd 90 3d bd a5 cc f2 bd 12 de 94 bd
       -0.12342707 -0.04628061 -0.11855439 -0.07268919
000090 d3 f1 fa bd 7f 38 c4 bd 6b 77 31 be c7 43 9f bd
       -0.122531556 -0.09581088 -0.1733071 -0.077765994
0000a0 09 4e c5 bb 06 e0 4a be 89 0a af be 51 04 68 bd
       -0.0060212654 -0.1981202 -0.34187725 -0.05664474
0000b0 4d c1 e3 bd bd b9 b7 bb 83 bb 33 be 2a 4a 20 bd
       -0.111208536 -0.0056068585 -0.17551999 -0.03913323
0000c0 60 16 37 be bd e8 18 be 4a 4e 30 bd a1 dd 1b be
       -0.17879629 -0.14932533 -0.043043412 -0.15221263
0000d0 12 43 93 bd fe 59 6d bd 6d c3 00 be f6 30 06 be
       -0.07190527 -0.05794715 -0.12574549 -0.13104615
0000e0 7d 96 70 b9 74 c4 2d be 07 aa 0f be b7 83 3c be
       -0.00022944245 -0.16969472 -0.14029704 -0.1840962
0000f0 24 9f 04 be 07 97 d1 bd 4c 7c 4c be de 92 7d be
       -0.12951332 -0.10233884 -0.1996929 -0.24763057

sequential/conv2d_3/BiasAdd/ReadVariableOp f4 [64]
000000 68 bf 41 be 31 93 05 be 3b c0 ec bd b7 dc a8 bd
       -0.18920672 -0.1304443 -0.115601026 -0.08245223
000010 ea 78 2b be 5d b5 10 bc 30 3f a8 bd 62 1f 00 3d
       -0.16745344 -0.008832303 -0.08215177 0.03127993
000020 ef bf 10 be 4d 4c 2d be 3c 38 17 be d3 c9 2f be
       -0.14135717 -0.16923638 -0.14767545 -0.17166834
000030 a5 48 0b be 14 71 0f bd 55 f4 32 be 39 fe 32 be
       -0.1360193 -0.03501995 -0.17476018 -0.17479791
000040 75 00 dc bd 14 c4 00 be 04 6b 58 bd 40 c4 16 be
       -0.10742275 -0.12574798 -0.052836433 -0.14723301
000050 ab a2 0f be 38 3c 6c be 77 c0 71 bd 4e 6c e4 bd
       -0.14026897 -0.23069847 -0.05902144 -0.1115347
000060 9e 03 02 be 92 08 cc 3a 7a ff 2f be eb 37 fa bd
       -0.12696692 0.0015566519 -0.171873 -0.12217697
000070 cf 3f b6 bd 45 d9 41 be 4d a5 4d be ab 49 27 be
       -0.08898889 -0.18930538 -0.20082588 -0.16336696
000080 20 01 e1 bd 61 35 22 be 27 4a d8 bd b1 47 00 bd
       -0.10986543 -0.15840675 -0.105610184 -0.03131837
000090 f9 61 60 bd c0 8c 1b be ce c5 98 ba 72 fc a2 bd
       -0.054780934 -0.1519041 -0.001165563 -0.07958306
0000a0 76 ed d0 bd f5 79 8e bc 19 2a 8e bd 4a 5d 37 be
       -0.10201542 -0.017392138 -0.06941623 -0.1790668
0000b0 f0 01 0c be 1c 30 de bd a7 d1 4d be 80 a8 14 be
       -0.13672614 -0.1084902 -0.20099507 -0.14517403
0000c0 06 20 b3 3c 49 03 09 be 8d ae 34 be af 6b 4d be
       0.021865856 -0.1338016 -0.17644711 -0.2006061
0000d0 aa a7 30 be e0 39 6f bd 96 4c 89 bd c1 04 45 bd
       -0.17251459 -0.058404803 -0.06704061 -0.048100237
0000e0 8e e9 20 be 2e 85 62 be 26 a1 8a be ff 53 2d be
       -0.15714094 -0.22121117 -0.27076072 -0.16926573
0000f0 45 93 2f bd 46 d6 fa bd 00 73 3d be 3e 4b b6 bd
       -0.042865057 -0.12247901 -0.185009 -0.0890107

sequential/conv2d/Conv2D f4 [16, 3, 3, 1]
000000 c3 9c fc 3d b0 44 ef bd 08 02 4b be a1 20 8d 3d
       0.123345874 -0.11683023 -0.19824994 0.06890989
000010 c1 18 a6 3c 06 f8 3d be d6 b6 d3 3d df 7a 4e 3e
       0.020275475 -0.18551645 0.103376076 0.20164059
000020 47 3b ff 3d 25 56 c8 39 20 50 cc bc e7 b2 90 3e
       0.12462478 0.00038211155 -0.02494055 0.28261492
000030 39 02 d4 bd 12 db c5 bd e7 6b 26 3e c8 42 95 bd
       -0.103519864 -0.09660925 0.16252099 -0.07288128
000040 6a db 0f bd f6 81 10 be 38 97 be bd 2c 78 f2 3d
       -0.03512136 -0.14112076 -0.093061864 0.11839327
000050 69 c8 3a bd af a8 b7 3d de 78 cc 3c 93 a8 15 3e
       -0.045601282 0.08967721 0.024959978 0.14615087
000060 6f 90 18 be 3b e8 f3 3c 3d bd b9 3d 4e d7 b1 3c
       -0.14898847 0.029773822 0.090692975 0.02170911
000070 04 58 6c ba 32 15 83 3d 60 8a 99 3d 1e 48 90 3e
       -0.0009015801 0.06400527 0.07497096 0.2818002
000080 6f 67 fd 3c 28 af 20 be c6 78 c0 3c dd 0f c5 bd
       0.03093311 -0.15691817 0.02349509 -0.09622166
000090 8d b3 0b be 3c 01 d3 3d a4 29 40 be 52 11 e2 3d
       -0.13642712 0.1030297 -0.18765885 0.1103846
0000a0 e4 76 f1 3d e7 ae f8 3d de de 2f 3d 8c 1e 86 3b
       0.11790255 0.12142735 0.042937152 0.004092997
0000b0 59 e0 88 bc c1 e2 67 3e 72 b2 ab 3d c0 c0 58 bd
       -0.01670854 0.22645094 0.08383645 -0.052918196
0000c0 ee 9a 81 3d d7 15 8b be 46 ba bf bd 47 93 0d be
       0.063283786 -0.271651 -0.09361701 -0.13825713
0000d0 a9 64 7b bb 94 f0 11 3e f0 06 d9 bd 8e 59 8e bb
       -0.0038359559 0.1425193 -0.10597026 -0.004344172
0000e0 fb df 31 bd 5e 6a 45 be 30 4a 59 bd 60 3c 70 3c
       -0.043426495 -0.19278857 -0.053049266 0.014662832
0000f0 60 2c aa 3b a7 92 0c be 01 e6 97 bd 89 55 1c bd
       0.005193278 -0.13727818 -0.07416917 -0.03816751
000100 53 cb 0e be 0f d5 ba bd 3d d6 28 3e 02 fb 04 bb
       -0.1394475 -0.09122669 0.16487975 -0.0020291214
000110 90 e3 c8 bd 21 f9 6c 3d 75 ac 23 3e 5a 7b fb bc
       -0.09809029 0.057854775 0.15983756 -0.030698467
000120 b5 bc 70 bd 7b 46 c9 bd ee 4f 1e 3d d8 31 d9 3d
       -0.058773715 -0.09827896 0.038650446 0.1060521
000130 fc 87 e3 bd 82 3c f0 bd 67 eb 21 be 2f f7 ba 3d
       -0.11109921 -0.11730291 -0.15812455 0.09129178
000140 fd 20 90 3e bd ac 4f be b4 3a 0c be 18 a5 1e be
       0.28150168 -0.20280738 -0.13694268 -0.15492666
000150 65 80 5d 3e e9 3a 6a bd 0a a7 3f 3e c7 64 46 3e
       0.2163101 -0.057185087 0.18716064 0.19374381
000160 7d e2 e7 3d 65 ce 36 be d1 8d 91 3d b7 02 38 be
       0.11322496 -0.17852171 0.071071275 -0.17969786
000170 71 32 40 be 84 a5 9e 3d fa 64 c5 3b bf 71 13 be
       -0.18769242 0.07746413 0.0060240002 -0.1439886
000180 be 37 94 bc 38 f4 53 3e 41 17 4e 3e cf 23 93 be
       -0.018092986 0.20698631 0.20126058 -0.28738257
000190 de 99 8b be 9b dc 67 3e aa 03 23 be 48 d6 73 be
       -0.2726583 0.22642748 -0.15919366 -0.2381221
0001a0 dc 9a 7b 3e a9 72 8f be 26 b4 9c bd 6e 33 f7 3d
       0.24570793 -0.28017166 -0.07651548 0.12070356
0001b0 60 d8 9f bd 36 6a f2 bd a3 89 c2 bd fe 94 59 3e
       -0.07804942 -0.118366644 -0.09498908 0.21248242
0001c0 a9 67 16 bd 9e db 17 bd 85 72 4a 3e 17 ea df 3d
       -0.03671995 -0.037074678 0.19770248 0.10933321
0001d0 f7 2a fc bd 78 77 95 3d a7 65 49 3d c2 69 04 be
       -0.123128824 0.072981775 0.04916921 -0.12930968
0001e0 c2 f8 5e 3e c8 02 0b 3e b5 9c a6 3e 36 16 89 be
       0.21774581 0.1357528 0.32541433 -0.26774758
0001f0 c4 10 dc be 2f 44 87 be a1 62 8e bd 4b f8 17 be
       -0.4298154 -0.26419207 -0.06952406 -0.1484081
000200 77 f2 45 3e c9 47 90 3c ec 07 6a 3e 27 7b b8 bd
       0.19330774 0.017612355 0.22854584 -0.090078644
000210 8d 35 91 bd 91 c7 8e 3c 53 b4 8a bd cf fa 3d 3d
       -0.07090292 0.017429145 -0.06772675 0.046381768
000220 e4 8d c8 3d c4 1a 71 3e 4f 5c 1c bd 0f b5 db bd
       0.097926885 0.23545367 -0.03817397 -0.107278936
000230 60 98 0a 3e 89 99 dc bc 21 c0 37 be c0 4a 61 be
       0.13534689 -0.02692868 -0.17944385 -0.22001171

sequential/conv2d_1/Conv2D f4 [32, 3, 3, 16]
000000 56 0c 4c bd 76 b9 4e 3d 79 fb c6 bb e5 02 29 bc
       -0.049816452 0.050469838 -0.0060724583 -0.0103156315
000010 3c a4 73 bd cc 75 fa bc 97 7d 10 3e 90 e9 c0 3d
       -0.059482798 -0.030573748 0.14110409 0.094195485
000020 8c b0 9c 3d 7a 69 9a bd cc f8 ca 3c 45 45 ff 3d
       0.07650861 -0.07539649 0.024776839 0.12464384
000030 24 fd 9a 3d cf ab 96 bd 86 95 1d bd e8 9d a0 bb
       0.07567814 -0.07356989 -0.038472675 -0.0049016364
000040 88 04 99 3d c0 db 03 3e 50 9c 85 bc d4 bc af bd
       0.074715674 0.12876797 -0.016309887 -0.08580938
000050 79 ed 2e bd 5f 27 92 bd b0 3e 82 3c 52 db 04 3e
       -0.04270694 -0.07136416 0.015899032 0.12974289
000060 f8 04 ec 3d 1e 16 f1 3d 5c 36 f6 3c 3b c6 53 bd
       0.11524385 0.11771797 0.030055217 -0.05170272
000070 0e 17 35 bd e2 05 a2 bd b9 db bb bd bf 92 9b bb
       -0.04421144 -0.07911278 -0.09172768 -0.004747718
000080 f0 ba de bd 2c 82 cc 3d 11 60 b5 bb 42 97 b1 3c
       -0.10875499 0.09985766 -0.0055351336 0.02167857
000090 ed cc 82 bd 98 2c a9 bd c9 e2 63 bd bf 97 fa ba
       -0.06386743 -0.08260459 -0.0556362 -0.001911871
0000a0 86 10 22 3c 60 c0 f6 3b d6 6d b7 bd c0 ea 1b 3d
       0.009891635 0.007530257 -0.089564964 0.038065672
0000b0 a8 f6 45 bd d9 f6 2e bd 49 5e 5d 3d 57 7d ff bd
       -0.048330933 -0.04271588 0.054044995 -0.124750786
0000c0 78 d5 49 3d d5 9f 20 3e 3b 5d 14 3d 4f 87 42 3d
       0.049275845 0.15685971 0.036221724 0.04749232
0000d0 52 a6 78 bd 2a 85 8b 3d ef ce a0 bb 75 a1 b2 3d
       -0.06070549 0.068125084 -0.004907481 0.08722202
0000e0 c5 fd e2 3e 52 1c b7 3d 2f dc f5 3d 61 2c 71 3d
       0.44334236 0.089409485 0.12004887 0.058880214
0000f0 6d 15 06 bd 41 f2 c5 bd 2c 2e 1a 3d 39 22 fc bb
       -0.032735277 -0.09665347 0.03764169 -0.0076945093
000100 1b aa 8c 3d 5c 8e a2 3d 7a 22 99 bc 06 9d 5c bd
       0.068683825 0.07937309 -0.018693198 -0.053860687
000110 f1 41 82 3d 07 0f 3b 3e 29 97 41 bd d3 1c 2d 3e
       0.063602336 0.18267451 -0.0472633 0.16905527
000120 56 c5 5f 3e 8c 43 32 3e 74 31 1d 3e b3 b9 b6 3b
       0.21852621 0.1740858 0.15350896 0.0055763363
000130 a7 3a 13 3e 0f 21 36 bd e2 a6 96 bd 8c 68 80 3d
       0.14377843 -0.04446512 -0.07356049 0.06269941
000140 28 c7 f8 3d 11 e9 17 3e 14 58 8f bd 7a 2f 58 3d
       0.12147361 0.14835002 -0.069992214 0.052779652
000150 3d 7b 96 3b 35 80 7a 3d ad ef 08 3e a0 20 88 3c
       0.004592328 0.061157424 0.13372679 0.01661712
000160 4b f0 69 3e 15 b3 44 3e e7 8f 17 3e 30 bf 49 bd
       0.2284557 0.1920894 0.14800988 -0.049254596
000170 4f 7d 23 bd 09 dd 46 be ba 1a e3 3c e2 0d cd bc
       -0.039914425 -0.19420256 0.027722705 -0.025031034
000180 8a 89 02 3d db 9a b7 bc ee c6 1f bd e8 d1 cd bc
       0.03186945 -0.022412708 -0.039008074 -0.025124505
000190 55 a3 67 bd 03 1d 79 3d 41 95 14 3e bc da c8 bb
       -0.05655225 0.060818683 0.14510061 -0.006129591
0001a0 18 59 ed bd 0f 9e f9 3d 21 e3 95 bd ff 5c 06 be
       -0.11589259 0.121883504 -0.07318712 -0.13121413
0001b0 07 29 1b be 97 20 e3 bd c3 bc 0e 3e 59 6e a9 3d
       -0.1515237 -0.110902004 0.13939194 0.08273
0001c0 f1 4a da bd ca 12 97 3d 83 71 7e 3d 2e 05 06 3e
       -0.10658825 0.073766306 0.062119972 0.13087913
0001d0 1b de 6f bd dd b8 ee 3d 14 65 bf bd f3 d3 c6 bd
       -0.058561426 0.116563536 -0.09345451 -0.09708395
0001e0 d9 dc 41 bd a2 a9 4d 3d b0 37 c6 bb b8 c8 15 be
       -0.047329757 0.050210603 -0.006049119 -0.1462735
0001f0 b5 f8 92 bd ec ff 33 3d 2f 6c fc 3d 1a 4a eb 3d
       -0.07176343 0.043945238 0.12325322 0.11488743
000200 a6 c2 87 3c 62 c6 d2 3d 73 56 ea bd 9f af d6 3d
       0.016572308 0.10291745 -0.1144227 0.10482716
000210 31 f6 88 3d 05 cd f4 3d 43 a3 d4 bc e4 d6 a9 bd
       0.06687582 0.11953167 -0.025956756 -0.0829294
000220 33 bf 5b be fd 36 49 3d ac d1 8c bd 86 ac bb bc
       -0.21459655 0.049124707 -0.06875929 -0.022909414
000230 d7 27 c8 bd b9 4b ae bd 16 c2 a3 bd 7e 41 43 3e
       -0.09773224 -0.08510537 -0.07996003 0.19067952
000240 f8 b4 42 3d aa 10 4d 3c b7 ee b7 bd 37 6d 29 be
       0.047535866 0.01251618 -0.08981078 -0.16545568
000250 07 d6 3f bd 11 06 dc 3c ca a8 48 3d 70 fe 85 bd
       -0.04683497 0.026858361 0.048989095 -0.06542671
000260 da 86 59 3d 23 a3 bf bd dc 43 99 3c c3 ff 6e 3e
       0.05310712 -0.09357288 0.018709116 0.23339753
000270 ed 77 1b 3d d5 f4 57 be 7c 62 08 be dc 89 0d 3c
       0.037956167 -0.2108949 -0.13318819 0.008638825
000280 2c e1 b8 bd 67 10 9a 3b 35 bd 76 bd d2 cc 68 bd
       -0.09027323 0.0047016623 -0.060239036 -0.056835957
000290 77 44 1d bc 52 9c 64 bd a4 fc 8c 3c 26 c5 8d 3b
       -0.009598843 -0.05581314 0.017210312 0.0043264804
0002a0 f2 67 82 3b d9 1f 5f bd 4e ba 8b 3d b4 33 58 3e
       0.0039796764 -0.05447373 0.06822644 0.21113473
0002b0 c6 04 64 bd 16 37 80 be a7 db 6a 3c b5 72 be bc
       -0.055668615 -0.25042027 0.014334596 -0.023248056
0002c0 a3 a9 c5 3d d5 5d 4f 3d d5 b6 84 bd 26 d2 a6 bb
       0.09651496 0.050626595 -0.06480185 -0.0050909696
0002d0 00 59 33 bd a0 c0 8e 3c 22 1d 32 bc 50 1d 12 bd
       -0.04378605 0.017425835 -0.010871204 -0.035672486
0002e0 c7 b1 d2 3d ac 2e 69 bd f6 3c 5e 3d 40 73 a3 3e
       0.102878146 -0.056929275 0.054257356 0.31923866
0002f0 ba 28 04 3d 0c 13 39 be 9c 4f d6 bc 8c 22 a8 bb
       0.032265402 -0.18073672 -0.026161008 -0.0051310714
000300 d2 c4 15 3d ff c0 53 bd 94 65 30 bc 51 8d cc 3c
       0.036564656 -0.051697727 -0.010766406 0.024969729
000310 9f 76 5c bd bd 53 5e be b5 33 46 3e cb 45 b3 bc
       -0.053824063 -0.21711631 0.19355662 -0.021883866
000320 e6 4f 22 be 48 d1 4b bc 03 2b 7a bb de c5 3b 3e
       -0.15850791 -0.012440033 -0.003817261 0.18337199
000330 13 1c 84 3d e2 08 c4 bc ab e3 c9 3d 14 c6 3e be
       0.06450667 -0.023930017 0.09857877 -0.18630248
000340 6e bf b4 bd 8d b3 e6 bd 8f 5d 0a 3d 31 de 88 3a
       -0.08825575 -0.11264715 0.03378063 0.0010442195
000350 3c 42 90 ba 4e ca fd bc 24 ce 91 3d 18 36 0d bd
       -0.0011006068 -0.030980255 0.07119396 -0.034475416
000360 d6 ce 00 be 2b 74 b0 bc 82 11 48 bd 89 01 9c 3e
       -0.12578902 -0.021539768 -0.04884482 0.3046992
000370 54 3a c1 3c 8d 39 14 be 8b f4 90 bd 12 bb 21 be
       0.023587383 -0.14475079 -0.07077893 -0.15794018
000380 1f 6e 95 3d e7 86 a4 3d 14 05 b9 3d 62 1f 8f 3d
       0.072963946 0.08033543 0.09034172 0.06988408
000390 3e ed 12 3e 4a 05 47 bd 83 c5 2b 3d 09 a7 87 bc
       0.14348313 -0.04858903 0.04193641 -0.01655914
0003a0 74 aa 09 bc b4 8e 31 3c e6 75 59 3d 38 64 93 3e
       -0.008402456 0.010837246 0.053090952 0.28787398
0003b0 2e 38 51 3d 23 e7 3e be cf 28 cc 3d bb 71 3b bc
       0.051078968 -0.18642859 0.09968721 -0.01144069
0003c0 94 8b b6 3d 47 b0 d8 3c 56 ef 06 bc 1b b1 10 be
       0.08913341 0.026451243 -0.008235773 -0.1413006
0003d0 9a 02 76 bd 0e e8 02 be 54 2f 1e 3d 5d bf 04 be
       -0.060061075 -0.12783834 0.038619354 -0.12963624
0003e0 bb db 83 3b 27 4f 9f bd 20 72 02 be 2f ce 80 3e
       0.0040239966 -0.07778769 -0.12738848 0.25157306
0003f0 b7 a5 53 bd f3 74 95 be 22 f4 4e bc 89 fa bd bc
       -0.05167171 -0.29190788 -0.012631448 -0.023190754

sequential/conv2d_2/Conv2D f4 [64, 3, 3, 32]
000000 f1 56 cb 3d 64 bd cc 3b 55 da 86 bd 85 ec 28 bd
       0.09928692 0.006248163 -0.06584612 -0.041241188
000010 3f aa 93 3d b4 f6 15 bb 36 ca 39 bd ac 90 46 bd
       0.07210206 -0.0022882642 -0.04535886 -0.048477814
000020 d5 b8 ed 3c 49 8f 07 3d bd 00 6e 3c cf 9f 69 bd
       0.029018799 0.03309563 0.014526543 -0.05703717
000030 11 9e c8 3d c1 d7 e7 3c 1b 30 5a 3d 28 d3 22 3d
       0.09795774 0.028301122 0.053268533 0.039752156
000040 b9 04 06 bd a9 60 20 3c fe bd 20 3e b5 aa 6d 3d
       -0.032719348 0.009788671 0.15697476 0.058024127
000050 9b 4d 0a 3d 6c a3 2f 3e cb ba f8 bc 55 5d 9b bd
       0.033765417 0.17152184 -0.030362507 -0.07586161
000060 27 e3 96 3d e8 ed 4e 3d ea b9 44 bb df 3d 96 bd
       0.073675446 0.050519854 -0.003001804 -0.0733602
000070 3e 1f bd 3c 7e 13 e6 3c b2 2b e8 3a bd 4a 8a 3d
       0.023086186 0.028085466 0.0017713218 0.067525364
000080 f7 06 28 3d 7e d7 da 3d 30 e5 27 3c 53 10 d5 bd
       0.041022267 0.10685633 0.010247514 -0.10403504
000090 44 b5 05 3d be ac 16 be 8f 4a 3f 3a 34 82 68 3d
       0.03264357 -0.14714333 0.0007297182 0.056764796
0000a0 fe b3 e5 bd d0 33 4f 3c 0e 0e c9 3d cb a1 0b bd
       -0.112159714 0.01264663 0.09817134 -0.034089845
0000b0 9e 14 a2 3d 33 4c 96 3d b5 a8 02 3e 75 37 ff 3d
       0.07914089 0.073387526 0.12759669 0.124617495
0000c0 d8 9f 1f 3d 5f f1 b6 3c 2d 73 7d 3d 95 32 e8 bc
       0.0389708 0.022331892 0.06187742 -0.028344432
0000d0 81 a3 4e 3c ca e4 f8 3d 06 1b 0b 3d ee 90 a0 3c
       0.012612225 0.12153013 0.03396132 0.019600358
0000e0 74 c3 5d 3d aa 96 91 3c b0 37 ec 3d 8a fc bc 3d
       0.054141477 0.017772038 0.11534059 0.092278555
0000f0 8f 7c a4 bc 88 a4 e5 bd a8 ef 42 3c 1a 87 d7 ba
       -0.020078925 -0.112130225 0.011897959 -0.0016443462
000100 7c ce 25 3d fa a6 73 bd 08 f9 00 3d 85 cb 59 bc
       0.040480122 -0.059485413 0.031487495 -0.013293152
000110 30 a8 4b 3c 65 08 b8 bd 47 9f 55 3c 68 31 4f bc
       0.012430236 -0.08985976 0.013038463 -0.012646057
000120 52 99 ae bd 6b b5 6f bd e2 49 9f bd 03 44 14 3d
       -0.08525337 -0.058522623 -0.07777764 0.036197674
000130 af 25 cc bc 7c 55 00 3e 6e eb 59 bd d7 89 68 3d
       -0.024920313 0.1253261 -0.05320304 0.05677208
000140 b5 c8 69 3d c8 52 43 39 4f 07 ce 3d 9a db 97 bd
       0.057076175 0.00018627488 0.10059988 -0.074149325
000150 fc 0b e5 bd e9 84 6e bd fe a0 32 be 7b b4 43 be
       -0.111839265 -0.05823222 -0.17444226 -0.19111817
000160 0a 66 a7 3c dd 55 ad 3d b6 47 26 3d 4a 64 64 3b
       0.020434398 0.08463643 0.040595733 0.0034849816
000170 28 a4 1c be 69 39 01 be 55 ff f9 3c c5 e2 ea bd
       -0.15296996 -0.12619556 0.03051726 -0.11469034
000180 60 4a 1b be 93 a9 03 3d f6 a6 38 be a8 da 24 bd
       -0.1516509 0.03214414 -0.1803244 -0.04024759
000190 3a 8d 6d bc 09 d7 0d bd 96 36 58 3d 1d 66 0d bd
       -0.014499003 -0.0346289 0.052786432 -0.03452121
0001a0 a6 93 32 bd 74 57 c9 bd 52 3d aa 3c 6c 46 9e 3d
       -0.04359784 -0.098311335 0.020781193 0.07728276
0001b0 ad 78 e7 bb 23 ce 0e 3e bb 77 bb bd a8 22 04 bd
       -0.007063946 0.13945822 -0.09153696 -0.032259613
0001c0 d7 33 98 bd 76 b0 f3 3c 69 c5 e3 bd 6f d0 5f 3d
       -0.07431763 0.02974723 -0.111216374 0.054642137
0001d0 58 e9 cd 3d ea e0 4d 3d a1 c5 69 bd 8c 73 d1 bc
       0.100542724 0.050263323 -0.05707324 -0.025567792
0001e0 02 0a 8e bd d5 5d 06 3e 7e b7 c4 3b 99 0d a2 bd
       -0.069355026 0.13121732 0.0060033193 -0.0791275
0001f0 9a 6d c5 bc 53 47 db ba 73 73 06 3e 5d 97 57 bd
       -0.024100114 -0.001672963 0.13129978 -0.052634586
000200 1c 4b 54 bd 5d 1b c4 3d a9 11 51 bd fe 09 d8 bc
       -0.051829442 0.09575532 -0.051042233 -0.026371952
000210 e5 ca 52 bd 75 53 46 bd 83 16 25 3d 1a 71 d1 bc
       -0.051463027 -0.048419435 0.040304672 -0.025566626
000220 c1 25 a1 bc 78 63 0d 3d aa c7 0d 3e a8 22 77 bb
       -0.019671323 0.03451869 0.13845697 -0.0037709866
000230 48 a8 50 3b 03 2b 67 3d 49 cd af bd b6 8b 13 bd
       0.0031838585 0.056437504 -0.08584077 -0.03602191
000240 43 dd df bd 3f dc d8 3d 66 2f bb bd e1 d9 c8 bd
       -0.10930874 0.105888836 -0.091399 -0.09807182
000250 00 ce c0 3d 37 b2 38 bd 8e f3 8b bd 70 22 13 3e
       0.094142914 -0.045091834 -0.06833564 0.14368606
000260 34 b1 19 be a7 08 8f 3d f3 c7 3d bc f0 92 a2 3c
       -0.15009004 0.06984072 -0.011583316 0.019845456
000270 27 88 fd bd dc 7f 83 bd 17 c8 c3 3d 0f fc 30 bd
       -0.123794846 -0.064208716 0.095596485 -0.04320913
000280 98 03 87 3c 68 65 8e bd 71 18 b8 3d 73 55 c0 3c
       0.016481206 -0.069529355 0.08989037 0.023478245
000290 cf 33 98 3d 89 3a 61 3c 1d 36 62 bd 37 0e 56 3d
       0.07431757 0.013746866 -0.055227388 0.05225965
0002a0 7e 18 64 bd e5 72 77 3d fb 6a 8d bd 59 dd 7a 3d
       -0.05568742 0.060412306 -0.069051705 0.06124625
0002b0 e5 4d 60 bd a7 25 8f 3c d4 46 50 bd c5 92 4e bd
       -0.054761786 0.017474009 -0.050848797 -0.05043294
0002c0 07 2e 8b bb 61 c3 98 bc 3d f9 a3 bb b1 94 d7 bd
       -0.0042474302 -0.018647851 -0.0050040768 -0.105264075
0002d0 fd 5f a3 bd 87 d2 a5 bb bf a8 57 bd 07 fe 5e 3c
       -0.07977293 -0.005060497 -0.052651163 0.0136103695
0002e0 42 57 07 be d4 2e 08 3d a6 d5 05 bd 89 9f 82 bd
       -0.1321688 0.033247784 -0.032674454 -0.06378085
0002f0 6d e8 89 bd b0 52 76 3d 6f 52 48 bd 96 da 17 3c
       -0.06733785 0.06013745 -0.04890674 0.009268424
000300 30 14 d4 bc fe 7a a4 3c 95 f8 b7 bd 3d 88 36 bd
       -0.025888532 0.020078178 -0.0898296 -0.04456352
000310 a4 ef c3 bd 63 3b a9 bc 56 f4 f6 bc b5 c0 c1 bc
       -0.09567192 -0.0206582 -0.030145805 -0.02365146
000320 55 9d e5 bc 89 a4 09 be 83 dc 5a bd e8 fd 25 bd
       -0.028029123 -0.13441671 -0.053432953 -0.040525347
000330 e4 14 8a bd 43 c2 b6 bd 1b 1f 99 3d 61 90 0e bd
       -0.06742266 -0.08923771 0.07476636 -0.03480566
000340 34 f1 09 bd 23 6a 38 3d 91 10 b6 bd 6e b8 3d bd
       -0.033677295 0.045023095 -0.088898785 -0.046318464
000350 ec d8 03 bd 2b a3 e8 3c 3c 84 df bd 4c f1 ed bd
       -0.032189295 0.028398117 -0.109138936 -0.11618289
000360 34 ae 98 bd 2f 80 e7 bc 1c 6c 3d 3d 48 42 bd bd
       -0.074551016 -0.028259365 0.04624568 -0.09241158
000370 f4 b2 9c bd a1 69 43 bd 08 94 9f 3d 23 c6 b3 bd
       -0.0765132 -0.047708157 0.077919066 -0.08778026
000380 0b 45 50 3c 0f f1 1d 3d 33 bf 9d bd 11 73 0f be
       0.012711774 0.03855997 -0.07702484 -0.14008738
000390 a8 f0 21 bd cd 31 14 bd ac 17 96 3d 7a df 4b bd
       -0.03953615 -0.036180306 0.07328734 -0.04977367
0003a0 79 71 87 3c c3 89 d4 3c d4 21 c4 3d 0a 09 92 bc
       0.0165336 0.025944596 0.09576765 -0.017826576
0003b0 65 79 90 3b 38 33 1f be 14 b9 bc 3d b0 29 20 3e
       0.0044090026 -0.15546882 0.09214988 0.15640903
0003c0 65 d1 bc bd d4 b1 34 3d 6b 9b d0 bd 59 a2 69 bc
       -0.09219626 0.044114903 -0.101858936 -0.014259898
0003d0 51 3e 1d 3d b0 3d 75 bc 9d bc 7d 3d 32 ce 09 3e
       0.038389508 -0.014968321 0.061947454 0.13457564
0003e0 11 40 88 3c 2f 6e 54 bd fa 58 f9 3c 3d c9 85 3d
       0.016632112 -0.05186289 0.030437935 0.06532524
0003f0 86 7a f6 bc 50 61 54 bd e6 67 83 bd 67 e9 b4 3d
       -0.03008772 -0.051850617 -0.064163014 0.088335805

sequential/conv2d_3/Conv2D f4 [64, 3, 3, 64]
000000 a1 77 12 3c 6c 37 dd bd d8 9f ac 3b fb c2 0c bd
       0.008939655 -0.108015865 0.0052680783 -0.034365635
000010 9a e6 0b be 8f 8b 57 3e 5f 3c ca bd 7e 8c 04 be
       -0.13662186 0.21049331 -0.09874796 -0.12944219
000020 ed dc e8 bc 5a a6 53 3e 2d fa 16 bd 8a eb d7 bc
       -0.028425658 0.20668927 -0.03685968 -0.026357431
000030 9b a1 02 bc 67 43 b9 3d 8a fc b6 bc 53 58 54 3d
       -0.0079731 0.09046059 -0.022337217 0.051842045
000040 26 50 41 3d b7 c7 a9 3d 23 d8 84 bb 7d fe 2f 3d
       0.047195576 0.08290046 -0.004054086 0.04296731
000050 88 17 f5 3d a5 8d 3b 3d 8f 57 c8 3d cb a6 05 3e
       0.11967379 0.04578938 0.097823255 0.13051908
000060 e0 cf bb 3d db 7f cb bb a8 5a 7e 3d 48 b9 bd 3c
       0.091705084 -0.00621031 0.062098175 0.023159638
000070 a9 c5 be 3c ce 84 e7 3d a4 9b a0 bc ec c2 5d 3d
       0.023287611 0.11304627 -0.019605465 0.05414097
000080 d3 df ae bc af d8 08 be 95 b5 90 3d 4e 7f 74 bd
       -0.021346962 -0.13363908 0.07065884 -0.05969172
000090 13 35 f0 bc ee 82 22 bc ac f2 9d bd 83 ac d7 bd
       -0.029322183 -0.009918911 -0.077123016 -0.10530951
0000a0 2d 1c a4 3b 0c 83 bd 3b 49 11 6e 3b 48 1b e4 bd
       0.0050082416 0.0057834443 0.003632622 -0.11138016
0000b0 ee 6f 8d bd 3c a2 0d 3d cd ba 1f 3d 3e 34 a9 bc
       -0.069061145 0.034578547 0.038996506 -0.020654794
0000c0 3f 2b 9f 3c 6b d5 bd bd 1e d5 5b 3d 53 e1 20 be
       0.019429801 -0.09269222 0.05367004 -0.15710954
0000d0 46 77 64 3d 93 34 bb 3b b3 40 7a bc 16 d2 2e 3d
       0.05577781 0.0057130544 -0.015274215 0.042680822
0000e0 0a 8f 23 3e 19 c6 d8 bc 3d d9 25 3d 5a 4c 06 3d
       0.15972534 -0.026461648 0.040490378 0.03278766
0000f0 3d d9 00 3c e4 09 fa bc fd 17 89 bd bf 8e d1 3c
       0.007864294 -0.030522294 -0.066940285 0.025580762
000100 6b ad c3 bd 1d 8f 10 be 0d 0a 8c bd ca d6 8c bd
       -0.09554561 -0.14117093 -0.068378545 -0.06876905
000110 9e fd f8 3c c1 5c cb 3c ec cd 57 bd b4 8f 83 3b
       0.030394372 0.024824502 -0.052686617 0.0040149335
000120 80 b3 a4 bd 9c 58 45 3e 26 00 b4 bd c3 b0 01 bd
       -0.080420494 0.19272083 -0.08789091 -0.031662714
000130 45 9a af bd 3a b5 96 3c d9 68 84 bd f3 87 d8 3c
       -0.085743465 0.018396962 -0.064653106 0.026432013
000140 5b 57 81 bd eb ab c5 b9 7e e6 99 bc df ef 7c 3d
       -0.0631549 -0.00037702857 -0.018786665 0.061752196
000150 81 c4 11 3c 54 e7 09 be bc e9 72 3d d8 2a 6f 3a
       0.008896948 -0.13467151 0.059304938 0.00091235107
000160 dc 44 88 3a 13 cd a9 bc 6b 55 f8 bc 2b 64 db bd
       0.0010396498 -0.02072767 -0.030314168 -0.10712465
000170 a4 0b 2a 3d 88 48 fc 3c 3b 1c a5 bd c4 46 81 3c
       0.041515008 0.030796304 -0.08062025 0.015780814
000180 2a 3b 04 bd 4b 33 85 bc d0 82 93 3d 24 78 11 3d
       -0.032282986 -0.01625981 0.07202685 0.035514966
000190 4e de d3 3d d8 cd c2 bc ef 57 7c bd 44 3e 89 bd
       0.10345136 -0.023779795 -0.061607298 -0.06701329
0001a0 77 76 c5 bb 86 6b 0e 3c 4a a2 84 3c c2 88 92 bd
       -0.006026085 0.008692628 0.016190667 -0.07154991
0001b0 54 31 d1 bc 00 3f cd b8 00 29 c8 bc 25 71 45 3c
       -0.025536217 -9.7868964e-05 -0.024433613 0.012050902
0001c0 7b d0 08 3e c4 86 13 be 26 f2 fc bb 78 76 04 bd
       0.13360779 -0.14406878 -0.007719296 -0.032339543
0001d0 c2 d2 13 be cb bd e2 bb 9e 03 21 bc e8 81 e1 3d
       -0.14435866 -0.0069195977 -0.009827523 0.11011106
0001e0 1c 67 9d 3d bc 57 80 bd ac 4d 1b 3d 53 68 c2 3d
       0.07685682 -0.06266734 0.03791587 0.094925545
0001f0 47 19 b7 bd 25 3f 6f bd 55 0b d6 bd 37 23 93 bc
       -0.08940368 -0.05840983 -0.1045138 -0.017961128
000200 ae e8 20 bd 47 cf ca bc fb 2c 97 bd 38 8d cd bd
       -0.0392844 -0.02475704 -0.07381626 -0.10036701
000210 96 d6 7e 3c c1 d3 4a bd 32 54 1d bd 04 c6 b1 3d
       0.015554091 -0.04951835 -0.038410373 0.086803466
000220 35 31 6d 3d f7 aa 47 bd 06 39 1b 3c 24 72 24 3d
       0.057908256 -0.04874703 0.009474045 0.040147915
000230 54 ff a5 bd 1d ba d7 bd 06 3b e1 bc 3e 8e c8 bd
       -0.081053406 -0.10533545 -0.027493965 -0.097927555
000240 50 f5 ac bd 00 10 19 bd 7d 41 dc bb 51 d7 1c bd
       -0.08445227 -0.037368774 -0.006721674 -0.03829128
000250 36 93 85 3d 05 0e f0 bd 93 62 05 3d db b7 c2 3c
       0.06522219 -0.11721424 0.03256471 0.02376931
000260 cf 70 80 bd a3 1f ef 3c 23 f3 7c bd 29 60 dc bd
       -0.062715165 0.02918989 -0.06175531 -0.107605286
000270 af 72 6e 3d c8 64 20 bd ef 0c 01 be 5d a4 3e 3d
       0.05821484 -0.039158612 -0.1260259 0.046543468
000280 4d 5c 87 bc 08 81 a3 bc 12 29 ef bc dc 58 04 3d
       -0.016523505 -0.019958988 -0.029194389 0.032311305
000290 d5 d0 da 3c 64 9a ae bd 91 aa 0c bd 12 41 b4 bc
       0.026710907 -0.085255414 -0.034342352 -0.022003684
0002a0 0e d3 01 be 0e 95 cd bd b0 bb 48 3d de 93 d2 3b
       -0.12678167 -0.100381956 0.049007118 0.0064263185
0002b0 8b 69 04 bd bc 1f b0 3d 75 48 cb bd 69 fa 9d 3c
       -0.032327216 0.08599803 -0.099259295 0.019284444
0002c0 5d 3c 07 3d 95 c3 a1 3c 1b 91 84 3d fe cb 32 bd
       0.03301655 0.019746581 0.06472989 -0.043651573
0002d0 d3 43 02 bd af 75 d2 bd b1 40 97 bc be 05 a0 bc
       -0.031802963 -0.102763526 -0.018463464 -0.019533988
0002e0 e1 b3 3f bd 31 a4 29 bd 5e dc 87 ba f8 cf 35 3d
       -0.046802405 -0.04141635 -0.0010365357 0.044387788
0002f0 d4 4d 67 bd ae 00 3c bc f9 b6 2f bc 0d 14 bc 3b
       -0.056470707 -0.011474771 -0.010724776 0.005739695
000300 18 9e fe 3c a0 16 2e bd 63 68 18 bc d8 b6 bd bd
       0.031081244 -0.042502046 -0.0093022315 -0.0926339
000310 e1 b4 98 bd 07 05 b8 3d fa 61 61 bc 4e b5 b7 3c
       -0.07456375 0.08985334 -0.01375627 0.02242532
000320 07 fd 10 3d 04 72 fa 3d fa 4c 4a bd 47 ec 31 3d
       0.035397556 0.12228778 -0.049389817 0.043438222
000330 02 a4 71 3d 88 53 43 3d 32 b0 92 3d b1 9b cc 3d
       0.0589943 0.047687083 0.07162513 0.09990633
000340 86 96 64 3c 4b 14 c4 bc 22 06 71 bd 3d bf f9 3c
       0.013951903 -0.023935458 -0.05884374 0.030486697
000350 9a 80 cb bd ec a2 02 3e aa 1d 99 3d 01 5d dd 3d
       -0.09936638 0.12757462 0.07476361 0.10808755
000360 06 d7 c4 bc 04 8d 3d be 2a 1d 94 bc 0d 94 23 3d
       -0.024028312 -0.18510824 -0.018080313 0.039936114
000370 c5 ac 87 bc d6 d7 8a 3c 42 7d 00 bc 3f cc af 3c
       -0.016561875 0.016948622 -0.007842364 0.021459697
000380 6c 35 99 3c 56 df be bd cb ac 2f bd f5 92 13 bd
       0.018702231 -0.09319942 -0.042889398 -0.03602882
000390 c7 c6 30 bd 22 8a 3c 3c 8d 9c 2e bd 97 20 ad ba
       -0.04315832 0.011507543 -0.042629767 -0.0013208565
0003a0 a7 6c b4 bd 5a d4 91 3d 09 9e b0 bb 1f 70 b2 bd
       -0.08809786 0.07120581 -0.005389933 -0.08712792
0003b0 5c 43 35 3d ad 49 bb bd 25 a0 04 3b 53 f0 07 bd
       0.044253692 -0.09144912 0.0020237055 -0.033188175
0003c0 5b 63 2e bd 05 1d 49 bd 70 9c 44 3d e7 36 1c be
       -0.04257522 -0.04909994 0.048000753 -0.15255319
0003d0 ad 53 4b bd 16 d4 29 bd d7 c6 f7 3d 3a 38 08 3d
       -0.049640346 -0.041462027 0.120984726 0.033256747
0003e0 71 b7 c5 3d 35 85 c7 bc 5c 86 79 3d 0c df ec 3a
       0.09654129 -0.02435551 0.06091915 0.0018071844
0003f0 60 8f de bc 24 6e a7 bd ac 3b 9c bb e4 9f aa bc
       -0.027167976 -0.081753045 -0.0047678556 -0.020828195

sequential/dense/BiasAdd/ReadVariableOp f4 [2]
000000 d7 6b aa 3d cc 6b aa bd
       0.0832135 -0.08321342

sequential/batch_normalization/FusedBatchNormV3 f4 [16]
000000 be b0 54 41 82 0c d0 41 53 b2 40 41 85 fc 33 41
       13.29315 26.006107 12.043536 11.24915
000010 14 f1 51 41 f3 92 dc 41 47 5e f9 41 13 a2 b4 41
       13.121357 27.571753 31.171034 22.579138
000020 88 28 08 42 71 07 bb 41 66 0b 92 41 4c 76 01 42
       34.03958 23.378633 18.255566 32.365524
000030 8b c5 8b 41 9e fa fd 41 f9 8d 8b 41 3a fd bf 41
       17.471457 31.747372 17.444323 23.998646

sequential/batch_normalization/FusedBatchNormV31 f4 [16]
000000 32 a1 bd bf de 51 bb be 2d 83 b8 bf 4d 78 2d c0
       -1.4814818 -0.36585897 -1.4415032 -2.7104676
000010 22 a7 cd bf 94 98 5f be f4 62 57 be dc 87 2f be
       -1.606663 -0.21835548 -0.21033841 -0.1714167
000020 d4 e3 47 be 68 20 b8 be f1 ee 3c bf c0 66 36 be
       -0.19520503 -0.35962224 -0.73802096 -0.17812634
000030 bc 1a b6 bf 80 97 85 bc 88 fb f4 bf 64 f5 bd be
       -1.4226909 -0.016307592 -1.9139261 -0.3710128

sequential/batch_normalization_1/FusedBatchNormV3 f4 [32]
000000 db ac c5 3f 85 3a 0d 40 f7 21 dd 3f 10 13 f5 3f
       1.5443376 2.2066967 1.727599 1.9146442
000010 ab c2 02 40 c1 50 f6 3f f9 39 58 40 1a 04 0a 40
       2.0431316 1.9243394 3.3785384 2.1565003
000020 b6 5f 9e 3f 15 bf 94 40 12 99 3a 40 55 56 f1 3f
       1.2372959 4.6483254 2.9155927 1.8854471
000030 25 ff 76 40 7b 06 df 3f 55 85 05 40 10 ae 27 40
       3.8593228 1.7423853 2.086263 2.619999
000040 00 0e cb 3f 60 14 b5 3f da 25 02 40 bc d5 54 40
       1.5863647 1.4146843 2.0335603 3.3255453
000050 47 18 1e 40 aa 3a e4 3f 21 54 f8 3f 8a 71 5f 40
       2.4702318 1.7830403 1.9400674 3.4913049
000060 ac 4a fe 3f 5f ce 3e 40 68 6b 02 40 fc e5 01 40
       1.9866538 2.981346 2.0378056 2.0296621
000070 36 9d ee 3f 35 24 06 40 a6 86 23 40 d1 41 b2 3f
       1.8641727 2.09596 2.5550933 1.3926336

sequential/batch_normalization_1/FusedBatchNormV31 f4 [32]
000000 fa b0 d5 be e0 a4 3d be 44 89 a1 be aa b6 6e be
       -0.41736585 -0.18519926 -0.31550038 -0.23311868
000010 24 01 5c bf a6 27 f7 be b0 b7 c4 3d ce 12 8b be
       -0.8593924 -0.48272437 0.09605348 -0.27162784
000020 b1 19 8b be ce 58 89 bd 80 da 1b bd 6b f9 32 bf
       -0.27168038 -0.06706391 -0.038050175 -0.6991183
000030 e8 8d 28 be 33 7c 39 bf 74 4e 57 be 9d 38 b8 be
       -0.16460383 -0.7245514 -0.21026021 -0.35980693
000040 16 83 a9 be 94 1c d2 be 1c e5 e0 be a4 b3 63 be
       -0.33107823 -0.41037428 -0.43924797 -0.22236496
000050 d9 f4 8f be 9a 1e 19 bf a2 9d 54 be a8 88 cd be
       -0.2811649 -0.5981232 -0.20763257 -0.40143323
000060 63 30 3c bf 62 e3 1b bf 32 5b a2 be c0 97 9b bd
       -0.7351133 -0.60893834 -0.31710202 -0.075973034
000070 82 06 75 be 3c 55 5b be 49 51 1b bf 70 db f2 be
       -0.23928264 -0.21419233 -0.60670906 -0.47433043

sequential/batch_normalization_2/FusedBatchNormV3 f4 [64]
000000 a2 1b e6 3f ef fc 28 40 24 00 cd 3f eb 82 85 3f
       1.7977183 2.6404378 1.6015668 1.0430578
000010 92 0e a4 3f 3a 86 05 40 b7 74 d6 3f 93 e8 85 40
       1.2816947 2.0863175 1.6754369 4.1846404
000020 19 80 0d 40 05 0d 3e 40 b3 6a 0e 40 d4 66 d0 3f
       2.2109435 2.9695446 2.2252624 1.6281381
000030 de ad f0 3f eb a8 11 40 79 7e 2e 40 c6 36 e4 3f
       1.880306 2.275935 2.7264693 1.7829216
000040 89 fa 9e 3f 9f a7 b1 3f 2d 3f 61 40 a9 31 a0 3f
       1.2420207 1.3879279 3.519481 1.2515155
000050 b8 fa 81 3f 21 52 1c 40 89 a1 95 3f 4f ba fd 3f
       1.0154638 2.4425128 1.1689922 1.9822482
000060 64 ef eb 3f fb 91 0e 40 1b 54 21 40 e1 53 44 40
       1.8432431 2.22766 2.5207584 3.0676196
000070 7f f5 ae 3f 57 dc d7 3f 5d 24 23 40 83 f8 98 3f
       1.366867 1.6864117 2.5490944 1.195084
000080 30 2f 90 3f a2 4b 0e 40 53 35 b7 3f 9d 02 ed 3f
       1.12644 2.2233663 1.4313148 1.8516423
000090 02 ac 07 40 46 46 c4 3f 95 0c 9e 3f e7 f4 81 3f
       2.1198735 1.5333946 1.234759 1.0152863
0000a0 80 0c a3 3f 58 55 88 40 7c cb d7 3f b9 bf d9 3f
       1.273819 4.260418 1.6858974 1.7011634
0000b0 c3 1e 07 40 99 f8 ca 3f a7 6e 21 3f bf 5a d1 3f
       2.1112525 1.5857116 0.6305947 1.6355819
0000c0 d1 f5 cf 3f a7 e1 f4 3f 97 a8 74 40 9d 23 22 40
       1.6246892 1.9131364 3.82279 2.5334237
0000d0 03 9a cc 3f ec c0 08 40 31 a3 e6 3f 78 70 3c 40
       1.5984501 2.136775 1.8018552 2.9443645
0000e0 4d 61 f8 3f 61 30 8c 3f e9 86 18 40 0f b5 25 40
       1.9404694 1.0952264 2.3832343 2.589176
0000f0 29 b8 9e 3f 4f 51 04 40 c5 4d 0e 40 55 43 d3 3f
       1.2399951 2.0674627 2.2234967 1.6504923

sequential/batch_normalization_2/FusedBatchNormV31 f4 [64]
000000 90 65 09 bf ad 9b 92 be c2 7e e9 be 7e c8 c4 be
       -0.536706 -0.28634396 -0.4560452 -0.38434213
000010 a2 a2 20 be 6e 53 2d bf 4c 95 b7 be fe 36 b4 be
       -0.1568704 -0.6770543 -0.35856092 -0.35198206
000020 b1 1f b3 be 71 f1 01 bf 1c d9 51 be 75 07 0d bf
       -0.34985116 -0.50759035 -0.20492977 -0.55089504
000030 ad 36 20 bf 5a dd 69 be fe cd 0f bf 1f 3d e1 be
       -0.6258343 -0.22838345 -0.56173694 -0.43991944
000040 45 9c 57 be e1 cb 4a bf 8c ea 04 bf 1a 00 32 bf
       -0.21055706 -0.79217345 -0.5192039 -0.69531405
000050 09 e9 bf be 71 0c f9 be d8 aa 20 bf fa b5 2e bf
       -0.3748248 -0.48642305 -0.62760687 -0.68246424
000060 42 dd fc be 0e 17 a8 be c4 3a 16 bf 28 14 04 bf
       -0.49387556 -0.3283009 -0.5868342 -0.51593256
000070 80 9a 95 be 7e 9e 89 be 05 18 75 be 33 67 18 bf
       -0.29219437 -0.26878732 -0.23934944 -0.5953247
000080 a0 e7 53 be c9 9f cc be 0a 41 0d bf d0 c0 1f bf
       -0.20693827 -0.39965656 -0.55177367 -0.62403584
000090 f1 3f 23 bf d4 71 d5 be 1c d4 db be 18 55 1f bf
       -0.6376944 -0.41688406 -0.42935264 -0.6223922
0000a0 e8 3e c0 be 90 dd 8b be e2 d5 c4 be 68 a5 b6 be
       -0.37547994 -0.27317476 -0.3844443 -0.3567307
0000b0 3c 56 eb be a0 b2 88 be 6d df 0f bf 05 56 10 bf
       -0.4596423 -0.2669878 -0.56200296 -0.56381255
0000c0 de 81 d0 be 69 3d b7 be a8 ac ec be 72 a4 3e be
       -0.4072408 -0.3578904 -0.46225476 -0.18617418
0000d0 bf 46 04 bf 8c 59 06 bf a1 46 c3 be 64 85 01 bf
       -0.5167045 -0.5248039 -0.38139823 -0.5059416
0000e0 52 1a c4 be 42 3f 97 be 1d 0a 0c bf ea 80 02 bf
       -0.3830133 -0.2954045 -0.5470293 -0.5097796
0000f0 74 0c 6e be a8 f2 b9 be 29 7e ce be 2b 60 e5 be
       -0.23246938 -0.36317945 -0.40330628 -0.44799933

sequential/batch_normalization_3/FusedBatchNormV3 f4 [64]
000000 53 7b d8 3f b9 40 8d 3f d0 01 ad 3f f3 ce b4 3f
       1.6912636 1.1035377 1.3516178 1.4125656
000010 af 75 95 3f 99 d0 98 3f fe 0f 88 3f 37 c7 a4 3f
       1.1676539 1.1938659 1.062988 1.2873296
000020 0a 92 9d 3f 53 8c c5 3f 80 64 dd 3f 6e 1a 9f 3f
       1.2310193 1.5433449 1.7296295 1.2429941
000030 74 59 a9 3f ef de 97 3f 6a a3 c2 3f 4c 6d a0 3f
       1.3230424 1.1864909 1.520612 1.2533355
000040 0d 5e a3 3f d3 97 32 3f 75 d0 c5 3f 12 4b b1 3f
       1.2763077 0.69762915 1.5454241 1.3851035
000050 37 7f ca 3f 64 d1 11 40 37 59 ad 3f 05 6e 95 3f
       1.5820073 2.2784052 1.3542851 1.16742
000060 45 d3 d7 3f 3e 16 1f 3f ff 79 f5 3f cd 54 d3 3f
       1.6861349 0.62143314 1.9177855 1.6510254
000070 cb f2 b9 3f 76 ca e3 3f 47 ae bb 3f 32 c0 d5 3f
       1.452722 1.7796161 1.466256 1.6699278
000080 82 5e 89 3f 80 ae ba 3f 2d 3a 99 3f 64 1d 84 3f
       1.0731966 1.4584503 1.1970879 1.0321469
000090 b0 39 77 3f 6c 20 e4 3f 5f c0 86 3f 16 90 7a 3f
       0.965724 1.7822394 1.0527457 0.9787611
0000a0 e2 0b a8 3f 19 bd 9b 3f 27 05 ab 3f 1f 50 bc 3f
       1.3128626 1.2167083 1.3360947 1.4711951
0000b0 d8 91 a9 3f 2e c8 4c 3f 23 79 bc 3f 75 12 ac 3f
       1.3247633 0.7999295 1.4724468 1.3443133
0000c0 b1 7a 7a 3f bb 40 c4 3f c6 5c af 3f b1 a9 cd 3f
       0.9784346 1.5332254 1.3700187 1.6067411
0000d0 0f e2 d9 3f 88 6e 9c 3f 3b ea ae 3f 7a 27 91 3f
       1.7022113 1.2221231 1.3665231 1.1340172
0000e0 f2 78 aa 3f 10 30 b9 3f ac aa c1 3f 52 94 ea 3f
       1.331816 1.4467793 1.513021 1.8326514
0000f0 72 1c a4 3f a0 1c 84 3f 9a 4a b7 3f e3 7b a9 3f
       1.2821181 1.0321236 1.4319642 1.3240932

sequential/batch_normalization_3/FusedBatchNormV31 f4 [64]
000000 5d b5 5b be b4 cc 16 bf 9a 0c c8 be 1b f3 c5 be
       -0.21455903 -0.589061 -0.39072114 -0.38662037
000010 3c 58 ec be fd 51 f9 be ec c9 24 bf ad cd fe be
       -0.46161067 -0.48695365 -0.6437061 -0.49766293
000020 78 66 dc be fa db 96 be 46 90 b4 be 9f fd e7 be
       -0.43046927 -0.29464704 -0.35266322 -0.45310685
000030 9f 94 c0 be 6d d1 0e bf 7e 9d b2 be f8 af f9 be
       -0.3761339 -0.5578831 -0.34885782 -0.48767066
000040 1d 03 be be 2c 1a 2e bf 3e 74 b6 be 6f bc 04 bf
       -0.3711175 -0.68008685 -0.3563556 -0.51850027
000050 4a 10 c7 be 5e 5e 7a be 9a e5 a9 be fe fb ad be
       -0.38879615 -0.2445006 -0.33182985 -0.33981317
000060 d2 65 9b be 4b ed 43 bf 00 5d 9e be b8 22 fb be
       -0.3035112 -0.76533955 -0.30930328 -0.49049926
000070 e6 c1 88 be 12 ec bb be e1 6b ea be 72 68 b2 be
       -0.26710433 -0.36703545 -0.4578543 -0.3484531
000080 3e 47 ff be a9 45 e9 be 0c 8f fb be 1b e3 23 bf
       -0.4985904 -0.4556096 -0.49132574 -0.6401841
000090 3a a9 10 bf 6d 1f ae be 16 3d f3 be 28 1f 1c bf
       -0.5650822 -0.3400835 -0.47507542 -0.6098504
0000a0 6c 84 d4 be 0e 2f 0a bf a8 4d e7 be 71 3d ce be
       -0.4150728 -0.5397805 -0.45176435 -0.4028125
0000b0 32 1a a3 be 3f 85 0f bf 1e 93 02 bf 1b 83 f5 be
       -0.31855923 -0.5606269 -0.51005733 -0.47951588
0000c0 87 7f 13 bf 05 9b d3 be 44 96 a7 be 01 44 bb be
       -0.57616466 -0.41329208 -0.3273183 -0.3657532
0000d0 ec 31 ad be fa 17 bd be 1a 0d c3 be d8 38 ff be
       -0.3382715 -0.36932355 -0.38095933 -0.49848056
0000e0 1c 0f 99 be 2d 32 0a bf c6 cb af be 3c fd d2 be
       -0.2989434 -0.5398281 -0.34335154 -0.41208827
0000f0 7b e8 b7 be b7 77 05 bf 9c d2 ee be 26 71 ae be
       -0.35919556 -0.52135795 -0.46645057 -0.340707

sequential/dense/MatMul f4 [2, 256]
000000 dc 5a 13 be 06 1e c1 3d 3e 8a 88 3c e1 23 17 3e
       -0.14390129 0.09429555 0.016667482 0.1475978
000010 aa dc c7 bd d4 bc 8c 3d 47 f4 9b 3d 94 69 11 3e
       -0.09758885 0.068719536 0.076149516 0.14200431
000020 a0 27 80 bd e2 eb 63 3b 8e da 28 3e 76 d3 b1 3c
       -0.06257558 0.0034778048 0.16489622 0.021707278
000030 d1 61 06 bc fc e2 35 3d d9 2a 91 bd 8c 5e f4 bd
       -0.008202032 0.044405922 -0.07088251 -0.11932096
000040 9f 69 02 be 00 9e 18 3e bb 47 39 3e 17 47 31 be
       -0.12735604 0.14904022 0.18093769 -0.17312275
000050 00 53 c1 3d 64 3a 6f 3e d6 ba 25 3e 09 26 e2 3d
       0.09439659 0.23362118 0.16184554 0.11042411
000060 b4 94 23 3e cf 6f 4a bd 1f 72 80 3d 23 ff 92 3d
       0.15974694 -0.049423035 0.06271767 0.0717757
000070 0f e2 0c 3e 38 7a eb 3d d0 2e 28 be f2 77 85 3d
       0.1375811 0.11497921 -0.16424108 0.065170184
000080 20 1a 64 be 27 81 ea 3c 32 c2 0c 3d 28 24 9b 3d
       -0.22275591 0.028626038 0.034364887 0.07575256
000090 e0 78 96 bd 47 cb 33 3e d0 9f 02 3d 2e 1e 76 bd
       -0.07347274 0.17558013 0.03189069 -0.060087375
0000a0 c6 b4 f0 3d 38 fb 17 be 17 e9 3f bd b0 e4 13 3e
       0.1175323 -0.14841926 -0.04685315 0.14442706
0000b0 46 17 11 3e 66 af b0 3d 56 cd 9f 3d be 49 4b be
       0.14169034 0.086272046 0.078028366 -0.19852349
0000c0 31 26 c0 3c bb 10 12 3c 46 cd 85 3d df 13 31 3e
       0.023455711 0.008915122 0.065332934 0.17292736
0000d0 2e d4 03 3e a4 b1 fd 3d 63 2c 18 3e 09 a0 d0 bc
       0.12873909 0.12387398 0.14860682 -0.025466936
0000e0 e2 48 27 be c8 1d 48 bd b9 fe db 3d 26 8c 3c 3e
       -0.16336396 -0.048856527 0.10741944 0.18412837
0000f0 69 2a 1c 3e aa 4f 1f be de d5 89 bd e3 05 bf 3d
       0.15250553 -0.15557733 -0.06730245 0.09327295
000100 d2 0b 09 bc 9d 95 1a 3d 6e 34 37 3e 0d cd cc 3c
       -0.008364635 0.03774034 0.17891094 0.02500012
000110 a9 55 92 bd fb 6e e7 3d 30 1f 43 be 59 0b 75 bd
       -0.07145245 0.11300465 -0.19054866 -0.059825275
000120 88 04 b1 3c ee c4 80 3e 60 e8 62 be 67 50 0b be
       0.021608606 0.25150245 -0.22158957 -0.1360489
000130 53 ec 3b 3e 10 57 fa 3c de 12 6c 3e b2 f2 d1 bc
       0.1835187 0.030559093 0.23054072 -0.025628421
000140 4d 85 b2 3b 6e 56 c4 3d ef 90 95 3b b2 b8 85 bd
       0.0054480196 0.09586798 0.0045643966 -0.065293685
000150 59 7f 21 3e 50 ed 23 be 7c 83 a9 3d da a0 38 bd
       0.15771236 -0.16008496 0.08277032 -0.045075275
000160 8a 8d 0d 3c ba ae 30 bd cc 39 1a bd 35 09 40 3d
       0.008639703 -0.043135382 -0.037652776 0.04688378
000170 55 fe d3 3c ad f6 03 3d 71 03 80 3d e6 64 79 bd
       0.02587811 0.03221767 0.062506564 -0.06088724
000180 48 05 3a 3d d8 88 a0 bd 3c 69 98 3d 4c 52 e6 3b
       0.045415193 -0.07838601 0.07441947 0.0070288535
000190 5e bb 34 bd 71 2a 1d 3e 49 9e 15 3e 9d 48 39 be
       -0.044124 0.15348221 0.14611162 -0.18094106
0001a0 8e f0 31 bc 9a 3d 5c bd 56 ac c2 bc c0 f0 bd bd
       -0.010860575 -0.053769685 -0.023763817 -0.09274435
0001b0 75 89 de bd 79 e0 a2 bc 95 de 28 be 9d d3 82 bd
       -0.108660616 -0.019882428 -0.16491158 -0.06388018
0001c0 b5 93 a8 3d 96 86 6b 3e e6 70 f3 3d 55 e4 24 be
       0.08231298 0.23000559 0.11886768 -0.16102727
0001d0 63 65 6a bd 26 a7 28 3e 71 b1 c3 bd be bc ac 3d
       -0.057225596 0.16470012 -0.09555329 0.08434437
0001e0 9a f7 f8 3d 6e b8 39 be 99 96 20 be 75 32 18 3e
       0.12156601 -0.1813676 -0.15682448 0.14862998
0001f0 73 33 0b 3e 47 4b 6f bd 72 2b 13 be 8f f3 ed 3d
       0.13593845 -0.0584214 -0.14372042 0.11618721
000200 75 83 eb 3d a5 4a 05 be da 49 66 b9 58 aa a3 bd
       0.11499683 -0.13016756 -0.00021962021 -0.07991475
000210 d4 ba 3d 3d 80 e5 28 bd 9b 26 8d 3d 71 54 f6 bd
       0.04632075 -0.041234493 0.06892129 -0.12027825
000220 e9 ec 7c 3d cc 54 e0 3c 29 f6 01 bd c3 91 04 3e
       0.061749373 0.027384184 -0.031728897 0.12946229
000230 a8 ac 43 bd 0f 71 09 be f1 cf aa 3d ea 74 50 3e
       -0.04777208 -0.13422035 0.08340443 0.20357099
000240 9b 41 76 3c 6f 54 7b bc 9b 3d 03 3d f8 28 cc bc
       0.01503029 -0.015339955 0.032041173 -0.02492188
000250 94 31 3f be d5 d6 07 be 56 09 55 3d e1 d0 a6 bd
       -0.18671256 -0.13265546 0.052010857 -0.08145309
000260 1c 4f 1d 3e b5 dc 79 bd 7b 25 2d 3b fc 97 c9 bd
       0.15362209 -0.0610015 0.0026420045 -0.09843442
000270 64 b0 0c be 15 ce 45 3d 5b 00 cb bb 5f 55 f6 3d
       -0.13739163 0.04829224 -0.0061951107 0.12028002
000280 8f d3 ca 3d b9 fe 94 bc 37 e1 b4 bd e9 51 d5 bd
       0.09903633 -0.018187867 -0.08832019 -0.10416014
000290 6c 6b 95 bd 21 1e 2a be f0 54 02 be 9c f5 f8 3d
       -0.0729588 -0.16613056 -0.12727714 0.12156221
0002a0 74 f6 5b b9 79 27 f1 3d 07 dd 9d 3d df 40 a3 bc
       -0.00020977278 0.11775107 0.07708173 -0.019928394
0002b0 59 97 64 bc 84 db 9d bd e2 86 05 3e f0 a7 53 3e
       -0.0139521 -0.07707885 0.13039735 0.20669532
0002c0 2a 7e 05 be 06 0f 6b be 0e 53 07 be 03 f6 c2 bd
       -0.13036409 -0.2295495 -0.13215277 -0.09519579
0002d0 bf 3d a2 3d 92 45 84 bd 3a 7a bc bd 1f fe 1f 3c
       0.079219334 -0.06458582 -0.09203 0.009765177
0002e0 b5 74 48 3d 32 49 00 3e 50 da d2 3d 13 e1 ec b9
       0.048939425 0.12527922 0.10295546 -0.0004518112
0002f0 ea 75 f0 bd d9 8d 7f bd 54 b4 d8 bc 71 b9 f8 bc
       -0.1174124 -0.062391136 -0.026453175 -0.030361863
000300 cb 45 a1 bd b5 8f 86 bd 86 6a 6a bd 50 d0 43 3c
       -0.0787464 -0.06570379 -0.057230495 0.011951521
000310 98 d2 70 bd d9 cb 72 3e e0 39 5c 3d 85 7f 9d bc
       -0.058794588 0.23710574 0.05376613 -0.019225845
000320 12 ae 3b 3c ec c6 27 be b7 93 0e bd e7 ab 0b be
       0.011455076 -0.16384476 -0.03480884 -0.13639794
000330 68 30 01 3e 36 16 9a bd ac 36 fb 3d 2a c3 55 bd
       0.12616122 -0.07523768 0.12266287 -0.052188076
000340 ee 09 b7 3d 64 4d dd 3c 99 18 b4 bc 8d 88 df bc
       0.08937441 0.027014442 -0.021984385 -0.027286792
000350 96 34 0a 3e 5e 38 a4 bc a5 87 cd 3d 22 18 91 3c
       0.13496622 -0.02004641 0.10035638 0.017711703
000360 9c a0 44 3e 1b a0 61 bc dc 60 51 be 80 77 ed 3b
       0.19201893 -0.013771082 -0.20447105 0.0072469115
000370 95 71 db bd 66 51 d2 3b 59 c3 c8 bd c8 87 64 bc
       -0.107150234 0.006418395 -0.098028846 -0.013948388
000380 68 52 49 3d b0 16 38 3d 18 12 d6 bd 1e d2 5c 3d
       0.049150854 0.04494351 -0.1045267 0.05391132
000390 e6 a6 e9 3d 9f cd 6c 3c 8f af a3 bd a0 ab b8 3d
       0.114087865 0.014453321 -0.079924695 0.0901711
0003a0 2f 7d 4a bd 9d f5 ac bd ea 76 84 3d 74 db f8 bd
       -0.04943579 -0.084452845 0.064679936 -0.12151232
0003b0 fc c1 27 bc e7 67 c3 bd 88 25 8d bd b6 70 08 3d
       -0.010239121 -0.09541302 -0.06891924 0.033310615
0003c0 de 8a 68 bc 4d 54 a5 3d 9d 35 15 3e e3 73 ee bd
       -0.014193265 0.0807272 0.14571233 -0.116431974
0003d0 63 65 4a bd 2d 4e 08 be 18 84 f9 3d f5 7a f4 bd
       -0.049413096 -0.13311072 0.12183398 -0.11937515
0003e0 94 02 c7 3d 78 31 f0 bc 5e 40 0b be f8 58 9c bc
       0.097172886 -0.029320464 -0.13598773 -0.019085392
0003f0 05 d5 ab bd 6f a8 3d be 6d fe d6 3d ed 9c 31 3e
       -0.083902396 -0.18521284 0.104977466 0.17345019
