models/anode/models/arson_cnn3dlstm.tflite (tflite, 789640 bytes, 13 tensors)

arith.constant3 f4 [2, 32]
0	0x3d90f870	0.07078636
1	0x3e05246d	0.13002177
2	0xbe5ee046	-0.21765241
3	0x3e1e2fe1	0.15447952
4	0xbd994a8b	-0.07484921
5	0xbea81ea4	-0.32835877
6	0xbe05d156	-0.13068137
7	0xbe95641d	-0.29177943
8	0xbd0111d5	-0.031511147
9	0xbeb04576	-0.34427994
10	0xbe7ec350	-0.24879193
11	0x3eb1adce	0.34702915
12	0x3ebd7cb9	0.37009218
13	0xbeb75bdc	-0.3581227
14	0x3e247e47	0.16063796
15	0x3d292392	0.041293688
16	0xbca88e0b	-0.020575544
17	0x3d44b4cd	0.048023988
18	0x3c33cf62	0.010974737
19	0xbe252ee1	-0.16131164
20	0x3ecc83bc	0.39944255
21	0xbe167def	-0.14696477
22	0x3c122bb5	0.008921553
23	0x3ecb4706	0.39702624
24	0x3dab32ff	0.08359336
25	0xbea6e1df	-0.325942
26	0x3ea1e2ff	0.31618497
27	0x3ec2d5e8	0.38053823
28	0xbe5de7a1	-0.2167039
29	0x3cb605a4	0.022219487
30	0xbde900b6	-0.11377089
31	0xbdc8ac41	-0.0979848
32	0x3e94dd6c	0.2907518
33	0x3d8a4e98	0.06753272
34	0xbecd56eb	-0.40105376
35	0x3e8f73b7	0.2801797
36	0xbe186ec7	-0.14886008
37	0x3e801887	0.25018713
38	0xbdc91555	-0.09818522
39	0x3d3356f5	0.0437841
40	0x3e586090	0.21130586
41	0x3e562e30	0.20916057
42	0xbd80cc93	-0.062890194
43	0x3ed7a286	0.42116183
44	0x3eb0125d	0.3438901
45	0x3edc0b27	0.4297726
46	0xbeabea1d	-0.33577052
47	0x3eacfa91	0.33784917
48	0xbe3f0a4d	-0.18656273
49	0xbd740c1c	-0.05958186
50	0x3daf8432	0.08570136
51	0xbe95e498	-0.29275966
52	0x3d5f65ec	0.05454056
53	0xbe7d30bd	-0.24725623
54	0xbe83a344	-0.257105
55	0xbeab904c	-0.33508527
56	0x3cdd5342	0.02701724
57	0xbe85e2f7	-0.26149723
58	0xbe7a3b2a	-0.24436632
59	0xbd425a3d	-0.04744934
60	0xbec55290	-0.38539553
61	0xbeada981	-0.33918384
62	0xbe60ec08	-0.21965039
63	0xbd6aa454	-0.05728562

arith.constant4 f4 [1, 1, 1, 1, 64]
0	0x3b396f20	0.0028294995
1	0xbaaaf101	-0.0013041795
2	0xbaa239e6	-0.0012376874
3	0xbb9aad38	-0.0047203563
4	0xbbf2f446	-0.0074143736
5	0xbb835597	-0.004008006
6	0xbb44a37a	-0.0030004666
7	0x3ae01156	0.001709501
8	0xbbc43d06	-0.00598872
9	0x3a812dcb	0.0009855566
10	0x3c0b9a75	0.008520712
11	0xbbe23c98	-0.006904196
12	0xbbf5645a	-0.0074887695
13	0xbbe76eae	-0.0070627546
14	0xba08ff64	-0.00052260444
15	0xbad7c412	-0.0016461632
16	0xbc03f3e2	-0.008053752
17	0x3b7d4082	0.0038643186
18	0xbc018491	-0.007905141
19	0xbb081ee6	-0.002077037
20	0xbbf41f62	-0.00745003
21	0xbad1a7a7	-0.0015995399
22	0xbc0adafd	-0.008475062
23	0xbc0e47bf	-0.008684098
24	0xbb00186b	-0.0019545804
25	0xbb5406d1	-0.0032352696
26	0xba9a80c7	-0.0011787646
27	0xbb3eb1c4	-0.0029097656
28	0xbbc6d34f	-0.0060676704
29	0xbb73fb34	-0.0037228586
30	0x3b086432	0.0020811674
31	0xbc05e8dc	-0.008173194
32	0xbbaf1f9f	-0.0053443457
33	0xbbc21eef	-0.0059240977
34	0xbb41ad0b	-0.0029552605
35	0x3c6b7580	0.014371276
36	0x3b25ecb7	0.0025318095
37	0xba33a22f	-0.00068524753
38	0x3a724ba0	0.00092428364
39	0xbabf73bc	-0.0014606635
40	0xbab2d614	-0.0013644123
41	0xbb0101b2	-0.0019684848
42	0xbb83bde2	-0.0040204385
43	0x3b802d52	0.0039116526
44	0xbb1bc0cc	-0.002376604
45	0xbb4e9954	-0.0031524496
46	0xba507454	-0.00079519046
47	0xbb1a0451	-0.0023501108
48	0xbb391652	-0.0028242064
49	0xbc3618b8	-0.011114292
50	0xb9dcfce4	-0.00042150088
51	0xbbec3b78	-0.0072092377
52	0x3c9beadf	0.019032894
53	0x3ba4d3ae	0.005030117
54	0xba9d2816	-0.0011990096
55	0xbc2a567d	-0.010396597
56	0xbadaf391	-0.0016704669
57	0x3a9ff0fb	0.0012202555
58	0xba98fcac	-0.0011671982
59	0x3bcdc6dc	0.0062798094
60	0xbb4fffe9	-0.0031738228
61	0xbc115279	-0.008869761
62	0x3baba3e0	0.0052380413
63	0xbb4b0fd2	-0.0030984771

arith.constant5 f4 [1, 1, 1, 1, 64]
0	0xbc1a6363	-0.00942311
1	0xbc025b08	-0.007956274
2	0xbc2602e4	-0.010132525
3	0x3cab3a35	0.020901779
4	0xbc2ff85c	-0.010740366
5	0xbbd6109b	-0.0065327412
6	0xbc07cc94	-0.008288521
7	0xbbd50af6	-0.006501551
8	0xbc03e058	-0.008049093
9	0xbb511128	-0.0031901095
10	0x3c910dd6	0.017706793
11	0xbc186d06	-0.009303337
12	0x3c4ca4b2	0.012490438
13	0xbc2057a5	-0.009786521
14	0x3ba13c4e	0.004920519
15	0x3c30d3e1	0.010792703
16	0xbbfe8b2a	-0.0077680545
17	0x3c416496	0.011803767
18	0xbbe525a8	-0.0069930144
19	0xbc603cd8	-0.013686381
20	0xbc09fe8e	-0.008422507
21	0xbc02ad2d	-0.007975859
22	0x3c832d3f	0.016012786
23	0xbbfec564	-0.0077749956
24	0xbb51fbe6	-0.0032041012
25	0xbbead1cd	-0.0071661235
26	0xbc2a41be	-0.010391651
27	0xbc2bfe08	-0.0104975775
28	0xbc1d2972	-0.009592401
29	0xbbea4eac	-0.0071504917
30	0x3c4e62c1	0.012596787
31	0xbbe27a57	-0.0069115567
32	0xbc15efcb	-0.009151409
33	0xbbd8487d	-0.006600438
34	0x3c070ea4	0.008243237
35	0xbc25ae38	-0.010112338
36	0xbc01792d	-0.007902426
37	0xbc13d374	-0.009022582
38	0xbc2825e7	-0.010262943
39	0xbc272956	-0.010202726
40	0x3c9ff5fa	0.01952647
41	0xbc228d3f	-0.009921371
42	0xbbdf70c8	-0.0068188645
43	0xb9917f6e	-0.00027751498
44	0x3c441461	0.011967749
45	0xbb803de1	-0.0039136265
46	0xbc1c5c20	-0.009543449
47	0xbc0da9c3	-0.008646431
48	0xbbeb81de	-0.0071871122
49	0xbc0485c8	-0.008088537
50	0xbc1371b1	-0.008999274
51	0xbbd78aa2	-0.0065778056
52	0xbbf5e7be	-0.0075044325
53	0xbc26aaf8	-0.010172598
54	0xbbd29d6a	-0.0064274566
55	0xbc4656b1	-0.01210563
56	0xbbc51162	-0.006014035
57	0xbc33d34b	-0.010975669
58	0xbc0fa11c	-0.008766439
59	0xbc712700	-0.014718771
60	0xbc3162b6	-0.010826757
61	0xbc16d3db	-0.009205784
62	0xbbd5c3d7	-0.00652359
63	0xbbc64881	-0.0060511236

arith.constant6 f4 [1, 1, 1, 1, 16]
0	0x3c32d369	0.010914662
1	0xbba7fceb	-0.0051265857
2	0x3c37fdf9	0.011229985
3	0xbc803f00	-0.01565504
4	0xbbe093ed	-0.0068535716
5	0xbc179d7f	-0.009253859
6	0xbc873c17	-0.016508145
7	0xbb9d906c	-0.004808476
8	0xbc594246	-0.01326043
9	0x3d01f7ef	0.03173059
10	0xbbcc0588	-0.0062262453
11	0xbb912cfd	-0.004430412
12	0xbc347229	-0.011013546
13	0xbc172e1d	-0.009227303
14	0xbb93ac15	-0.0045065978
15	0xbbaf9f6c	-0.0053595807

arith.constant7 f4 [1, 1, 1, 1, 32]
0	0xbc23b876	-0.009992709
1	0x3cdcb0ce	0.026939776
2	0xbc18f65d	-0.009336081
3	0xbc1d0083	-0.009582642
4	0xbc1e5cce	-0.009665681
5	0xbc3d96e7	-0.011571622
6	0xbc17b61d	-0.009259728
7	0xbc0a3ac8	-0.008436866
8	0xbc91c402	-0.01779366
9	0xbbed1a7a	-0.0072358223
10	0xbbf5f599	-0.007506084
11	0x3bc9ec4a	0.006162201
12	0xbba96757	-0.00516979
13	0xbbccd38e	-0.006250805
14	0xbbdd067c	-0.0067451578
15	0x3d038f61	0.03211916
16	0xbc3155e4	-0.010823701
17	0xbc42fe48	-0.011901446
18	0xbb0205c2	-0.0019839858
19	0x37f4b970	2.9173418e-05
20	0xbc1cbd7e	-0.009566663
21	0xbc0e2796	-0.00867643
22	0xbc8702e9	-0.01648088
23	0xbc3f8f20	-0.0116918385
24	0xba8371dc	-0.001002844
25	0xbb0f9956	-0.0021911464
26	0xbc0f0c13	-0.008730906
27	0xbc38ed8b	-0.011287103
28	0xbc3f4a00	-0.011675358
29	0xbc5ba11e	-0.013405113
30	0xbc55d4d3	-0.0130512295
31	0xbbe3ff18	-0.0069579

arith.constant8 f4 [2]
0	0xba2fbb64	-0.00067036436
1	0x3a2fbb6d	0.0006703649

arith.constant9 f4 [3, 3, 3, 64, 64]
0	0xbc4b8247	-0.012421197
1	0xbcf429a6	-0.029805016
2	0xbc6ebaa7	-0.014570869
3	0xbc12aa03	-0.008951667
4	0xbce343ab	-0.027742228
5	0x3d193d39	0.037411902
6	0xbd4c4936	-0.049874507
7	0x3c9f0d34	0.019415475
8	0x3caef1ac	0.021355473
9	0x39504cac	0.00019864988
10	0xbbf79b41	-0.0075563495
11	0x3b7a8ef4	0.003823218
12	0x3b030bba	0.0019996003
13	0x3c644b8a	0.013934026
14	0x3c3f2322	0.011666091
15	0x3cd4e00b	0.025985738
16	0x3c27de8a	0.010245929
17	0x3cf5defa	0.03001355
18	0x3c2b3d8c	0.010451686
19	0x3bb390ca	0.0054799067
20	0xbce847cb	-0.028354546
21	0xbd1f5e0d	-0.038908053
22	0xbd26b5bb	-0.040700655
23	0xbba9f336	-0.0051864637
24	0xbd023b9a	-0.03179512
25	0xbd27610c	-0.040864035
26	0xbcf0029d	-0.029298121
27	0x3c450efc	0.012027498
28	0xbce37b28	-0.027768686
29	0xbd20827b	-0.039186936
30	0xbd17addc	-0.03703104
31	0xbc7b1e1f	-0.015327006
32	0x3d0c6438	0.034275264
33	0x3cae25d6	0.021258276
34	0xbcfc5f97	-0.0308073
35	0xbb2d7bc7	-0.0026471482
36	0x3c13ae7e	0.00901377
37	0xbc5f7b4d	-0.013640237
38	0x3ca2a9d7	0.019856377
39	0xbcb690f6	-0.02228592
40	0xbb888abb	-0.0041669286
41	0x3ceca123	0.02888543
42	0x3bba5fff	0.005687713
43	0x3cdbf1bc	0.026848666
44	0x3b0f4432	0.0021860716
45	0xbcb11596	-0.021616738
46	0xbc331960	-0.010931343
47	0x3ce6a85b	0.02815645
48	0x3c940199	0.018067168
49	0x3cfe12f8	0.031014904
50	0xbcc66b58	-0.024221107
51	0xbcd8393a	-0.026394475
52	0x3d181a3d	0.037134398
53	0xbba0e97c	-0.004910646
54	0x3c9847c3	0.018588906
55	0x3ce46eea	0.02788492
56	0x3d40cb49	0.047068868
57	0x3bbd92df	0.0057853307
58	0x3c2434cf	0.010022356
59	0x38fd2cf8	0.00012072356
60	0xbca4ea6f	-0.020131318
61	0x3c04431e	0.008072643
62	0x3c7a44c5	0.015275185
63	0xbc53bac3	-0.012922945
64	0x3cee58ea	0.029095132
65	0x3b7de6cb	0.00387423
66	0x3ce7077c	0.028201811
67	0xbb65b835	-0.0035052423
68	0x3c5bdd36	0.01341944
69	0x3cba0692	0.022708211
70	0x3cca5bd8	0.024701998
71	0x3caa733f	0.020806907
72	0x3ccc8ca4	0.024969406
73	0xbcc252c6	-0.02372111
74	0x3cb0460c	0.021517776
75	0x3c7cdc93	0.015433448
76	0x3cdddea7	0.027083708
77	0x3cbbd8f4	0.0229306
78	0xbcd78a7a	-0.026311148
79	0xbbd12139	-0.0063821343
80	0xbd2466e8	-0.0401372
81	0xbc0fe354	-0.008782227
82	0xbd1fa60e	-0.03897672
83	0xbc46ad3b	-0.012126262
84	0x3c8f8ec2	0.017524127
85	0xbd2e732d	-0.04259031
86	0xbcff28ca	-0.03114738
87	0xbc6e24ce	-0.014535142
88	0xbbe028d8	-0.0068408065
89	0xbce19594	-0.027537145
90	0xbc4a5b84	-0.012350921
91	0xbccf0550	-0.025271088
92	0xbce670ae	-0.028129902
93	0x3c375c40	0.011191428
94	0x3c54aa84	0.012980107
95	0x3c89fa82	0.016843084
96	0x3cd1dfd4	0.025619425
97	0xbcca2fda	-0.02468102
98	0xbbdf8f17	-0.0068224776
99	0xbc166662	-0.009179683
100	0xbcf4bca0	-0.0298751
101	0x3d12f068	0.0358738
102	0x3bd08554	0.00636355
103	0x3c7395d6	0.014867267
104	0x3cca070e	0.024661567
105	0xbd107996	-0.035272203
106	0xbd20a59c	-0.039220437
107	0xbd349c3e	-0.044094317
108	0xbc95ce67	-0.018286897
109	0xbd131353	-0.0359071
110	0xbc82aece	-0.015952494
111	0x3c08bbc4	0.008345548
112	0x3d3a270e	0.0454474
113	0xbcd99703	-0.026561266
114	0xb7c748fa	-2.3756631e-05
115	0x3d2aa54b	0.041661542
116	0x3d039e35	0.0321333
117	0xbd17527b	-0.036943894
118	0xbcbfd2ba	-0.023415912
119	0x3c2a45cb	0.0103926165
120	0xbc803573	-0.015650487
121	0x3afd090a	0.0019305062
122	0x3c6f21ac	0.01459543
123	0x3d14a3e2	0.036289103
124	0x3ce2947b	0.027658692
125	0xbca41420	-0.020029128
126	0xbba1eeb1	-0.0049417843
127	0xbcc1f5cb	-0.023676774
128	0xbd0d5643	-0.034506094
129	0x3d1cc83d	0.0382769
130	0xbccd86a9	-0.025088625
131	0xbb5aaeca	-0.0033368343
132	0xbd207f2f	-0.03918379
133	0xbc9f6a90	-0.019459993
134	0xbc372724	-0.011178765
135	0xbaa0638b	-0.0012236697
136	0x3cd02027	0.025405956
137	0x3ad6062c	0.0016328744
138	0x38181c41	3.6265938e-05
139	0xbc814f78	-0.015784964
140	0xbc55b994	-0.013044734
141	0x3d03258c	0.03201823
142	0x3cafaa4a	0.021443505
143	0x3c27ea92	0.010248797
144	0xbc848aaa	-0.016179401
145	0xbc435cd6	-0.011923989
146	0x3a923c00	0.0011156797
147	0x3b58225d	0.0032979466
148	0xbc0c723f	-0.00857216
149	0x3c3dcb97	0.011584184
150	0x3cc4d043	0.024025088
151	0x3bb00ad9	0.005372387
152	0xbcd6c555	-0.026217142
153	0x3c85147f	0.016245125
154	0x3d3a4679	0.045477364
155	0x3cebb5c6	0.0287732
156	0xbd306ccf	-0.043072518
157	0xbb362d50	-0.0027798004
158	0xbc195153	-0.009357768
159	0x3c88aa00	0.016682625
160	0xbd2fbf49	-0.042907033
161	0xbcd54ed2	-0.026038561
162	0xbca13534	-0.01967869
163	0xbbe312bc	-0.0069297235
164	0xbc41f7d6	-0.011838874
165	0x3c0f9231	0.008762882
166	0x3cd3a398	0.025834844
167	0x3ce83f32	0.028350446
168	0x3d13e1c8	0.036103994
169	0x3d28ebc3	0.041240465
170	0xbd398df8	-0.045301408
171	0xbcd1a2f2	-0.025590394
172	0x3c6e7291	0.014553682
173	0x3c965256	0.018349808
174	0x3c14833e	0.009064494
175	0xbc85a0cb	-0.016312024
176	0x3b245d13	0.002507989
177	0x3cb15ca6	0.021650624
178	0xbbaab795	-0.005209873
179	0x3c681213	0.0141644655
180	0xbba6e118	-0.0050927512
181	0xbcd16ebb	-0.025565496
182	0x3cb27f36	0.021789175
183	0xbc9fcc33	-0.01950655
184	0x3d10d41e	0.03535854
185	0x3ce55a39	0.027997123
186	0xbbb40d78	-0.0054947697
187	0xbd236e3c	-0.03990005
188	0x3cd0857a	0.025454272
189	0x3bbc5eda	0.005748612
190	0xbb04efdd	-0.0020284571
191	0x3ca34a92	0.019933019
192	0xbd0ffca8	-0.03515306
193	0x3c8b86fa	0.017032135
194	0xbcef15c2	-0.02918518
195	0xbd4da5d7	-0.050206985
196	0x3c07da14	0.00829174
197	0x3b0b5b17	0.002126401
198	0xbd4ad058	-0.0495151
199	0xbcf4bc0f	-0.02987483
200	0x3cb6962a	0.0222884
201	0xbd0e98bb	-0.034813624
202	0x3c7423fb	0.014901157
203	0x3bc92280	0.006138146
204	0x3a929a0e	0.0011184828
205	0xbc9dbc06	-0.019254696
206	0xbbafd209	-0.0053656143
207	0x3c48e2d0	0.012261108
208	0x3b1f77f4	0.0024332972
209	0x3cbc3052	0.02297226
210	0x3c92f6a0	0.017939866
211	0xbd2d8407	-0.04236224
212	0xbd15de0c	-0.036588714
213	0xbba8cb6f	-0.0051512043
214	0xbc257764	-0.010099266
215	0x3b891a02	0.0041840086
216	0xbc5f2777	-0.013620249
217	0x3b3f8c80	0.0029228032
218	0x3c6944e2	0.014237614
219	0xbc77da57	-0.01512774
220	0xbc2ec4ac	-0.010667007
221	0xbbd88d40	-0.006608635
222	0xbc256c0c	-0.010096561
223	0xbcf3e306	-0.02977134
224	0x3c1ccbd4	0.009570081
225	0xbd2cfcb1	-0.042233173
226	0x3c171ad6	0.009222707
227	0xbc94edd1	-0.018179806
228	0xbb539a27	-0.0032287927
229	0xbbf5447f	-0.007484972
230	0xbcc72c28	-0.024313048
231	0xbd76b657	-0.060232487
232	0xbca14c43	-0.019689685
233	0xbd696824	-0.056984082
234	0xbc15b373	-0.009137022
235	0xbc9e94f1	-0.01935813
236	0x3bac2c55	0.005254308
237	0x3c1af6e6	0.009458279
238	0x3bdddc9d	0.006770684
239	0xbd395fa1	-0.045257214
240	0xbcd7ed5f	-0.026358305
241	0x3ca9b735	0.020717243
242	0x3c74fbd0	0.014952615
243	0x3c958e4d	0.01825633
244	0x3d0fd9e4	0.035119906
245	0xbcfad80b	-0.030620595
246	0xbc3c4646	-0.011491364
247	0xbc9ccf30	-0.019141763
248	0xbcacdd15	-0.021101514
249	0xbd3c2e68	-0.045942694
250	0x3c8238b3	0.015896177
251	0xbba29740	-0.004961878
252	0xbb9dfdef	-0.004821531
253	0x3b988923	0.00465502
254	0x3c833776	0.016017657
255	0x3a18d764	0.00058304355

arith.constant10 f4 [3, 3, 3, 32, 64]
0	0xbc06ec04	-0.008234981
1	0x3bf7afb5	0.0075587877
2	0xbd3fa087	-0.04678395
3	0x3c631186	0.013859158
4	0x3cb7758e	0.022394922
5	0xbd0b9cff	-0.03408527
6	0xbcae6207	-0.021286977
7	0xbd3af008	-0.045639068
8	0xbbedab26	-0.0072530685
9	0xbd19d1ff	-0.037553784
10	0xbce90169	-0.028443055
11	0x3bc9877b	0.0061501837
12	0x3c202ec4	0.009776775
13	0xbc45b26c	-0.012066465
14	0xbb4671e8	-0.0030280296
15	0x3b569292	0.0032741171
16	0xbb5fc2ae	-0.0034143138
17	0xbcdbaa5a	-0.026814628
18	0x3b5d78c4	0.0033793906
19	0xbd40bd0e	-0.047055297
20	0x3ca3592a	0.019939978
21	0xbc10e784	-0.00884426
22	0x3ce01478	0.02735351
23	0x3cc17f30	0.023620218
24	0xbcfdfd03	-0.031004434
25	0x3c9b8d67	0.018988324
26	0x3d4fa49a	0.050694086
27	0x3d1fcf55	0.039016087
28	0xbbfd4f6c	-0.007730415
29	0x3cd057d3	0.025432503
30	0xbd1739fc	-0.036920533
31	0xbc87e3c3	-0.016588097
32	0x3d166825	0.036720414
33	0x3cf0b355	0.029382387
34	0xbae11a56	-0.0017173986
35	0x3d0210d1	0.03175432
36	0x3c2e21fd	0.010628221
37	0x3cdbd84a	0.026836533
38	0x3c8ee723	0.017444199
39	0x3ad0c437	0.0015927617
40	0xbd4fb4f4	-0.05070968
41	0x3cd604e6	0.026125383
42	0x3cee998d	0.029125953
43	0xbd42b958	-0.04754004
44	0x3cd2cb03	0.02573157
45	0x3d305bf8	0.04305646
46	0x3c32cd69	0.010913231
47	0x3bded7a7	0.00680061
48	0xbd5ff3fd	-0.054676045
49	0xbcaa8268	-0.020814136
50	0x3b8f1b9e	0.004367306
51	0xbc9b5175	-0.01895974
52	0xbcb3a971	-0.021931382
53	0x3b8fffd3	0.0043945103
54	0xbd1b4c81	-0.037914757
55	0x3d1b7ffe	0.03796386
56	0x3d30476e	0.04303687
57	0xbbff1d52	-0.0077854777
58	0x3be351c2	0.0069372365
59	0x3b36f733	0.0027918338
60	0x3aa5eec4	0.0012659659
61	0xb944309c	-0.00018710125
62	0xbcdfaf37	-0.027305229
63	0xbd25cf22	-0.04048074
64	0x3c9f97ad	0.019481504
65	0xbc884890	-0.016636163
66	0xbc585e17	-0.0132060265
67	0x3c95f972	0.018307421
68	0x3c196106	0.009361511
69	0xbccb1064	-0.02478809
70	0xbd438fa2	-0.0477444
71	0xbcd6b80d	-0.02621081
72	0xbd3a4a1f	-0.045480844
73	0x3b305cf9	0.0026910885
74	0x3cd619d1	0.026135357
75	0xbba80408	-0.0051274337
76	0x3d4f433d	0.050601233
77	0xbd5d9919	-0.054101083
78	0x3c56572f	0.01308231
79	0x3c493b49	0.012282201
80	0x3cb42b01	0.021993162
81	0x3d29a130	0.041413486
82	0xbcbb700c	-0.022880577
83	0xbd246c48	-0.040142328
84	0xbb9b203a	-0.0047340663
85	0x3d3b532e	0.045733623
86	0x3d800428	0.06250793
87	0x3cc2c3e8	0.023775056
88	0x3c886d45	0.016653666
89	0xbca759ae	-0.020428505
90	0x3c539842	0.012914719
91	0x3c88a502	0.016680244
92	0x3b91d523	0.0044504567
93	0x3d46d939	0.048547003
94	0xbcb161ba	-0.021653045
95	0xbd2e227b	-0.042513352
96	0x3d1421e7	0.036165144
97	0x3ac6f7a7	0.0015180007
98	0x3aca03f5	0.0015412556
99	0xbcf4d585	-0.02988697
100	0x3d225574	0.039632276
101	0xbd41de63	-0.047331225
102	0xbcca7f00	-0.024718761
103	0x3cd43aac	0.025906883
104	0x3c683b41	0.0141742835
105	0xbc542bf8	-0.012949936
106	0x39a65dfe	0.00031732017
107	0xbd5538cb	-0.052056115
108	0xbb112dcd	-0.0022152544
109	0x3d437374	0.047717527
110	0xbccb633a	-0.024827588
111	0x3ca0f340	0.01964724
112	0xbd475480	-0.04866457
113	0xbd574dfc	-0.052564606
114	0xbc7c5753	-0.015401679
115	0xbcd3060d	-0.025759721
116	0xbd2f62c5	-0.042818803
117	0xbd43f1f3	-0.047838163
118	0x3cd85a06	0.026410114
119	0xbab6377c	-0.0013902034
120	0x3cd90bab	0.026494822
121	0xbc99652e	-0.018725004
122	0xbbccbd95	-0.006248186
123	0x3a15b199	0.0005710363
124	0xbcd05e17	-0.02543549
125	0x3cbb2fb4	0.022849895
126	0x3aa6d7ac	0.001272907
127	0x3c37cad4	0.011217792
128	0xbcf2bcf6	-0.02963112
129	0xbd55de1f	-0.052213784
130	0x3c955dd0	0.01823321
131	0xbcc01b2a	-0.023450453
132	0x3d1d6b72	0.038432546
133	0x3cecbc71	0.02889845
134	0x3d177a38	0.03698179
135	0xbc9f85d1	-0.019472988
136	0x3d377b30	0.044795215
137	0xbd217c4f	-0.03942519
138	0x3cd07961	0.025448503
139	0xbd0c46f8	-0.03424737
140	0xbd34719b	-0.044053655
141	0xbcda00ea	-0.026611764
142	0xbb710210	-0.003677491
143	0x3d2e6aed	0.04258244
144	0x3d3f6891	0.04673058
145	0x3d4a6164	0.049409285
146	0x3c04d0a3	0.0081063835
147	0xbc39d661	-0.011342616
148	0x3d2563eb	0.040378492
149	0xbcd96d74	-0.02654145
150	0x3c356116	0.01107051
151	0x3d6c2150	0.057648957
152	0xbd15b012	-0.036544867
153	0x3d28a575	0.041173417
154	0x3d2d9b3e	0.04238438
155	0x3d085569	0.03328458
156	0x3c4ad398	0.012379549
157	0xbb9aa3ce	-0.004719234
158	0xbc68fc8c	-0.014220368
159	0x3cabcf91	0.020972999
160	0x3cbc280f	0.02296832
161	0xbb822b41	-0.0039724414
162	0xbca10586	-0.019655954
163	0x3d27a2d0	0.040926754
164	0xbc66d16a	-0.014088014
165	0xbd4375bd	-0.047719706
166	0x3cfc544b	0.030801913
167	0xbc06be0c	-0.008224022
168	0xbd2a6bb1	-0.04160661
169	0xbcef7cc3	-0.029234296
170	0xbd1692ac	-0.03676097
171	0xbca43e18	-0.02004914
172	0xbccb72f7	-0.024835093
173	0xbd12ac61	-0.035808925
174	0xbd091e5f	-0.03347623
175	0xbd39cd0b	-0.04536156
176	0x3c9d4ffd	0.01920318
177	0x3d1cb15d	0.038255084
178	0x3cfe6a3e	0.03105652
179	0xbcbbbf2c	-0.022918306
180	0xbcd59867	-0.026073648
181	0xbb08ef00	-0.0020894408
182	0xbbfe5491	-0.007761546
183	0xbc994c58	-0.018713161
184	0x3d6fc0bd	0.05853342
185	0x3cc4f7b4	0.024043895
186	0x3c63966a	0.013890842
187	0xbd000ac6	-0.031260274
188	0x3d0939ed	0.033502508
189	0x3bf2028a	0.0073855566
190	0x3c08ff78	0.00836169
191	0xbc1d6b9a	-0.009608174
192	0x3bccdac2	0.006251664
193	0xbd03abfb	-0.032146435
194	0x3d044257	0.03228983
195	0x3cde44ce	0.027132418
196	0x3ca08f3a	0.019599546
197	0x3b940bcb	0.0045180074
198	0xbc2f492b	-0.010698597
199	0xbd371a09	-0.044702563
200	0xbcba87dd	-0.022769863
201	0xbc9e79a2	-0.019345108
202	0x3ce0ee3f	0.027457355
203	0x3cfc80ea	0.03082319
204	0x3c86bfed	0.01644894
205	0x3c9c6a9b	0.019093802
206	0xbd3963c5	-0.045261163
207	0x3d500677	0.050787415
208	0x3d2a3918	0.041558355
209	0x3c8c235e	0.017106708
210	0xbc0f6427	-0.0087519055
211	0x3c5f35df	0.013623684
212	0x3d001238	0.031267375
213	0x3c6b36b8	0.014356308
214	0xbc90b357	-0.01766364
215	0x3d32a92c	0.043618366
216	0xba7c1fe4	-0.0009617789
217	0x3c6a746e	0.014309986
218	0xbc929ae0	-0.017896116
219	0x3ca4d4b5	0.020120958
220	0xbd1d79ee	-0.03844636
221	0xbc619e19	-0.013770604
222	0xbd4496ba	-0.047995307
223	0xbcd1e29d	-0.025620753
224	0xbd0c4314	-0.03424366
225	0x3cf82843	0.030292636
226	0x3cf7f572	0.030268405
227	0x3d080510	0.033207953
228	0xbbe301d7	-0.0069277096
229	0xbd03f13e	-0.03221249
230	0xbc8f335f	-0.01748055
231	0x3d182f01	0.0371542
232	0x3bee1a92	0.007266351
233	0x3cbabefc	0.022796147
234	0xbc8ae531	-0.01695499
235	0xbd0ad76e	-0.033896856
236	0xbc2f6d94	-0.010707278
237	0xbccec20e	-0.025239017
238	0x3b3cdcb0	0.0028818063
239	0xbc614fd0	-0.013751939
240	0xbb1efd0a	-0.002425971
241	0x3d4ae749	0.049536977
242	0xbd1b0178	-0.037843198
243	0x3d0c9f3b	0.03433154
244	0x3cea6732	0.02861366
245	0x3bee3698	0.0072696917
246	0x3d12edd2	0.035871334
247	0xbccb4bd9	-0.02481644
248	0xbbe48b83	-0.006974639
249	0x3c8ee981	0.017445328
250	0xbcaaa6e8	-0.02083154
251	0x3a64d861	0.0008729753
252	0x3d0d4e7d	0.03449868
253	0xbc61fb80	-0.013792872
254	0x3c992590	0.018694669
255	0xbd0cf38e	-0.03441196

arith.constant11 f4 [3, 3, 3, 3, 16]
0	0x3cd74e0d	0.026282335
1	0xbd166d35	-0.03672524
2	0xbdb89e0b	-0.09014519
3	0xbdb544e5	-0.08851031
4	0xbdd68dde	-0.10476278
5	0x3daade9e	0.08343242
6	0x3dae1932	0.085008994
7	0xbd81f69c	-0.06345865
8	0x3c2f1c28	0.010687865
9	0xbd61afd1	-0.055099312
10	0xbceba78b	-0.028766414
11	0x3d4cc8af	0.049996074
12	0xbcfe95a0	-0.031077206
13	0x3da454da	0.08023997
14	0xbd851ada	-0.06499262
15	0x3c60215a	0.013679827
16	0x3d553e88	0.052061588
17	0x3c308782	0.010774495
18	0x3d6b2a4d	0.057413388
19	0xbd991540	-0.07474756
20	0xbd51e714	-0.051245764
21	0xbca57657	-0.02019803
22	0xbd16ef3a	-0.036849238
23	0xbd0a5802	-0.033775337
24	0xbd2f5c37	-0.042812552
25	0x3c385e48	0.011252947
26	0xbdb62d31	-0.08895338
27	0x3cc9241c	0.024553351
28	0x3d7761c2	0.060395963
29	0x3a8f9d6c	0.001095695
30	0xbd81a169	-0.06329615
31	0xbd3a2d41	-0.045453314
32	0x3d888f3f	0.06667947
33	0x3d421992	0.047387667
34	0xbd7da1f1	-0.061922017
35	0xbd63ba81	-0.055597786
36	0xbdd6708e	-0.10470687
37	0x3bb60fde	0.0055560907
38	0xbdbe1305	-0.092809714
39	0x3d92054f	0.07129919
40	0xbdcdf672	-0.10056771
41	0x3dcd2b6a	0.10018046
42	0x3d23086d	0.039802957
43	0xbd92b0aa	-0.07162602
44	0xbdb233a6	-0.087012574
45	0xbd0ef37e	-0.03490018
46	0xbdcfdf9c	-0.10150072
47	0xbde03549	-0.10947663
48	0xbd95c5d8	-0.07313126
49	0xbd3f5088	-0.04670766
50	0xbd46a73d	-0.048499335
51	0x3cb85639	0.022502052
52	0xbc53b41a	-0.0129213575
53	0x3dbf89f1	0.09352482
54	0x3cf09826	0.029369425
55	0x3ceb5297	0.028725905
56	0x3c66cd1c	0.014086988
57	0xbd770056	-0.060303055
58	0x3d8141d9	0.063113876
59	0x3d98de95	0.07464329
60	0x3d47e982	0.048806675
61	0x3bc7d64a	0.0060985433
62	0xbd9a11b6	-0.07522909
63	0x3d7adfda	0.061248638
64	0xbc88b00b	-0.016685506
65	0xbde8041c	-0.11328909
66	0xbda47bbe	-0.080314144
67	0xbcb19096	-0.02167539
68	0xbd3dfc84	-0.046383396
69	0xbd9566a4	-0.07294968
70	0xbdf3535e	-0.118811354
71	0xbdc6e37f	-0.0971136
72	0xbcc1d2ae	-0.02366003
73	0xbcd9c25d	-0.026581937
74	0xbdce5a24	-0.10075787
75	0x3d949f1c	0.0725691
76	0xbdb6ca34	-0.08925286
77	0x3d06c3c2	0.032901533
78	0x3da508cb	0.08058318
79	0xbcc443d4	-0.023958124
80	0xbc143e47	-0.009048051
81	0x3daee139	0.085390516
82	0x3c5cbb25	0.013472353
83	0x3d64ea6b	0.05588762
84	0x3d11f1e5	0.03563108
85	0x3d8ba70e	0.068189725
86	0x3d9ee96a	0.07759364
87	0xbdcaa69a	-0.09895058
88	0x3da7c07f	0.081910126
89	0xbdc62801	-0.09675599
90	0x3d8b6de5	0.0680807
91	0x3d1200d3	0.035645317
92	0x3d22f9b8	0.03978893
93	0xbdc0f7f3	-0.094222926
94	0x3da941ea	0.08264525
95	0xbca50682	-0.020144705
96	0xbdd17cf9	-0.10228915
97	0xbd7f9094	-0.06239374
98	0xbd226441	-0.03964639
99	0xbbc9fc26	-0.0061640916
100	0x3d8b2e4f	0.06795942
101	0xbd5b6dfd	-0.05357169
102	0x3c7bfd2b	0.015380184
103	0x3dca1a9d	0.09868357
104	0xbd234b21	-0.03986657
105	0xbd8f2e52	-0.06991257
106	0xbdf41748	-0.11918503
107	0xbd4b86e1	-0.049689177
108	0xbdcb2634	-0.09919396
109	0x3cd5679b	0.02605038
110	0xbd804ede	-0.06265043
111	0x3cf06e3f	0.029349444
112	0x3aa9181f	0.0012900865
113	0x3d498a28	0.04920402
114	0xbd86419e	-0.06555484
115	0x3da09206	0.07840352
116	0x3a7c2c80	0.0009619668
117	0x3dceef1c	0.101042
118	0xbdbe9f42	-0.0930772
119	0xbc926183	-0.017868763
120	0x3d8c7ca5	0.068597116
121	0x3dd74904	0.105119735
122	0xbd0c05c8	-0.0341852
123	0x3da02d97	0.078211956
124	0xbd3fc6c2	-0.04682041
125	0xbd86ed02	-0.065881744
126	0xbdec0041	-0.11523486
127	0xbd1d3558	-0.03838095
128	0x3c407c43	0.011748376
129	0x39b6dc9c	0.00034878112
130	0xbdc8ad6d	-0.09798703
131	0xbd88f00f	-0.066864125
132	0x3db7d9eb	0.089771114
133	0xbd96d903	-0.073656105
134	0x3c02f5a3	0.007993135
135	0x3d6e4031	0.058166686
136	0x3bafabec	0.005361071
137	0x3dccd15f	0.10000872
138	0xbdcb1dae	-0.0991777
139	0x3c5493ec	0.01297472
140	0x3b8654e8	0.004099477
141	0x3d901ecb	0.07037123
142	0x3dc83bde	0.09777044
143	0xbdce2328	-0.10065299
144	0xbdafa68f	-0.085766904
145	0xbdc151f0	-0.094394565
146	0x3bef066f	0.007294468
147	0xbde70634	-0.1128048
148	0x3dbda2dd	0.09259579
149	0xbd8a2174	-0.06744662
150	0x3d9a01b1	0.07519854
151	0xbda74632	-0.081676856
152	0xbd5f4c28	-0.054515988
153	0xbd08f93f	-0.033440825
154	0x3d623391	0.05522496
155	0xbd747dec	-0.0596904
156	0x3dd6c64d	0.104870416
157	0x3d6b305b	0.057419162
158	0xbbb0c6b7	-0.0053947824
159	0xbdae8056	-0.08520572
160	0x3dac8808	0.084243834
161	0x3dcdf6f1	0.10056866
162	0xbd19c305	-0.0375395
163	0xbd8d8564	-0.06910208
164	0xbd7733a4	-0.060351983
165	0xbd018679	-0.031622384
166	0xbcf73345	-0.030175814
167	0x3d876162	0.06610371
168	0x3d0f1ec1	0.03494144
169	0x3dcc15f9	0.099651285
170	0x3d00ca68	0.03144303
171	0x3d83a28a	0.06427486
172	0xbdd6635c	-0.1046817
173	0x3dc17888	0.09446818
174	0xbc157f54	-0.009124596
175	0x3c9b2c5e	0.018942054
176	0x3d2f23f8	0.04275891
177	0x3cdf97c0	0.02729404
178	0xbda91967	-0.08256798
179	0xbd53a2c9	-0.051668916
180	0x3d56c614	0.052434996
181	0xbd9b4529	-0.07581551
182	0xbc8e7aff	-0.017392633
183	0xbda34773	-0.07972612
184	0x3d08a933	0.033364486
185	0x3cd8c0b4	0.026459076
186	0x3dcc7447	0.09983116
187	0xbc710a53	-0.014711934
188	0x3dbbf083	0.09176733
189	0xbba0cb2c	-0.0049070325
190	0x3daf2db1	0.08553637
191	0x3db8f467	0.09030991
192	0x3d8e2242	0.06940128
193	0xbb6ce81e	-0.0036149095
194	0x3b8a1a19	0.004214537
195	0x3d1c1270	0.03810352
196	0x3d5e7318	0.05430898
197	0x3ce30224	0.027710982
198	0xbd8664ca	-0.06562193
199	0x3d8ca14b	0.06866702
200	0x3d858402	0.06519319
201	0x3ddc1eb0	0.10748041
202	0xbd8330b4	-0.06405774
203	0x3dbe3112	0.09286703
204	0x3da6d975	0.081469454
205	0xbda3bfd3	-0.07995572
206	0x3d6985f7	0.057012524
207	0xbd996aeb	-0.07491096
208	0xbdf9c67a	-0.121960595
209	0xbc7d09df	-0.015444248
210	0xbdbc0610	-0.09180844
211	0xbdcee02a	-0.1010135
212	0x3d16dfac	0.036834404
213	0xbd4c305b	-0.049850803
214	0xbcc86519	-0.02446227
215	0xbd87ab4c	-0.06624469
216	0x3db1684f	0.086624734
217	0xbdc189b0	-0.0945009
218	0xbdd44382	-0.103644386
219	0xbd1f77b7	-0.03893253
220	0xbd145cba	-0.036221243
221	0xbd90f778	-0.07078451
222	0xbd78d402	-0.06074906
223	0xbd2a7d1c	-0.04162322
224	0x3d48f62f	0.049062904
225	0xbc3fe4f2	-0.0117123
226	0x3dbad5b8	0.09122795
227	0x3d80271d	0.0625746
228	0xbb315869	-0.0027060753
229	0xbd8a012a	-0.06738503
230	0xbcef3902	-0.029201988
231	0x3cf00d81	0.029303314
232	0xbdf4c583	-0.11951735
233	0x3c516f5c	0.012782898
234	0x3daa4d35	0.08315507
235	0x3d5b24a4	0.05350174
236	0x3d959c84	0.073052436
237	0xbc6c4976	-0.014421811
238	0xbdd10179	-0.10205359
239	0x3d9e74dc	0.07737133
240	0xbc8678d4	-0.016415037
241	0xbd12cb58	-0.035838455
242	0xbdbf65dc	-0.093456
243	0x3d0f4d84	0.034986034
244	0xbdb68da3	-0.08913734
245	0x3dab2d21	0.08358217
246	0xbbf341fb	-0.007423637
247	0xbd263bc0	-0.040584326
248	0xbc49ff62	-0.012328954
249	0x3d8c2004	0.06842044
250	0xbd637dfc	-0.05554007
251	0xbd5ecfa7	-0.05439725
252	0xbb81a14a	-0.0039559947
253	0xbdc526c6	-0.09626536
254	0xbdcbf4f2	-0.09958829
255	0x3cca21bb	0.024674287

arith.constant12 f4 [3, 3, 3, 16, 32]
0	0xbcb91f2b	-0.02259787
1	0x3d2d3e31	0.04229564
2	0xbd756428	-0.05990997
3	0xbca35f32	-0.019942854
4	0xbcb96312	-0.022630248
5	0xbb70cbce	-0.003674257
6	0xbd640878	-0.05567214
7	0x3bbcdb94	0.0057634804
8	0xbd28dde0	-0.04122722
9	0xbd93e45f	-0.07221293
10	0xbce8efb3	-0.02843461
11	0x3d8426f4	0.06452742
12	0x3d26eac8	0.04075125
13	0x3d21764f	0.03941947
14	0xbd8bb843	-0.068222545
15	0x3c7beddd	0.015376535
16	0xbd434893	-0.047676634
17	0xbbcce02b	-0.006252309
18	0x3d86805d	0.06567452
19	0x3d4c06c4	0.04981114
20	0x3cde2d30	0.027121156
21	0x3c09be00	0.008407116
22	0xbccfd176	-0.025368433
23	0x3d5eb5cd	0.054372597
24	0xbc91ffd5	-0.017822186
25	0x3d00f19d	0.03148042
26	0xbc841ede	-0.016128
27	0xbb09eb23	-0.0021044693
28	0xbd227e05	-0.039670963
29	0xbcef412d	-0.029205883
30	0xbd7ad8d0	-0.061241925
31	0x3d36c39c	0.04462014
32	0xbd2dd392	-0.042438097
33	0x3cd1047f	0.02551484
34	0x3baf6c40	0.0053534806
35	0x3c0ffad5	0.00878783
36	0x3ca88c39	0.020574676
37	0x3d64306d	0.055710245
38	0xbcac60f3	-0.021042323
39	0x3d8e5d7f	0.06951427
40	0xbd8ff6ac	-0.07029471
41	0x3d4a2d49	0.049359594
42	0x3c398341	0.011322797
43	0xbd97373a	-0.073835805
44	0x3d0c61ca	0.034272946
45	0xbc22abf7	-0.009928695
46	0x3cbfda30	0.02341947
47	0x3d570a85	0.052500267
48	0xbc838f8c	-0.01605966
49	0xbd2e13f7	-0.04249951
50	0x3c97156c	0.018442832
51	0x3c9822f8	0.018571362
52	0x3cc3f739	0.023921596
53	0xbd65fdb7	-0.056150164
54	0xbcc5c864	-0.024143405
55	0x3d0e5a0b	0.03475384
56	0x3d91b562	0.07114674
57	0xbc9d87d6	-0.01922981
58	0xbd515f28	-0.05111614
59	0x3d5a3e25	0.053281922
60	0xbcdda0e8	-0.027054265
61	0xbcf8ff70	-0.03039524
62	0xbd627248	-0.05528477
63	0x3d09064b	0.033453267
64	0x3c50f171	0.012752877
65	0xbc9af280	-0.018914461
66	0xbd20975d	-0.03920685
67	0xbba5b9bc	-0.0050575417
68	0x3d848b73	0.0647191
69	0xbd2b7937	-0.041863646
70	0xbcd2abaf	-0.02571663
71	0x3d1a2847	0.037636068
72	0xba3682e5	-0.0006962254
73	0x3cdb310a	0.026756782
74	0x3d67ba98	0.056574434
75	0xbc4df950	-0.012571648
76	0xbd48cd67	-0.049024012
77	0xbd26e54a	-0.04074601
78	0x3d389eac	0.045073196
79	0xbc77871a	-0.015107894
80	0xba25e822	-0.0006328841
81	0x3ce585a0	0.028017819
82	0xbc9d9d02	-0.019239906
83	0x3cba9d01	0.022779943
84	0xbda50646	-0.08057837
85	0x3c943058	0.018089458
86	0xbbfa00bd	-0.0076294825
87	0x3ce250a9	0.027626352
88	0xbc521cfd	-0.012824294
89	0x3d89f13a	0.067354634
90	0x3b314699	0.0027050136
91	0xbd9ebf71	-0.07751358
92	0x3c9201f1	0.017823191
93	0xbcd62989	-0.026142852
94	0xbd66d791	-0.056357924
95	0x3de6924d	0.112583734
96	0x3bd3c166	0.006462264
97	0xbb45ee54	-0.003020187
98	0xbc28db9c	-0.010306265
99	0xbd9d8edd	-0.07693265
100	0x3a327d07	0.00068087917
101	0x3b5612e2	0.0032665064
102	0x3cee6bab	0.029104074
103	0xbccf46b5	-0.02530227
104	0xbd1aa999	-0.037759397
105	0x3c9e6a34	0.019337751
106	0xbd6ebe49	-0.05828694
107	0xbcc485a1	-0.0239895
108	0x3d47cbbb	0.048778277
109	0xbcf6d6ca	-0.030131716
110	0x3d02f723	0.03197397
111	0xbcccc4e6	-0.024996232
112	0x39606ae8	0.0002140213
113	0xbb89e1db	-0.0042078323
114	0xbc726648	-0.014794894
115	0x3ce942d0	0.028474241
116	0xbd8358cc	-0.06413421
117	0xbc912b9f	-0.017720995
118	0xbd8b3bd1	-0.067985184
119	0xbcfb5a16	-0.030682605
120	0x3d742a2e	0.05961054
121	0x3d54159b	0.051778417
122	0xbcf1dc32	-0.029523943
123	0xbc8e48ad	-0.017368639
124	0x3b2f3276	0.0026732958
125	0xbc6c6d66	-0.0144303795
126	0x3cc17764	0.0236165
127	0x3d169090	0.03675896
128	0xbd8dd7b8	-0.06925911
129	0xbd5178e3	-0.051140677
130	0x3c91a268	0.017777637
131	0x3d1302e3	0.035891425
132	0x3a97fbea	0.0011595462
133	0xbd6abf75	-0.057311494
134	0x3cb8b247	0.022545947
135	0x3cf4440a	0.0298176
136	0xbd7bc100	-0.061463356
137	0x3d15f0bf	0.036606546
138	0x3bac7346	0.005262765
139	0x3d6dd35e	0.058062904
140	0x3d4cd604	0.05000879
141	0x3d06c16a	0.032899298
142	0x3ce1fea3	0.02758724
143	0x3d8ea338	0.06964725
144	0x3d02c38a	0.03192476
145	0xbd37a7f8	-0.04483792
146	0x3d94bea1	0.07262922
147	0x3cb738be	0.022365924
148	0xbcf1e7db	-0.029529503
149	0xbb954b16	-0.00455607
150	0x3d03a9cb	0.03214435
151	0xbcccdbe5	-0.025007198
152	0x3d0c4af9	0.034251187
153	0xbc6b656e	-0.014367444
154	0xbd2a8568	-0.041631132
155	0xbc80d1c2	-0.01572502
156	0xbba2ba40	-0.0049660504
157	0x3d8f81d9	0.07007188
158	0x3bd90d09	0.0066238684
159	0xbc85e6ab	-0.016345343
160	0xbaa5f1a0	-0.0012660511
161	0xbd1e79f1	-0.03869051
162	0xbcad81b4	-0.021180011
163	0x3cd303f7	0.025758727
164	0xbcea13d4	-0.028573908
165	0x3d07271c	0.032996282
166	0x3d3110a7	0.04322877
167	0x3d5e0780	0.05420637
168	0xbc0c74c9	-0.008572766
169	0xbd0cf487	-0.034412887
170	0xbd04901f	-0.032364007
171	0xbce6aad5	-0.028157631
172	0xbd766108	-0.06015113
173	0x3d4f6641	0.050634626
174	0x3d67a36f	0.056552347
175	0x3ca6a5df	0.020342765
176	0x3d6e80f4	0.058228448
177	0xbd3c541f	-0.04597866
178	0x3d8524e5	0.06501178
179	0x3ccf6ae5	0.025319526
180	0x3d3a4419	0.0454751
181	0xbd905672	-0.07047738
182	0xbcb1cfba	-0.021705497
183	0x3d0a7ea2	0.033812173
184	0x3d70ad86	0.058759235
185	0x3d0a86a2	0.033819802
186	0x3d75b05c	0.059982643
187	0x3c4c65a1	0.012475402
188	0x3d8aa542	0.06769802
189	0xbdade1ac	-0.08490309
190	0x3d65dae8	0.05611697
191	0xbd61184a	-0.054954804
192	0xbd13db9e	-0.036098115
193	0xbd75ba20	-0.059991956
194	0x3cbf8dff	0.023383139
195	0x3d44ad57	0.048016872
196	0xb92ebcd6	-0.0001666428
197	0x3d5c8c2d	0.05384462
198	0x3d29014e	0.04126101
199	0x3d1b3c17	0.037899103
200	0x3c82bdaf	0.015959589
201	0x3d5d37cc	0.05400829
202	0xbcd54413	-0.026033437
203	0xbd4218ff	-0.04738712
204	0x3bc5c682	0.006035627
205	0xbb006a18	-0.0019594487
206	0xbbd2359b	-0.0064150817
207	0x3cba5709	0.02274658
208	0xbc2e9b0a	-0.010657081
209	0xbbf19919	-0.007372987
210	0x3ce22351	0.02760473
211	0xbc624bb1	-0.013811992
212	0xbd3c2520	-0.045933843
213	0xbc96959a	-0.018381882
214	0x3ce1d9fe	0.027569767
215	0x3b1a86ab	0.0023578804
216	0xbbe7960f	-0.007067449
217	0x3c9be90b	0.019032022
218	0xbc5aafb3	-0.013347554
219	0x3c0bc166	0.0085299965
220	0x3c762b47	0.015024967
221	0x3c1e6c2d	0.009669346
222	0x3d3fea22	0.046854146
223	0xbd536c07	-0.051616695
224	0xbd2a72f4	-0.041613534
225	0x3d7dbb82	0.0619464
226	0x3ca5c446	0.020235192
227	0xbca04de0	-0.019568384
228	0xba877a05	-0.0010336047
229	0x3bb6145b	0.005556626
230	0xbc82c1dc	-0.01596158
231	0x3c7d205e	0.0154496115
232	0xbd3fdf20	-0.046843648
233	0xbd5d7221	-0.05406392
234	0x3d1aa698	0.037756532
235	0x3d2911ad	0.041276623
236	0x3c3b2dc6	0.011424487
237	0x3d57856d	0.05261748
238	0xbb91f460	-0.0044541806
239	0xbaf44924	-0.001863752
240	0xbbaeb0c5	-0.005331131
241	0xbc5bd463	-0.013417336
242	0x3d9210b7	0.07132094
243	0x3d7b8691	0.06140763
244	0xbd2d4b29	-0.042308006
245	0x3baa7422	0.0052018324
246	0x3cc0442a	0.023470003
247	0xbd1cc53e	-0.038274042
248	0x3d2645ad	0.04059379
249	0x3c0cdf9c	0.0085982345
250	0x3d1f4469	0.0388836
251	0x3cc4ec9d	0.024038607
252	0x3c3e923c	0.011631545
253	0xbcdaa8ae	-0.02669176
254	0x3d1d0a75	0.03834005
255	0x3d7d6c49	0.061870847

arith.constant26 f4 [128, 64]
0	0xbe0bb7e5	-0.13644369
1	0xbe1170e7	-0.14203225
2	0x3d764c5b	0.060131412
3	0xbd3a441c	-0.04547511
4	0xb949e3ec	-0.00019253761
5	0xbe1e03d8	-0.15431154
6	0xbb186625	-0.0023254242
7	0x3cc620b5	0.024185518
8	0xbe154b2a	-0.14579454
9	0xbe1d498f	-0.15360092
10	0xbd0b9ad1	-0.03408319
11	0xbe152192	-0.14563587
12	0xbe0a7908	-0.13522732
13	0x3d8cafe0	0.06869483
14	0xbe16e6e6	-0.14736518
15	0xbcf450f4	-0.029823758
16	0xbdc499cd	-0.09599648
17	0xbd37a787	-0.0448375
18	0xbdb42129	-0.08795387
19	0xbe2a9f1c	-0.16662258
20	0x3df7d360	0.121008635
21	0x3dede64f	0.116161935
22	0xbdfd8296	-0.12378423
23	0x3d912559	0.070872016
24	0xbcb71b4d	-0.022351885
25	0x3b8c918e	0.0042898124
26	0x3dd8af79	0.10580344
27	0x3d5e6ad0	0.054301083
28	0xbd9d9061	-0.07693554
29	0xbdd9fb8a	-0.106436804
30	0x3e2bd985	0.16782196
31	0x3d5e6da5	0.054303784
32	0xbe08d4cc	-0.13362426
33	0x3e1fa9c2	0.15592101
34	0x3d5f8d86	0.054578327
35	0xbe09a6b1	-0.13442494
36	0xbd8fc9f3	-0.07020941
37	0x3d9e44eb	0.07727989
38	0xbc6a748c	-0.0143100135
39	0xbe3550e6	-0.17706642
40	0xbda9f03b	-0.082977735
41	0xbe29986e	-0.16562054
42	0x3e1a7e66	0.1508728
43	0xbe09cffc	-0.13458246
44	0xbd9296d2	-0.07157673
45	0xbe166b79	-0.14689435
46	0x3e1b61cc	0.15174025
47	0xbc8217bf	-0.015880464
48	0xbceb9613	-0.028758084
49	0x3b887648	0.004164491
50	0x3cf686e5	0.03009362
51	0xbd136223	-0.035982262
52	0x3e365d41	0.17809011
53	0x3c8bccab	0.017065367
54	0xbcbe4b02	-0.023229126
55	0x3c17dc9e	0.009268908
56	0x3dab5475	0.08365718
57	0xbdafdbb3	-0.08586826
58	0x3d9b2881	0.07576085
59	0x3dcba21c	0.09943029
60	0xbce74fd7	-0.028236313
61	0xbb8772fe	-0.004133581
62	0x3d90aaf2	0.07063855
63	0x3bb20790	0.0054330304
64	0x3e246cc8	0.16057122
65	0x3dfe83c8	0.12427479
66	0xbd163434	-0.03667088
67	0xbde5ff0d	-0.11230288
68	0x3de2abba	0.110679105
69	0xbd136f7b	-0.035994988
70	0x3dcf4b86	0.10121827
71	0x3c8cecc1	0.017202737
72	0x3e1775b3	0.14790992
73	0x3bdcbcab	0.006736358
74	0xbd24c934	-0.040230945
75	0x3d745cef	0.05965894
76	0xbd31441a	-0.043277837
77	0x3dfab053	0.122406624
78	0xbd81ffc8	-0.063476145
79	0x3d30d589	0.043172393
80	0x3d88f207	0.06686788
81	0x3bfb9f62	0.007678912
82	0x3d1d1498	0.038349718
83	0x3e209943	0.15683465
84	0xbdbb5d0b	-0.09148606
85	0x3c2704d4	0.010194022
86	0xbdf7f3c5	-0.12107042
87	0x3a5fd35f	0.00085382716
88	0xbe3514d2	-0.17683724
89	0xbd755862	-0.05989874
90	0xbe2bd9fc	-0.16782373
91	0xbdaad0c3	-0.083405994
92	0x3ddff213	0.10934844
93	0xbc7b0575	-0.015321125
94	0x3d6cec61	0.057842616
95	0xbdd4f659	-0.103985496
96	0x3d47cee2	0.048781283
97	0xbb05e9b6	-0.0020433492
98	0xbda440cf	-0.08020174
99	0xbe0135f8	-0.12618244
100	0xbdbd20f7	-0.09234803
101	0x3d10282f	0.035194572
102	0x3e196e87	0.14983569
103	0xbe2a0562	-0.16603616
104	0xbe0d7b80	-0.13816643
105	0x3dbef19e	0.093234286
106	0x3dea82a0	0.11450696
107	0xbce41360	-0.02784127
108	0xbdc5eb8f	-0.0966407
109	0xbdbad4ef	-0.09122645
110	0xbdd06ffc	-0.10177609
111	0x3c9cdafc	0.019147389
112	0xbe01824b	-0.12647359
113	0x3d5ca7ea	0.053871073
114	0x3e0b84a1	0.13624813
115	0xbe371792	-0.17880085
116	0xbd42153a	-0.047383524
117	0x3de2e2c6	0.1107841
118	0xbe3808ca	-0.17972103
119	0x3a364e0f	0.00069543807
120	0x3e0a24d8	0.13490617
121	0xbe376fb5	-0.17913707
122	0x3e2b414e	0.1672413
123	0x3d0f71c3	0.0350206
124	0xbdc99326	-0.098425195
125	0xbde310ed	-0.11087213
126	0xbd77249f	-0.06033766
127	0xbe0f97f3	-0.14022808
128	0xbddcf501	-0.10788918
129	0x3db40313	0.08789649
130	0xbc14fe00	-0.009093761
131	0xbb200369	-0.0024416095
132	0x3db95058	0.090485275
133	0x3e1dd34c	0.15412635
134	0xbb8d02ac	-0.004303297
135	0xbe21b806	-0.15792856
136	0x3de97ebc	0.11401126
137	0xbd9f90bd	-0.077912785
138	0xbe0c113f	-0.13678454
139	0xbd27acb5	-0.04093619
140	0x3dcfb310	0.10141575
141	0xbd8e9c59	-0.06963415
142	0xbb6c4243	-0.0036050237
143	0x3d95efdd	0.07321141
144	0x3d3c4bcd	0.045970727
145	0x3e14e990	0.14542222
146	0x3dba074e	0.090834245
147	0x3e35afc9	0.17742838
148	0x3d76bfd3	0.06024153
149	0xbe2644ea	-0.16237226
150	0xbe134549	-0.14381899
151	0x3e0d645e	0.13807818
152	0xbe252583	-0.16127591
153	0xbdcb867a	-0.09937759
154	0xbe03e02a	-0.1287848
155	0x3e11d695	0.14242013
156	0x3d8fc87d	0.07020662
157	0x3d8e86b5	0.06959287
158	0xbcf8fb31	-0.030393215
159	0xbc27dfaa	-0.010246197
160	0x3da3948d	0.07987318
161	0x3df24ae3	0.1183069
162	0x3c9d04f5	0.019167403
163	0xbdd6de8c	-0.10491666
164	0x3d7abe14	0.06121643
165	0xbe2100b8	-0.1572293
166	0xbdca2323	-0.09869983
167	0xbccd45d0	-0.025057703
168	0x3e1f5601	0.15560152
169	0x3be940ed	0.0071183355
170	0xbd268bf5	-0.040660817
171	0xbb90d278	-0.004419621
172	0x3e1b115d	0.15143342
173	0x3d594340	0.05304265
174	0xbe0d5f78	-0.1380595
175	0x3ce8c7ce	0.028415587
176	0x3de15f1c	0.11004469
177	0xbdb528c2	-0.088456646
178	0xbe105786	-0.14095888
179	0xbda0c793	-0.07850566
180	0xbd6bd5b0	-0.057576835
181	0x3c99c736	0.018771749
182	0x3e35a3ef	0.17738317
183	0x3e081a35	0.13291247
184	0x3ce95f7b	0.028487911
185	0xbc023ca5	-0.007949029
186	0xbe2a49ab	-0.16629665
187	0x3daa4728	0.08314353
188	0x3e3432c0	0.17597485
189	0x3a5ee9a2	0.0008503442
190	0x3dba6846	0.0910192
191	0xbd8f33f8	-0.06992334
192	0x3d12ba16	0.035821997
193	0x3e35f631	0.17769696
194	0xbda01a25	-0.07817487
195	0xbca28831	-0.019840332
196	0x3d3ad917	0.04561719
197	0x3d6588c8	0.056038648
198	0x3de5d216	0.11221711
199	0x3c3e80ef	0.01162742
200	0xbe026792	-0.12734821
201	0xbd80f434	-0.06296578
202	0xbe0793f7	-0.13240038
203	0x3cddc968	0.027073577
204	0x3cc0edd3	0.023550903
205	0x3e3a0662	0.18166497
206	0x3df0061f	0.117199175
207	0x3d9ef9d3	0.07762494
208	0xbd98c261	-0.0745895
209	0xbd74c5a8	-0.059758812
210	0x3e163b4e	0.1467106
211	0xbd1cb3cc	-0.038257405
212	0x3e1aae1f	0.15105484
213	0xbd5c53bb	-0.05379079
214	0x3cfcebf0	0.030874223
215	0x3c54e346	0.012993639
216	0xbd93b205	-0.07211689
217	0x3dbbd54f	0.09171545
218	0x3e26d6d4	0.16292888
219	0xbd6a0790	-0.05713612
220	0xbbbdd7f5	-0.0057935663
221	0x3d8502ea	0.064946964
222	0xbe094b1c	-0.13407558
223	0x3c68e724	0.0142152645
224	0x3cf8822e	0.030335512
225	0x3dee82b6	0.11646025
226	0x3e0f16b0	0.13973498
227	0xbdbd8d4c	-0.09255466
228	0x3e0c1552	0.13680008
229	0x3da54f11	0.08071721
230	0x3c5e0eef	0.013553365
231	0x3d831ae0	0.064016104
232	0xbcd5f3a9	-0.026117163
233	0xbdf96cf6	-0.12178986
234	0x3c526cbc	0.012843307
235	0x3d7eee44	0.062238947
236	0xbcf6ae41	-0.030112388
237	0x3d920d05	0.071313895
238	0xbdf0ffe4	-0.11767557
239	0x3d949429	0.07254822
240	0x3e1ba4e5	0.15199621
241	0x3d317f63	0.043334376
242	0xbd3f7348	-0.0467408
243	0x39239cd4	0.00015603314
244	0xbdb21f08	-0.08697325
245	0xbcd56776	-0.02605031
246	0xbd9d9724	-0.076948434
247	0xbd4a9899	-0.049461935
248	0x3e0f3aca	0.1398727
249	0xbe1eda38	-0.15512931
250	0xbdba3d1a	-0.090936854
251	0x3c18989b	0.009313728
252	0xbe19ab75	-0.15006812
253	0xbe10bf16	-0.14135394
254	0x3cfb5dc7	0.030684365
255	0xbddc3e84	-0.107541114

arith.constant27 f4 [128, 32]
0	0xbd933363	-0.071875356
1	0xbd1eb214	-0.038744047
2	0x3daf41ba	0.08557458
3	0x3c1bf147	0.009517974
4	0xbce90935	-0.028446773
5	0xbe25762f	-0.16158365
6	0xbd4ac144	-0.04950072
7	0xbe0cc203	-0.13745885
8	0xbdb1b592	-0.0867721
9	0xbd07d388	-0.033160716
10	0xbc67b3d6	-0.014141997
11	0xbd789465	-0.060688395
12	0xbe134520	-0.14381838
13	0xbde7443f	-0.11292314
14	0x3d19f79c	0.037589654
15	0xbd738322	-0.05945123
16	0xbac5f115	-0.0015101755
17	0xbcc64d03	-0.024206644
18	0x3e0eac08	0.13932812
19	0xbd212354	-0.039340332
20	0xbe03b5f7	-0.12862383
21	0x3d8988e0	0.0671556
22	0xbd32d4fa	-0.04366014
23	0x3e03dbeb	0.12876861
24	0x3d1bd18e	0.038041644
25	0xbdad1796	-0.08451764
26	0xbda3a601	-0.07990647
27	0xbdd85b51	-0.10564292
28	0x3d2221bd	0.039582957
29	0xbcfb10b4	-0.030647613
30	0x3d149d76	0.03628298
31	0x3bd1fbe5	0.006408202
32	0xbe28a6bb	-0.16469853
33	0x3cfafa3c	0.0306369
34	0x3d036528	0.032078892
35	0x3d6e7f62	0.05822695
36	0x3d4d4a7b	0.05011986
37	0xba993a74	-0.0011690394
38	0xbe05f8db	-0.13083212
39	0x3db0f8c4	0.08641198
40	0xbc6a876a	-0.014314512
41	0xbd1821a6	-0.037141465
42	0x3d01d7d9	0.03169999
43	0x3cdd73c9	0.02703275
44	0xbd27df94	-0.040984705
45	0xbabd2cba	-0.0014432885
46	0xbd59fd47	-0.05322006
47	0xbc99bf27	-0.018767906
48	0x3d3d8338	0.046267718
49	0x3dc06cd5	0.09395758
50	0x3a2916db	0.0006450244
51	0x3c663a5e	0.014052002
52	0xbb0ade6e	-0.0021189707
53	0xbd088837	-0.03333303
54	0x3d761a54	0.060083702
55	0x3dbf3bcf	0.093375795
56	0xbdda8992	-0.10670771
57	0x3e52c6d4	0.2058366
58	0xbd5aea57	-0.05344614
59	0x3d3dc3f9	0.046329472
60	0x3db87443	0.0900655
61	0xbe136d7b	-0.14397232
62	0x3c39c91a	0.01133945
63	0x3d3c5a64	0.04598464
64	0x3e022cb5	0.12712367
65	0x3d4939af	0.049127277
66	0x3d0cf13f	0.034409758
67	0xbd5c4d14	-0.053784445
68	0x3db60156	0.088869736
69	0xbc687b30	-0.014189526
70	0x3dd41516	0.10355584
71	0xbccf7972	-0.025326464
72	0x3d206c13	0.039165568
73	0x3d656c27	0.056011345
74	0x3de0312e	0.1094688
75	0x3daf104d	0.08548031
76	0xbd018ac5	-0.03162648
77	0xbe1e4c83	-0.15458874
78	0xbc26d118	-0.010181688
79	0xbe26317c	-0.16229814
80	0x3ba1b1cc	0.004934525
81	0x3d1b4233	0.03790493
82	0xbe59547a	-0.21223632
83	0xbc543b09	-0.012953528
84	0x3d491176	0.049088918
85	0x3e2c932b	0.16853015
86	0xbdd7c620	-0.10535836
87	0xbe088a43	-0.13333993
88	0x3c967ef3	0.018371081
89	0xbccfa27b	-0.025346031
90	0xbb1313a4	-0.0022442127
91	0xbd244067	-0.04010048
92	0x3d5b030d	0.053469706
93	0x3d33d293	0.04390199
94	0x3e133d77	0.14378916
95	0x3c2315c7	0.009953923
96	0xbdf90202	-0.12158586
97	0xbcaf845e	-0.021425422
98	0xbdd9f822	-0.10643031
99	0x3ddfffd4	0.10937467
100	0xbd5a63f9	-0.053317998
101	0x3d2ca5de	0.04215037
102	0xbd1cdfd4	-0.038299397
103	0x3c6679bc	0.01406711
104	0xbdb70b05	-0.08937649
105	0xbda45c49	-0.080254145
106	0x3e39fa54	0.18161899
107	0xbe0dc942	-0.13846305
108	0xbe1344c1	-0.14381696
109	0xbc124553	-0.008927661
110	0xba8b2560	-0.0010615997
111	0x3dc53aab	0.09630331
112	0x3c635307	0.013874776
113	0xbdc7eef4	-0.097623736
114	0x3a3de48c	0.0007243834
115	0xbd9bf544	-0.0761514
116	0x3d84854c	0.06470737
117	0xbb6d031b	-0.003616518
118	0x3e5ff5b7	0.21871077
119	0x3c086075	0.008323778
120	0xbd3bb071	-0.045822565
121	0x3def53c9	0.116859026
122	0xbd9f94b7	-0.07792037
123	0xbe5b74eb	-0.2143132
124	0x3dd5a3ff	0.104316704
125	0xbcecc062	-0.028900329
126	0x3e3045ac	0.17214078
127	0x3dc601c9	0.09668309
128	0xbd303eb8	-0.043028563
129	0x3e1e2ac5	0.15446003
130	0xbe203e8d	-0.15648861
131	0x3cafd8a9	0.021465616
132	0xbd9b40e2	-0.07580735
133	0x3d1bff4c	0.038085267
134	0x3c4f4a22	0.012651952
135	0xbded784e	-0.11595212
136	0x3bc8c2a5	0.006126719
137	0x3d9aeb23	0.0756438
138	0x3bdee15e	0.006801768
139	0xbd46dfd8	-0.048553318
140	0xbdf7f0ec	-0.12106499
141	0x3e260cd1	0.16215827
142	0xbde510f0	-0.11184871
143	0x3da57a1f	0.080799334
144	0xbcf15133	-0.029457664
145	0x3da42b3c	0.08016059
146	0xbde0a8b0	-0.109696746
147	0xbe09ef01	-0.13470079
148	0xbd2bd58f	-0.041951712
149	0xbc38a66e	-0.011270149
150	0x3d26fd2b	0.040768784
151	0xbe04722b	-0.12934177
152	0x3d1b4318	0.037905782
153	0x3d00c8ef	0.031441625
154	0x3c9538c7	0.01821555
155	0x3df48855	0.11940066
156	0xbc9c1e8a	-0.01905753
157	0x3da24109	0.07922561
158	0xbce09ad3	-0.027417576
159	0xbd220c6b	-0.039562624
160	0x3c6ef550	0.014584854
161	0x3cf535f1	0.029932948
162	0x3db39477	0.08768552
163	0x3db40aec	0.08791146
164	0xbc9717ef	-0.01844403
165	0x3e047ff6	0.12939438
166	0x3c9f86a9	0.01947339
167	0xbdbedae6	-0.09319095
168	0x3c92e986	0.017933618
169	0xbe3775e2	-0.17916062
170	0x3cd89d51	0.026442202
171	0x3d45aa6d	0.048258234
172	0xbe8f8002	-0.2802735
173	0x3bf22ce3	0.007390605
174	0xbb8ef900	-0.004363179
175	0xbdf31d03	-0.11870768
176	0x3d1e1573	0.038594674
177	0xbd646338	-0.055758685
178	0xbd026a34	-0.031839564
179	0xbcf00532	-0.029299352
180	0x3e072b83	0.13200192
181	0x3b1be926	0.002379009
182	0x3d52d19a	0.051469423
183	0xbd1839db	-0.03716455
184	0xbe38af76	-0.18035683
185	0xbd85e4ef	-0.06537806
186	0x3d55154a	0.052022256
187	0x3c0288e4	0.007967208
188	0x3d640c98	0.055676073
189	0x3dd546fa	0.10413928
190	0xbbd56f61	-0.0065135215
191	0x3d7a5649	0.061117444
192	0xbd26482e	-0.04059618
193	0xbe074b1c	-0.13212246
194	0x3da2f995	0.0795776
195	0xbd302be5	-0.04301061
196	0x3dd721ec	0.10504517
197	0xbe1ebbe5	-0.15501364
198	0x3c93e34d	0.018052721
199	0xbd31f0e3	-0.043442618
200	0x3d5d0410	0.053958952
201	0xbcedbf52	-0.029021893
202	0xbda97e85	-0.08276085
203	0xbdad2703	-0.084547065
204	0xbd665e13	-0.05624206
205	0xbdf02e5d	-0.11727593
206	0x3d720896	0.05909022
207	0x3db20902	0.08693124
208	0xbda5e4b3	-0.081002615
209	0xbd3ed621	-0.046590928
210	0xbc75d65a	-0.015004719
211	0x3dbc393f	0.09190606
212	0x3dc196dd	0.09452603
213	0xbe04008a	-0.1289083
214	0x3c99e414	0.018785514
215	0x3d312ac4	0.043253675
216	0x3d3355f8	0.043783158
217	0xbde8f5c9	-0.11375005
218	0xbda3f9f0	-0.08006656
219	0x3e10d097	0.1414207
220	0x3b150573	0.0022738844
221	0x3de62ede	0.11239408
222	0xbb83287d	-0.0040026293
223	0x3baf196f	0.005343608
224	0x3aa5a687	0.001263813
225	0xbc12a345	-0.008950059
226	0xbe2b941c	-0.16755718
227	0xbcd10517	-0.025515122
228	0xbda55da4	-0.08074501
229	0x3d3f839f	0.046756383
230	0xbde01bfa	-0.10942836
231	0x3dd61f04	0.104551345
232	0xbce7da63	-0.028302377
233	0xbddaa563	-0.10676076
234	0xbc9db987	-0.019253505
235	0xbbcb1626	-0.0061977087
236	0x3d50edb1	0.05100793
237	0xbcfbf0de	-0.030754503
238	0x3d6cb5af	0.057790454
239	0x3d97bca5	0.07409028
240	0x3d274fa5	0.04084744
241	0xbd2845fc	-0.041082367
242	0x3cc98208	0.024598137
243	0xbde5f702	-0.112287536
244	0xbdf32400	-0.11872101
245	0x3bdcfcaa	0.006743987
246	0xbccf0945	-0.025272975
247	0xbdfd8e42	-0.12380649
248	0xbcdb6538	-0.026781663
249	0xbbb024d8	-0.005375486
250	0xbd88a648	-0.06672341
251	0x3e5c1890	0.21493745
252	0xbdd7264d	-0.10505352
253	0x3bea1072	0.0071430737
254	0x3c7ed4f9	0.015553706
255	0xbd3386f7	-0.043829884
