models/anode/models/explosion_of_cnnlstm.tflite (tflite, 117816 bytes, 14 tensors)

sequential_2/dense_2/MatMul f4 [2, 32]
0.023242373 0.07524053 0.24241216 0.35199738 -0.11755725 -0.3680615 -0.17288247 0.35242644
-0.12025797 0.19866757 -0.42963848 0.37279683 -0.09536151 0.26384354 0.373508 0.12323018
-0.19804975 -0.11791654 0.26230824 -0.07769679 0.30567706 -0.30182362 0.42613024 0.14290619
-0.049355615 -0.40773723 0.09106926 -0.31580192 -0.35841522 -0.1584159 0.2557334 -0.08803893
-0.28173485 -0.17178534 -0.3974793 -0.28014225 0.3152112 -0.22496347 0.29317576 0.4104388
0.19526196 0.1914313 0.070666604 0.39884096 -0.45520702 -0.15811823 0.19148721 0.17242582
0.42109585 -0.0899694 0.40299517 -0.04197637 0.040496737 -0.28974888 -0.21146385 -0.11323244
-0.23688516 0.34641522 -0.27896693 -0.38004738 0.36896798 -0.39370626 0.31738338 -0.16335079
00000000: ca66 be3c b517 9a3d e53a 783e 0039 b43e
00000010: dbc1 f0bd 8f72 bcbe 1a08 31be 3d71 b43e
00000020: d049 f6bd 836f 4b3e 93f9 dbbe 3adf be3e
00000030: e54c c3bd 8016 873e 713c bf3e 1b60 fc3d
00000040: 8ecd 4abe 3a7e f1bd 444d 863e 7f1f 9fbd
00000050: b481 9c3e a088 9abe be2d da3e 0056 123e
00000060: 1d29 4abd efc2 d0be 8582 ba3d cab0 a1be
00000070: 3382 b7be c737 22be 7def 823e c14d b4bd
00000080: 8d3f 90be 7fe8 2fbe 6882 cbbe ce6e 8fbe
00000090: 5d63 a13e d35c 66be 221b 963e 0925 d23e
000000a0: c0f2 473e 9106 443e a7b9 903d e234 cc3e
000000b0: e510 e9be bfe9 21be 3915 443e 6590 303e
000000c0: e099 d73e e041 b8bd 6255 ce3e 6aef 2bbd
000000d0: e8df 253d f759 94be fb89 58be 69e6 e7bd
000000e0: 0692 72be 565d b13e c1d4 8ebe 9295 c2be
000000f0: 5fe9 bc3e de93 c9be 1380 a23e 6e45 27be

sequential_2/dense_2/BiasAdd/ReadVariableOp f4 [2]
-0.012001272 0.012001271
00000000: fca0 44bc fba0 443c

sequential_2/lstm_2/Read_2/ReadVariableOp f4 [128]
0.06299272 0.0032544495 0.026459247 0.017865391 -0.0034139142 0.0037759908 0.044691123 0.008353436
-0.0033961432 0.021442238 0.0075665973 -0.031084985 0.090904616 -0.0088835005 0.055491798 0.017175928
0.01285814 -0.016643308 0.004665514 -0.007284937 -0.0071776095 -0.02079324 0.020046216 0.0033852025
0.009651274 0.055235278 0.024100767 -0.0021894868 0.014776745 0.024473628 0.012309914 0.04038984
1.0164323 0.9986092 1.0093168 1.0057553 0.987288 0.9966081 1.017212 0.9984898
0.9846806 1.0172075 0.9976544 0.9724522 1.016319 0.9966153 1.0123459 1.0360993
1.0033184 0.988772 1.0016695 0.9909782 0.9849859 0.97744423 1.0083523 0.9918284
1.0117649 1.00903 1.0032287 1.0102302 0.99325556 1.0067687 1.002497 1.0401132
-0.020141322 -0.015699664 -0.014682878 -0.018767342 0.013460717 0.0006165933 0.0124454275 0.009838514
0.020264063 -0.027024586 0.018345714 -0.03275706 -0.0184857 -0.01842558 -0.010666922 0.0052258307
0.015134576 0.005236014 0.03653661 0.004653094 -0.017336473 -0.02211608 -0.016702125 -0.023588821
-0.023739979 0.014236641 -0.017837543 -0.020163462 0.018554626 -0.014148726 -0.02444367 -0.026154371
0.061478492 0.009712038 0.029137189 0.022482049 -0.006969554 -0.0006335026 0.034990944 0.005213105
-0.0048444876 0.030185575 0.011876173 -0.02603657 0.08025162 0.019045446 0.042773757 0.012806491
0.020966558 -0.014089513 0.018212533 -0.0068596234 0.0016586182 -0.0206394 0.020766726 0.004837043
0.022628548 0.0271202 0.011392523 0.0009410326 0.02525672 0.021343453 0.009055794 0.052407924
00000000: 5402 813d 9a48 553b 10c1 d83c 715a 923c
00000010: fabb 5fbb 9d76 773b 0a0e 373d dadc 083c
00000020: d491 5ebb a2a7 af3c 38f1 f73b f0a5 febc
00000030: 332c ba3d 1a8c 11bc 5e4b 633d 88b4 8c3c
00000040: f3aa 523c 8c57 88bc 2be1 983b 7bb6 eebb
00000050: 2732 ebbb 9656 aabc f637 a43c 46da 5d3b
00000060: 6120 1e3c 633e 623d f96e c53c 7e7d 0fbb
00000070: 291a 723c eb7c c83c 86af 493c d16f 253d
00000080: 741a 823f daa4 7f3f 4b31 813f 97bc 803f
00000090: e8be 7c3f b521 7f3f 0134 823f 079d 7f3f
000000a0: 0714 7c3f db33 823f 4766 7f3f a1f2 783f
000000b0: be16 823f 2e22 7f3f 8d94 813f e79e 843f
000000c0: bd6c 803f 2920 7d3f b536 803f bfb0 7d3f
000000d0: 0928 7c3f c939 7a3f b011 813f 77e8 7d3f
000000e0: 8381 813f e527 813f cc69 803f 394f 813f
000000f0: ff45 7e3f ccdd 803f d251 803f 6e22 853f
00000100: 6aff a4bc 959c 80bc 7490 70bc f8bd 99bc
00000110: 578a 5c3c e0a2 213a e8e7 4b3c b831 213c
00000120: d200 a63c aa62 ddbc c049 963c 442c 06bd
00000130: 536f 97bc 3ef1 96bc 50c4 2ebc 723d ab3b
00000140: 03f7 773c de92 ab3b 6aa7 153d fb78 983b
00000150: 3805 8ebc c82c b5bc e5d2 88bc 583d c1bc
00000160: 587a c2bc cd40 693c 0a20 92bc d82d a5bc
00000170: dfff 973c 0fd0 67bc 173e c8bc b141 d6bc
00000180: dfd0 7b3d 3d1f 1f3c 1db1 ee3c 462c b83c
00000190: db60 e4bb a411 26ba aa52 0f3d b2d2 aa3b
000001a0: 82be 9ebb bd47 f73c 4894 423c a54a d5bc
000001b0: f65a a43d 3205 9c3c 8933 2f3d 51d2 513c
000001c0: 0fc2 ab3c b3d7 66bc 7332 953c b1c6 e0bb
000001d0: fe65 d93a f613 a9bc fb1e aa3c 0f80 9e3b
000001e0: 815f b93c 2f2b de3c b4a7 3a3c a1af 763a
000001f0: 2ee7 ce3c 77d8 ae3c c15e 143c b1a9 563d

sequential_2/time_distributed_26/conv2d_8/BiasAdd/ReadVariableOp f4 [16]
-0.044108562 -0.0017518862 0.0021100356 -0.048186213 -0.000109094806 -0.0019204053 -0.0015081433 -0.023877988
-0.0016229259 -0.054789986 -0.0022273844 -0.0025366095 0.004563071 -0.0023784481 0.0027021298 0.011438765
00000000: 2eab 34bd 8c9f e5ba 8648 0a3b e85e 45bd
00000010: d4c9 e4b8 1cb6 fbba e4ac c5ba c59b c3bc
00000020: 5bb8 d4ba 776b 60bd 4ff9 11bb 3f3d 26bb
00000030: d085 953b bddf 1bbb 3716 313b a869 3b3c

sequential_2/time_distributed_29/conv2d_9/BiasAdd/ReadVariableOp f4 [32]
0.042147245 -0.01124119 -0.023941332 -0.006200622 -0.021505678 -0.008327837 -0.0026373519 0.05290415
-0.015955444 -0.004972033 -0.019812657 -0.014097592 -0.0025269468 -0.015054449 0.010742745 0.030260917
-0.016585818 -0.013724986 -0.022390297 -0.010497492 -0.010219785 -0.006068578 -0.0073078 -0.01987078
-0.012629303 -0.018573817 -0.012779134 -0.004417505 -0.02052325 -0.015130301 0.00091871026 0.0102480315
00000000: 97a2 2c3d f82c 38bc 9d20 c4bc 962e cbbb
00000010: ad2c b0bc 7b71 08bc 6cd7 2cbb 06b2 583d
00000020: feb4 82bc 70ec a2bb 274e a2bc 96f9 66bc
00000030: 229b 25bb f0a6 76bc 5702 303c bee5 f73c
00000040: fbde 87bc c4de 60bc db6b b7bc acfd 2bbc
00000050: e370 27bc ecda c6bb 4576 efbb 0cc8 a2bc
00000060: 23eb 4ebc 1e28 98bc 935f 51bc b8c0 90bb
00000070: 6020 a8bc 15e5 77bc 9ad5 703a 5ce7 273c

sequential_2/time_distributed_32/conv2d_10/BiasAdd/ReadVariableOp f4 [64]
0.00945967 -0.010263194 0.013711908 -0.0061390074 -0.019801436 -0.007438123 -0.014622874 -0.0068875654
-0.02279019 -0.014792727 -0.008493579 0.0002457056 -0.01233125 -0.0014962904 -0.011461061 0.0281482
-0.011516467 -0.007628923 -0.0064366823 0.014383183 0.0073741022 -0.010325471 0.002258765 -0.011348658
-0.0051098904 -0.015960803 -0.015777031 -0.012540612 -0.020020226 -0.0107422685 -0.009875689 0.02387759
-0.013735875 -0.009990434 0.0070976526 -0.0040886253 -0.012579065 -0.010406026 0.01898519 -0.03364818
0.01804796 -0.00643095 -0.004601752 -0.006093218 -0.0013473068 0.0032298942 0.004670622 -0.017180543
-0.004508749 0.02783867 -0.0054461868 -0.0036352596 -0.00016116301 0.05029781 -0.029140867 -0.0035853689
0.038380586 0.04201783 -0.02055595 -0.001032716 -0.008844071 -0.0106288595 -0.008793818 -0.0077186897
00000000: bbfc 1a3c f526 28bc e9a7 603c ba29 c9bb
00000010: 9f36 a2bc 80bb f3bb c794 6fbc 16b1 e1bb
00000020: 7eb2 babc 325d 72bc a728 0bbc 0cd2 8039
00000030: 0309 4abc 2d1f c4ba 2dc7 3bbc 0e97 e63c
00000040: 90af 3cbc 0bfc f9bb ceea d2bb 71a7 6b3c
00000050: 74a2 f13b 2a2c 29bc ca07 143b b9ef 39bc
00000060: de70 a7bb 3bc0 82bc d53e 81bc 2477 4dbc
00000070: 7501 a4bc 5700 30bc a4cd 21bc f09a c33c
00000080: 6f0c 61bc ebae 23bc 6d93 e83b e0f9 85bb
00000090: 6c18 4ebc 097e 2abc d486 9b3c add2 09bd
000000a0: 51d9 933c b8ba d2bb 4bca 96bb 9ea9 c7bb
000000b0: 1d98 b0ba a2ac 533b 040c 993b 36be 8cbc
000000c0: 21be 93bb ec0d e43c ed75 b2bb 893d 6ebb
000000d0: defd 28b9 1405 4e3d d4b8 eebc 82f8 6abb
000000e0: f634 1d3d e31a 2c3d f464 a8bc 335c 87ba
000000f0: b9e6 10bc ab24 2ebc f213 10bc 10ed fcbb

sequential_2/time_distributed_35/conv2d_11/BiasAdd/ReadVariableOp f4 [64]
-0.002298985 -0.0040738704 -0.0015621842 0.0016940474 -0.0077092005 -0.009402419 -0.013372146 -0.025313703
0.010943317 -0.0020773364 -0.0036983576 -0.017534522 -0.01022036 0.007779992 -0.004043901 -0.016296959
0.017115606 -0.015972573 -0.0186934 -0.009811822 -0.006729944 -0.006880924 -0.0064378474 -0.020520085
-0.0141482195 -0.019123971 -0.007469475 0.015061865 -0.0040597613 -0.012071573 -0.019477053 0.022330478
-0.01099993 -0.013629708 -0.0063664163 0.0005503082 -0.010743673 -0.023736268 0.015964067 0.014986071
-0.012960215 0.020357853 -0.00027650813 0.0019151991 -0.0085058715 -0.024226805 -0.016738487 0.006634379
-0.012162421 0.022104833 0.0035113893 -0.0128987925 -0.009756667 -0.0171664 0.0007589086 0.007033348
0.018166216 -0.0135308765 -0.007993774 -0.013455211 -0.010575415 0.011496739 -0.018405683 -0.0029701868
00000000: 91aa 16bb 1a7e 85bb 34c2 ccba cc0a de3a
00000010: 769d fcbb 9b0c 1abc d816 5bbc af5e cfbc
00000020: 994b 333c ec23 08bb 2560 72bb 8fa4 8fbc
00000030: 4c73 27bc 4eef fe3b b382 84bb 3381 85bc
00000040: 0736 8c3c ead8 82bc e722 99bc c4c1 20bc
00000050: dd86 dcbb 6079 e1bb 94f4 d2bb bd19 a8bc
00000060: efcd 67bc e0a9 9cbc 7fc2 f4bb 0ac6 763c
00000070: bf07 85bb d9c7 45bc 578e 9fbc 68ee b63c
00000080: 0d39 34bc 244f 5fbc 5f9d d0bb 8f42 103a
00000090: 3b06 30bc 9072 c2bc 13c7 823c 2388 753c
000000a0: 1557 54bc 83c5 a63c 4bf8 90b9 6b07 fb3a
000000b0: 365c 0bbc 4b77 c6bc 271f 89bc 3465 d93b
000000c0: e444 47bc 3215 b53c 561f 663b 7555 53bc
000000d0: 6dda 1fbc 8da0 8cbc 7ef1 463a 0078 e63b
000000e0: 51d1 943c 9cb0 5dbc 51f8 02bc 3f73 5cbc
000000f0: 8144 2dbc d25c 3c3c 84c7 96bc 77a7 42bb

sequential_2/time_distributed_26/conv2d_8/Conv2D f4 [16, 3, 3, 1]
0.03745629 -0.0007456569 -0.020689445 -0.019774763 -0.029696025 -0.056061596 0.12681115 -0.0005040405
0.1240869 -0.05514645 -0.049499873 0.18844445 -0.048437003 -0.07969215 0.111308396 -0.055417333
-0.10690224 0.0039322423 -0.11452579 -0.14498071 0.13567255 0.052486375 -0.06675409 -0.06358631
0.16589344 -0.15151837 0.07913358 -0.13728471 0.015664648 -0.08938355 0.0012036897 0.17726687
0.10242072 -0.015606594 0.14685228 -0.07283472 -0.14026366 0.037814394 0.13078612 0.11892392
-0.18251683 -0.19695999 0.111336105 -0.03418074 0.0414393 0.12915395 -0.058166925 -0.11474964
-0.07002299 -0.15198398 0.05343233 -0.099852785 0.15434039 -0.050598815 -0.11701288 0.14760552
-0.04247936 0.008648868 -0.1665316 0.08650271 0.043896634 -0.1061871 0.08101398 0.07231374
0.087362185 -0.027974026 -0.08772767 0.13132828 -0.08737667 0.07302764 -0.17832519 0.15277767
0.094612084 -0.010575896 -0.11291822 0.08569441 -0.037927028 -0.025009673 0.04411878 -0.20544896
0.06630873 -0.07424114 -0.00839323 0.15047069 0.15969299 0.1692002 0.056269336 -0.09542631
0.070261665 -0.027144866 0.023804802 -0.20797846 0.17127036 0.040033482 -0.06148743 0.023839159
-0.03144362 0.024759842 -0.019967506 -0.041592892 0.14660428 -0.06837606 -0.18011636 0.11647672
0.017425412 0.18352482 -0.1134825 -0.14349672 -0.1685983 -0.15181181 0.14573443 -0.06308722
0.03935047 -0.12037481 0.06743118 0.15360726 -0.0914432 -0.027231868 -0.17969902 -0.09207817
0.0068987957 0.09860871 -0.15895022 0.04385413 0.096084446 0.110280916 0.079986304 -0.16622506
-0.09354997 0.06419241 -0.09103229 -0.13605332 0.08478882 0.063756876 0.07328046 -0.14763616
0.1822729 0.004949501 0.08179338 0.0410141 -0.13143092 0.017241063 0.0011903188 -0.12746684
00000000: c46b 193d 3078 43ba e97c a9bc affe a1bc
00000010: 1445 f3bc d8a0 65bd c8da 013e 9621 04ba
00000020: 4621 fe3d 3ee1 61bd 61c0 4abd 95f7 403e
00000030: e165 46bd a335 a3bd a8f5 e33d 49fd 62bd
00000040: 90ef dabd 0ada 803b 7f8c eabd d375 14be
00000050: bfed 0a3e f4fb 563d 5eb6 88bd 8a39 82bd
00000060: f8df 293e a227 1bbe c910 a23d 5d94 0cbe
00000070: 2653 803c b90e b7bd 20c5 9d3a 7285 353e
00000080: f4c1 d13d cdb2 7fbc 7260 163e 5f2a 95bd
00000090: 47a1 0fbe 44e3 1a3d ccec 053e 628e f33d
000000a0: b1e5 3abe e1af 49be 2f04 e43d 1b01 0cbd
000000b0: 41bc 293d ef40 043e 7140 6ebd dc01 ebbd
000000c0: 3768 8fbd b0a1 1bbe dcdb 5a3d 9e7f ccbd
000000d0: 680b 1e3e b440 4fbd 73a4 efbd e725 173e
000000e0: d6fe 2dbd fbb3 0d3c 4287 2abe 5528 b13d
000000f0: f5cc 333d 9f78 d9bd a8ea a53d 3a19 943d
00000100: f2ea b23d c929 e5bc 91aa b3bd ec7a 063e
00000110: 8af2 b2bd 848f 953d e19a 36be c071 1c3e
00000120: fbc3 c13d 8646 2dbc ab41 e7bd 8d80 af3d
00000130: 5f59 1bbd 16e1 ccbc e5b5 343d 3661 52be
00000140: dfcc 873d bd0b 98bd c283 09bc fd14 1a3e
00000150: 8f86 233e d142 2d3e ad7a 663d df6e c3bd
00000160: 59e5 8f3d e95e debc 4a02 c33c 4ef8 54be
00000170: 7f61 2f3e 26fa 233d 3eda 7bbd 574a c33c
00000180: 06cb 00bd 27d5 ca3c e592 a3bc 4f5d 2abd
00000190: 6f1f 163e bf08 8cbd 6c70 38be 598b ee3d
000001a0: bdbf 8e3c eeed 3b3e 8369 e8bd cef0 12be
000001b0: 08a5 2cbe 8e74 1bbe 683b 153e df33 81bd
000001c0: f52d 213d 1287 f6bd 5c19 8a3d 394b 1d3e
000001d0: 9346 bbbd 5e15 dfbc 0503 38be 7b93 bcbd
000001e0: 4b0f e23b 5df3 c93d d9c3 22be 63a0 333d
000001f0: ecc7 c43d f6da e13d dccf a33d e736 2abe
00000200: 2097 bfbd 4f77 833d 236f babd 9051 0bbe
00000210: c3a5 ad3d f792 823d 1114 963d ef2d 17be
00000220: bfa5 3a3e 6c2f a23b 4a83 a73d 67fe 273d
00000230: d495 06be 213d 8d3c 7904 9c3a ab86 02be

sequential_2/time_distributed_29/conv2d_9/Conv2D i1 [32, 3, 3, 16]
13 47 -56 -61 45 -43 -89 -119
-52 -26 -6 14 15 -8 63 54
-57 -21 34 -48 -12 -7 -73 6
-127 -117 -76 -51 8 -31 -26 -61
8 75 -41 -58 54 23 40 -74
-8 -114 -24 2 19 -3 86 -24
-97 -70 49 -109 25 -64 9 -113
8 -89 18 -64 48 -39 -65 -41
-75 -55 -4 -32 16 -50 -75 -108
-32 -22 -12 -104 -35 -12 9 11
14 26 63 -59 -72 36 37 -57
-43 -96 -35 -65 19 -19 9 57
69 61 18 38 -49 34 42 -68
79 67 53 -16 71 -11 58 65
12 57 -39 91 -45 44 1 -54
-34 -7 27 -70 87 91 1 90
-51 83 14 37 28 1 80 -70
85 8 42 28 3 -51 98 10
67 58 -62 -44 38 22 16 33
12 -24 29 9 -88 -50 -92 -14
28 -83 -84 -82 -93 41 -14 -69
-46 98 33 -55 -49 -47 -122 4
-44 -101 39 23 -103 -58 -82 -11
-8 -19 -1 -7 -83 -116 3 -18
-62 61 41 -28 75 24 65 -74
-76 -14 11 -60 -70 20 -71 -31
-21 23 1 28 -25 -37 -19 -72
51 57 -75 19 -46 -40 1 -12
47 -119 37 72 -53 -73 -103 71
-104 60 -85 -92 -32 38 -25 -113
-29 -70 72 80 -40 -127 -2 -58
-87 72 27 -106 -44 5 -91 -81
00000000: 0d2f c8c3 2dd5 a789 cce6 fa0e 0ff8 3f36
00000010: c7eb 22d0 f4f9 b706 818b b4cd 08e1 e6c3
00000020: 084b d7c6 3617 28b6 f88e e802 13fd 56e8
00000030: 9fba 3193 19c0 098f 08a7 12c0 30d9 bfd7
00000040: b5c9 fce0 10ce b594 e0ea f498 ddf4 090b
00000050: 0e1a 3fc5 b824 25c7 d5a0 ddbf 13ed 0939
00000060: 453d 1226 cf22 2abc 4f43 35f0 47f5 3a41
00000070: 0c39 d95b d32c 01ca def9 1bba 575b 015a
00000080: cd53 0e25 1c01 50ba 5508 2a1c 03cd 620a
00000090: 433a c2d4 2616 1021 0ce8 1d09 a8ce a4f2
000000a0: 1cad acae a329 f2bb d262 21c9 cfd1 8604
000000b0: d49b 2717 99c6 aef5 f8ed fff9 ad8c 03ee
000000c0: c23d 29e4 4b18 41b6 b4f2 0bc4 ba14 b9e1
000000d0: eb17 011c e7db edb8 3339 b513 d2d8 01f4
000000e0: 2f89 2548 cbb7 9947 983c aba4 e026 e78f
000000f0: e3ba 4850 d881 fec6 a948 1b96 d405 a5af

sequential_2/time_distributed_32/conv2d_10/Conv2D i1 [64, 3, 3, 32]
-53 -62 8 -80 -12 -40 4 3
-69 -43 -2 -7 -65 -35 -48 4
-68 7 -95 -90 -102 -48 43 -50
-66 -87 -89 -80 -82 -84 11 52
-11 10 -74 56 38 3 50 66
46 -56 -58 66 48 7 -25 3
-3 -2 -64 16 -17 -42 74 -9
78 -15 -20 39 -94 -2 -23 51
38 40 16 45 57 -5 41 -4
-1 20 47 100 31 -49 56 49
32 -23 -5 -48 -52 18 15 -17
-65 4 -15 44 -67 55 -73 -23
81 15 37 -43 41 -12 -77 48
-88 -42 -64 -65 10 74 -44 32
36 -3 32 -37 38 -46 40 44
-45 -47 28 33 28 -84 -48 -47
37 -36 13 67 57 38 -41 104
-39 -42 -40 -53 58 -57 5 -7
53 -7 -43 -56 -8 43 -26 34
12 57 -11 41 23 -35 96 29
31 65 -9 76 35 -13 -5 21
5 -56 -11 -37 -60 38 -13 68
19 58 -39 6 45 -21 82 -28
-39 -3 -36 -41 46 25 15 56
3 -73 15 -65 2 56 -96 18
-18 64 39 -77 6 39 -12 38
65 73 26 -52 9 80 58 24
39 -1 -19 -96 32 5 8 -28
33 -44 -78 -127 -51 43 -83 92
61 -12 8 -87 7 75 -85 16
61 -28 -6 9 3 117 47 31
-17 99 64 -44 43 -9 45 -94
00000000: cbc2 08b0 f4d8 0403 bbd5 fef9 bfdd d004
00000010: bc07 a1a6 9ad0 2bce bea9 a7b0 aeac 0b34
00000020: f50a b638 2603 3242 2ec8 c642 3007 e703
00000030: fdfe c010 efd6 4af7 4ef1 ec27 a2fe e933
00000040: 2628 102d 39fb 29fc ff14 2f64 1fcf 3831
00000050: 20e9 fbd0 cc12 0fef bf04 f12c bd37 b7e9
00000060: 510f 25d5 29f4 b330 a8d6 c0bf 0a4a d420
00000070: 24fd 20db 26d2 282c d3d1 1c21 1cac d0d1
00000080: 25dc 0d43 3926 d768 d9d6 d8cb 3ac7 05f9
00000090: 35f9 d5c8 f82b e622 0c39 f529 17dd 601d
000000a0: 1f41 f74c 23f3 fb15 05c8 f5db c426 f344
000000b0: 133a d906 2deb 52e4 d9fd dcd7 2e19 0f38
000000c0: 03b7 0fbf 0238 a012 ee40 27b3 0627 f426
000000d0: 4149 1acc 0950 3a18 27ff eda0 2005 08e4
000000e0: 21d4 b281 cd2b ad5c 3df4 08a9 074b ab10
000000f0: 3de4 fa09 0375 2f1f ef63 40d4 2bf7 2da2

sequential_2/time_distributed_35/conv2d_11/Conv2D i1 [64, 3, 3, 64]
42 20 -20 -9 37 32 11 -39
35 -48 32 15 -3 4 -48 41
-68 -8 68 -25 5 -28 83 -36
9 -28 -31 36 43 7 -27 -26
-11 -12 0 4 -34 0 7 25
26 59 -49 17 46 -7 -51 27
-19 17 43 -12 4 -94 -33 29
38 -33 -50 -30 27 -6 -26 -13
-6 -17 -39 34 41 30 -35 -35
4 -33 -39 31 19 -44 -21 -30
-66 31 -21 -14 -3 -39 27 -45
-16 -38 -12 -30 43 19 -37 -48
18 -50 -22 -53 -11 27 8 -17
-19 37 -35 -51 -12 -46 -14 6
33 -3 30 19 -46 -56 48 20
-21 -113 -33 23 -37 -31 33 -10
13 -19 34 -27 16 1 -21 40
36 -67 25 0 7 45 30 -40
19 31 3 -10 -72 28 44 -39
-27 40 21 -47 6 31 -15 49
1 -47 -6 19 15 -1 19 -19
-8 -29 6 39 15 2 -21 17
20 58 -14 23 41 -54 42 -54
3 -52 -38 28 -33 26 44 -2
29 -21 5 33 17 57 8 16
20 5 -12 -16 -11 31 14 44
-22 29 9 19 -6 -25 51 -62
-27 32 34 -35 -37 9 5 -72
-8 -9 42 -16 -31 60 7 27
-47 60 12 21 34 29 82 40
32 -13 52 -26 -41 -127 34 -19
15 -77 47 39 41 41 -39 -9
00000000: 2a14 ecf7 2520 0bd9 23d0 200f fd04 d029
00000010: bcf8 44e7 05e4 53dc 09e4 e124 2b07 e5e6
00000020: f5f4 0004 de00 0719 1a3b cf11 2ef9 cd1b
00000030: ed11 2bf4 04a2 df1d 26df cee2 1bfa e6f3
00000040: faef d922 291e dddd 04df d91f 13d4 ebe2
00000050: be1f ebf2 fdd9 1bd3 f0da f4e2 2b13 dbd0
00000060: 12ce eacb f51b 08ef ed25 ddcd f4d2 f206
00000070: 21fd 1e13 d2c8 3014 eb8f df17 dbe1 21f6
00000080: 0ded 22e5 1001 eb28 24bd 1900 072d 1ed8
00000090: 131f 03f6 b81c 2cd9 e528 15d1 061f f131
000000a0: 01d1 fa13 0fff 13ed f8e3 0627 0f02 eb11
000000b0: 143a f217 29ca 2aca 03cc da1c df1a 2cfe
000000c0: 1deb 0521 1139 0810 1405 f4f0 f51f 0e2c
000000d0: ea1d 0913 fae7 33c2 e520 22dd db09 05b8
000000e0: f8f7 2af0 e13c 071b d13c 0c15 221d 5228
000000f0: 20f3 34e6 d781 22ed 0fb3 2f27 2929 d9f7

sequential_2/lstm_2/Read_2/ReadVariableOp1 f4 [128]
0.06299272 0.0032544495 0.026459247 0.017865391 -0.0034139142 0.0037759908 0.044691123 0.008353436
-0.0033961432 0.021442238 0.0075665973 -0.031084985 0.090904616 -0.0088835005 0.055491798 0.017175928
0.01285814 -0.016643308 0.004665514 -0.007284937 -0.0071776095 -0.02079324 0.020046216 0.0033852025
0.009651274 0.055235278 0.024100767 -0.0021894868 0.014776745 0.024473628 0.012309914 0.04038984
1.0164323 0.9986092 1.0093168 1.0057553 0.987288 0.9966081 1.017212 0.9984898
0.9846806 1.0172075 0.9976544 0.9724522 1.016319 0.9966153 1.0123459 1.0360993
1.0033184 0.988772 1.0016695 0.9909782 0.9849859 0.97744423 1.0083523 0.9918284
1.0117649 1.00903 1.0032287 1.0102302 0.99325556 1.0067687 1.002497 1.0401132
-0.020141322 -0.015699664 -0.014682878 -0.018767342 0.013460717 0.0006165933 0.0124454275 0.009838514
0.020264063 -0.027024586 0.018345714 -0.03275706 -0.0184857 -0.01842558 -0.010666922 0.0052258307
0.015134576 0.005236014 0.03653661 0.004653094 -0.017336473 -0.02211608 -0.016702125 -0.023588821
-0.023739979 0.014236641 -0.017837543 -0.020163462 0.018554626 -0.014148726 -0.02444367 -0.026154371
0.061478492 0.009712038 0.029137189 0.022482049 -0.006969554 -0.0006335026 0.034990944 0.005213105
-0.0048444876 0.030185575 0.011876173 -0.02603657 0.08025162 0.019045446 0.042773757 0.012806491
0.020966558 -0.014089513 0.018212533 -0.0068596234 0.0016586182 -0.0206394 0.020766726 0.004837043
0.022628548 0.0271202 0.011392523 0.0009410326 0.02525672 0.021343453 0.009055794 0.052407924
00000000: 5402 813d 9a48 553b 10c1 d83c 715a 923c
00000010: fabb 5fbb 9d76 773b 0a0e 373d dadc 083c
00000020: d491 5ebb a2a7 af3c 38f1 f73b f0a5 febc
00000030: 332c ba3d 1a8c 11bc 5e4b 633d 88b4 8c3c
00000040: f3aa 523c 8c57 88bc 2be1 983b 7bb6 eebb
00000050: 2732 ebbb 9656 aabc f637 a43c 46da 5d3b
00000060: 6120 1e3c 633e 623d f96e c53c 7e7d 0fbb
00000070: 291a 723c eb7c c83c 86af 493c d16f 253d
00000080: 741a 823f daa4 7f3f 4b31 813f 97bc 803f
00000090: e8be 7c3f b521 7f3f 0134 823f 079d 7f3f
000000a0: 0714 7c3f db33 823f 4766 7f3f a1f2 783f
000000b0: be16 823f 2e22 7f3f 8d94 813f e79e 843f
000000c0: bd6c 803f 2920 7d3f b536 803f bfb0 7d3f
000000d0: 0928 7c3f c939 7a3f b011 813f 77e8 7d3f
000000e0: 8381 813f e527 813f cc69 803f 394f 813f
000000f0: ff45 7e3f ccdd 803f d251 803f 6e22 853f
00000100: 6aff a4bc 959c 80bc 7490 70bc f8bd 99bc
00000110: 578a 5c3c e0a2 213a e8e7 4b3c b831 213c
00000120: d200 a63c aa62 ddbc c049 963c 442c 06bd
00000130: 536f 97bc 3ef1 96bc 50c4 2ebc 723d ab3b
00000140: 03f7 773c de92 ab3b 6aa7 153d fb78 983b
00000150: 3805 8ebc c82c b5bc e5d2 88bc 583d c1bc
00000160: 587a c2bc cd40 693c 0a20 92bc d82d a5bc
00000170: dfff 973c 0fd0 67bc 173e c8bc b141 d6bc
00000180: dfd0 7b3d 3d1f 1f3c 1db1 ee3c 462c b83c
00000190: db60 e4bb a411 26ba aa52 0f3d b2d2 aa3b
000001a0: 82be 9ebb bd47 f73c 4894 423c a54a d5bc
000001b0: f65a a43d 3205 9c3c 8933 2f3d 51d2 513c
000001c0: 0fc2 ab3c b3d7 66bc 7332 953c b1c6 e0bb
000001d0: fe65 d93a f613 a9bc fb1e aa3c 0f80 9e3b
000001e0: 815f b93c 2f2b de3c b4a7 3a3c a1af 763a
000001f0: 2ee7 ce3c 77d8 ae3c c15e 143c b1a9 563d

while/MatMul_11 i1 [128, 32] scale=0.0029015322 zero_point=0
-0.063833706 0.023212258 -0.07543984 0.05222758 -0.09284903 -0.09284903 -0.020310726 -0.14507662
0.0 -0.081242904 0.040621452 0.084144436 0.116061285 0.060932178 0.011606129 -0.10155363
-0.03481839 0.058030643 0.07543984 0.008704597 0.063833706 -0.09284903 0.014507661 -0.014507661
-0.16828887 -0.116061285 0.07834137 -0.081242904 0.07543984 0.121864356 -0.07834137 0.043522984
-0.0058030644 0.13347048 -0.063833706 -0.098652095 -0.049326047 -0.05512911 0.049326047 0.15958427
-0.023212258 0.023212258 -0.040621452 -0.029015321 0.0058030644 0.09575056 0.0029015322 -0.02611379
-0.03771992 0.029015321 -0.049326047 0.023212258 -0.029015321 0.10445516 -0.029015321 0.08704597
-0.020310726 -0.10155363 0.10735669 -0.081242904 -0.0058030644 -0.008704597 0.06673524 0.07834137
0.017409194 0.098652095 0.031916853 -0.06673524 -0.09284903 -0.063833706 0.040621452 -0.03481839
0.22051644 0.06673524 -0.06963678 0.06963678 -0.023212258 -0.058030643 -0.058030643 0.014507661
-0.011606129 0.014507661 0.11025822 -0.02611379 -0.058030643 -0.084144436 0.03771992 -0.05222758
-0.19440266 -0.05512911 -0.03771992 0.11315975 -0.063833706 -0.0899475 -0.046424516 -0.16248581
-0.07253831 0.07253831 -0.07253831 0.060932178 0.09284903 -0.15668274 0.11315975 -0.0058030644
0.023212258 0.02611379 -0.15668274 -0.0899475 -0.020310726 -0.081242904 0.13347048 -0.10445516
0.1885996 0.05512911 -0.14507662 0.20310725 -0.09575056 -0.10445516 -0.07543984 0.06673524
0.060932178 0.13637201 -0.063833706 -0.09284903 0.07543984 -0.049326047 -0.07834137 -0.07253831
0.023212258 -0.121864356 -0.02611379 0.03771992 -0.058030643 -0.020310726 0.049326047 -0.07253831
-0.16248581 -0.09575056 0.058030643 -0.12476589 0.14797814 0.020310726 0.058030643 0.11025822
0.046424516 -0.0058030644 0.14507662 -0.05222758 -0.049326047 -0.049326047 0.06673524 -0.014507661
-0.020310726 -0.029015321 0.12766741 -0.12766741 0.05222758 -0.09575056 -0.060932178 -0.043522984
0.14217508 -0.11025822 0.017409194 -0.2263195 0.008704597 -0.10445516 0.098652095 0.058030643
-0.20891032 -0.011606129 0.008704597 0.07543984 -0.058030643 -0.116061285 -0.14797814 -0.098652095
-0.0899475 -0.118962824 0.179895 0.03771992 -0.058030643 0.02611379 0.19150113 0.0
-0.10445516 0.049326047 -0.05512911 -0.049326047 0.10445516 0.03771992 0.063833706 -0.008704597
0.011606129 0.13637201 0.05512911 0.063833706 -0.020310726 -0.07543984 0.0 0.17699346
-0.011606129 0.11315975 -0.14797814 0.06673524 0.16248581 0.14507662 0.06673524 0.06963678
0.07543984 0.17409194 0.09575056 -0.017409194 -0.09575056 -0.13056895 -0.05222758 0.049326047
0.02611379 0.03771992 0.020310726 -0.03771992 -0.011606129 0.15668274 -0.046424516 -0.098652095
0.0029015322 0.0058030644 0.118962824 0.011606129 0.1537812 -0.07834137 -0.043522984 -0.05512911
0.060932178 0.16538733 0.17409194 -0.21471338 0.043522984 -0.049326047 0.02611379 0.063833706
0.046424516 0.029015321 0.22922105 -0.040621452 0.14507662 0.05512911 -0.0058030644 0.14217508
0.084144436 0.040621452 0.03481839 0.0899475 0.05222758 0.020310726 0.023212258 0.10735669
00000000: ea08 e612 e0e0 f9ce 00e4 0e1d 2815 04dd
00000010: f414 1a03 16e0 05fb c6d8 1be4 1a2a e50f
00000020: fe2e eade efed 1137 f808 f2f6 0221 01f7
00000030: f30a ef08 f624 f61e f9dd 25e4 fefd 171b
00000040: 0622 0be9 e0ea 0ef4 4c17 e818 f8ec ec05
00000050: fc05 26f7 ece3 0dee bded f327 eae1 f0c8
00000060: e719 e715 20ca 27fe 0809 cae1 f9e4 2edc
00000070: 4113 ce46 dfdc e617 152f eae0 1aef e5e7
00000080: 08d6 f70d ecf9 11e7 c8df 14d5 3307 1426
00000090: 10fe 32ee efef 17fb f9f6 2cd4 12df ebf1
000000a0: 31da 06b2 03dc 2214 b8fc 031a ecd8 cdde
000000b0: e1d7 3e0d ec09 4200 dc11 edef 240d 16fd
000000c0: 042f 1316 f9e6 003d fc27 cd17 3832 1718
000000d0: 1a3c 21fa dfd3 ee11 090d 07f3 fc36 f0de
000000e0: 0102 2904 35e5 f1ed 1539 3cb6 0fef 0916
000000f0: 100a 4ff2 3213 fe31 1d0e 0c1f 1207 0825

while/MatMul i1 [128, 256] scale=0.0020885696 zero_point=0
-0.07727707 0.020885695 0.06056852 -0.10442848 0.13366845 0.043859962 0.12740274 0.1441113
0.1441113 0.11904847 0.056391377 -0.10233991 -0.020885695 0.0751885 0.10233991 0.010442847
-0.056391377 0.09816277 -0.054302808 0.085631356 0.05221424 0.0020885696 -0.10442848 0.031328544
-0.056391377 0.10233991 -0.027151404 0.06265709 -0.016708557 -0.07727707 0.112782754 0.03968282
0.027151404 0.06056852 0.029239975 0.085631356 0.108605616 -0.071011364 0.21512267 0.008354278
-0.022974266 0.12113704 0.031328544 -0.06474566 -0.027151404 -0.008354278 0.08354278 -0.10233991
0.04594853 -0.03968282 -0.06474566 -0.068922795 0.07309993 0.09398563 -0.08354278 -0.0062657087
-0.043859962 -0.08145421 0.03968282 -0.0020885696 -0.056391377 0.14828844 -0.07936564 0.008354278
-0.012531417 0.112782754 0.087719925 0.16290842 0.018797126 -0.035505682 -0.016708557 -0.085631356
-0.004177139 0.054302808 -0.022974266 0.014619987 -0.025062835 -0.027151404 0.0062657087 0.05847995
-0.03759425 -0.09816277 0.09816277 0.03759425 0.06056852 0.11904847 0.056391377 0.0020885696
0.0020885696 0.035505682 -0.029239975 0.17126271 -0.04177139 0.025062835 -0.07936564 0.033417113
0.016708557 -0.17126271 -0.089808494 0.004177139 0.11904847 0.027151404 0.2067684 -0.09398563
-0.089808494 0.10651705 0.0751885 0.031328544 0.10025134 -0.108605616 0.08145421 -0.035505682
0.09189706 -0.05012567 0.108605616 0.11487132 -0.031328544 0.016708557 0.033417113 -0.07309993
-0.06474566 -0.0480371 -0.029239975 0.068922795 -0.09189706 -0.071011364 0.089808494 0.108605616
-0.0480371 0.17335127 0.06265709 -0.066834226 -0.08145421 0.06265709 0.085631356 -0.071011364
0.17543985 0.025062835 0.08145421 0.110694185 0.07309993 0.025062835 0.056391377 0.12531418
0.16081986 0.07727707 0.018797126 -0.029239975 0.10442848 -0.068922795 0.004177139 0.066834226
0.19423696 -0.008354278 0.008354278 -0.022974266 0.04177139 0.056391377 -0.10025134 0.06265709
0.09816277 0.043859962 -0.08145421 0.0751885 -0.014619987 -0.022974266 0.03759425 0.2067684
-0.085631356 0.18588269 -0.05221424 -0.0020885696 0.110694185 -0.010442847 0.1441113 0.08354278
0.10442848 0.13993417 0.10651705 0.10025134 0.11487132 0.1169599 -0.08354278 0.018797126
0.17126271 0.035505682 0.056391377 -0.10651705 0.0480371 0.1984141 0.035505682 -0.10651705
-0.12949131 0.11487132 0.16708556 0.087719925 0.0480371 0.089808494 -0.068922795 0.089808494
0.14202273 0.033417113 -0.085631356 -0.06474566 -0.03759425 0.020885695 0.035505682 0.04177139
0.087719925 0.05847995 0.04177139 -0.0960742 0.05847995 -0.11487132 -0.03759425 -0.014619987
-0.09816277 -0.035505682 0.014619987 0.12113704 -0.029239975 -0.12322561 -0.09816277 0.10233991
-0.08145421 -0.12322561 -0.09398563 0.10651705 0.0020885696 -0.03968282 -0.0062657087 0.014619987
-0.10233991 -0.020885695 0.0960742 0.004177139 -0.08145421 -0.09189706 -0.06265709 -0.054302808
0.0960742 0.12113704 -0.08145421 -0.110694185 -0.022974266 0.112782754 0.1169599 -0.05221424
-0.108605616 -0.0020885696 0.12113704 0.010442847 0.022974266 0.14202273 0.09816277 -0.10442848
00000000: db0a 1dce 4015 3d45 4539 1bcf f624 3105
00000010: e52f e629 1901 ce0f e531 f31e f8db 3613
00000020: 0d1d 0e29 34de 6704 f53a 0fe1 f3fc 28cf
00000030: 16ed e1df 232d d8fd ebd9 13ff e547 da04
00000040: fa36 2a4e 09ef f8d7 fe1a f507 f4f3 031c
00000050: eed1 2f12 1d39 1b01 0111 f252 ec0c da10
00000060: 08ae d502 390d 63d3 d533 240f 30cc 27ef
00000070: 2ce8 3437 f108 10dd e1e9 f221 d4de 2b34
00000080: e953 1ee0 d91e 29de 540c 2735 230c 1b3c
00000090: 4d25 09f2 32df 0220 5dfc 04f5 141b d01e
000000a0: 2f15 d924 f9f5 1263 d759 e7ff 35fb 4528
000000b0: 3243 3330 3738 d809 5211 1bcd 175f 11cd
000000c0: c237 502a 172b df2b 4410 d7e1 ee0a 1114
000000d0: 2a1c 14d2 1cc9 eef9 d1ef 073a f2c5 d131
000000e0: d9c5 d333 01ed fd07 cff6 2e02 d9d4 e2e6
000000f0: 2e3a d9cb f536 38e7 ccff 3a05 0b44 2fce
